canonical_models/16actor.pt (torch, 552373 bytes, 14 tensors)

trunk.network.0.weight f4 [256, 9]
000000 08 71 3f 3c 90 69 4a be 02 d3 42 3f f5 f9 4f bd
       0.011684664 -0.19766831 0.7610322 -0.050775487
000010 a3 d3 6f 3f 19 e6 50 3e 54 27 32 3e 96 76 80 be
       0.93682307 0.20400275 0.17397815 -0.25090474
000020 5c 76 b2 3d 82 91 8b bd 06 7b d9 bc 73 d0 9e bd
       0.087139815 -0.06814863 -0.02654792 -0.07754602
000030 36 e7 41 3f 6b 34 ff be 7f 96 0f 3e d3 dc cc 3e
       0.75743425 -0.4984468 0.14022253 0.40012226
000040 31 1f 10 bd 99 d9 70 3d 9d d1 c3 3c 9e 37 8c bd
       -0.035185996 0.058801267 0.023903662 -0.06846546
000050 ef 82 8f bd 75 85 72 3f 6d 76 5e bf a6 46 eb 3d
       -0.070073955 0.9473489 -0.86899453 0.114880845
000060 0f b2 a7 3d 4e 10 3d 3e 96 62 bf 3e 9d 6a 0d be
       0.08188259 0.18463251 0.37379903 -0.13810201
000070 e7 78 82 bd a5 9c 84 3e 55 7a a0 bd 6f 77 10 3f
       -0.063707165 0.2590076 -0.07835833 0.5643224
000080 af b0 5c be cc bb 39 3e 51 18 4a 3d 65 f4 8f bc
       -0.21551774 0.18138045 0.049339596 -0.017572591
000090 80 72 54 3e 08 15 60 be 27 d9 3c bd c8 6b 38 be
       0.20746803 -0.21883023 -0.04610553 -0.18009865
0000a0 7a 10 fd 3e b7 db 65 3e 6b 35 0c 3d 85 61 28 3d
       0.49426633 0.22447096 0.03423063 0.041108627
0000b0 c2 40 81 3e c7 8e 62 be 3e 39 3a be 93 72 2a be
       0.2524472 -0.22124778 -0.18185899 -0.16645269
0000c0 f5 3d 49 3d 87 48 83 bd 83 a4 d6 be 24 39 07 3d
       0.049131352 -0.06410318 -0.41922387 0.033013478
0000d0 41 14 29 be 40 1a 10 3e 67 06 64 be 56 ea e8 bc
       -0.16511633 0.14072514 -0.22268067 -0.028432053
0000e0 2f 0a 2b be 15 fe 5c 3f 99 ce 2b bd a1 f0 99 3e
       -0.16703103 0.863252 -0.041945074 0.30066398
0000f0 b3 28 2e 3e 4e c0 16 bd 5b 35 9f bb ac b5 16 3e
       0.17007713 -0.03680449 -0.0048586554 0.1471774
000100 85 49 3c be ea f2 5b be 23 fd 39 bf ce 4a 07 3e
       -0.1838742 -0.21479383 -0.7265188 0.1321213
000110 2a 3b a0 3e c3 78 ee 3d 10 6e 79 bc 0a 35 c3 3e
       0.3129514 0.11644127 -0.015223995 0.38126403
000120 d9 dc 4f be 71 0e 59 bd c9 7d 5a 3c 13 53 bd be
       -0.2029909 -0.052992288 0.013335654 -0.36977443
000130 03 32 c5 be 1f 26 6a 3e ea e8 bd 3c b4 85 4e bf
       -0.38514718 0.22866105 0.023182351 -0.80672765
000140 ea 73 17 3e 0a 97 91 be 62 5c a0 bc 57 9e 97 bd
       0.14790311 -0.28435546 -0.019575302 -0.07403248
000150 30 26 25 be 79 1d cb be f9 05 64 bf bd 52 cc 3c
       -0.16127849 -0.39670923 -0.89071614 0.024941796
000160 00 26 41 3e 5f 5f 3b bd 44 c3 b0 bd e8 23 db bd
       0.18862152 -0.04574525 -0.08630994 -0.10700208
000170 f5 fe 4c be 83 75 3e 3f 7d 61 54 bf 26 4f 6f bd
       -0.20019133 0.7439806 -0.82961255 -0.05842509
000180 fa a8 bd 3d bd 3d a1 3d 8a ce 8f 3e 28 03 2d be
       0.09260745 0.07873104 0.28087264 -0.16895735
000190 87 7c e9 bb c1 f6 99 bd 6a 41 b7 3e 89 d4 af bd
       -0.0071254405 -0.07517768 0.35792094 -0.0858546
0001a0 90 02 14 be d7 f9 aa 3e c0 45 41 bd 91 cd 98 3e
       -0.14454103 0.33393738 -0.04718566 0.29844335
0001b0 37 50 1a be 42 a1 fa 3c b3 c4 31 be db 15 38 3e
       -0.15069662 0.030594472 -0.17360191 0.17977087
0001c0 78 c5 16 3f 68 f2 68 be 31 78 66 3d 78 02 0e 3d
       0.58895063 -0.2274872 0.056266967 0.034670323
0001d0 2c 44 8d 3e 34 fe 07 be 03 70 72 be b3 69 3e 3e
       0.27591074 -0.13280565 -0.23675542 0.18595009
0001e0 76 d8 8f bb 98 cf d5 3b cf e4 ad bc 26 5a b6 3e
       -0.004389818 0.0065249912 -0.021227269 0.35615653
0001f0 43 4c a3 be cb 34 39 be 22 56 3e be 7d 22 a9 3d
       -0.3189412 -0.18086545 -0.18587545 0.08258531
000200 9b 57 85 be db 57 08 3f 31 47 06 bf ed 02 25 3e
       -0.260434 0.53259057 -0.5245238 0.16114397
000210 ed 92 cf bd af c8 de 3d 66 22 69 3e f5 8b 22 3d
       -0.10135446 0.10878121 0.22767028 0.039684255
000220 70 82 09 bd e3 1b 1c bd 1c 38 24 bd 74 5b 1a bf
       -0.03357166 -0.038112532 -0.040092573 -0.60295796
000230 d3 02 f4 bc b2 d5 c8 3e d7 d0 41 3e 19 74 a4 3e
       -0.029786503 0.39225537 0.18927322 0.32119825
000240 b2 80 43 be e0 81 57 be 0e 9b 2b 3d bb b3 07 bf
       -0.19092062 -0.21045637 0.04189592 -0.5300862
000250 18 dd a3 3e 41 ce 55 3e b9 69 8e 3e d6 9d 53 3e
       0.3200462 0.20879461 0.27815035 0.20665678
000260 60 75 71 3e f6 06 88 be a1 ae be 3d 09 31 23 be
       0.23579931 -0.2656781 0.093106516 -0.15936674
000270 20 15 8c 3e 2b 91 51 3d 5d bf af 3d f9 f7 80 3e
       0.27359867 0.051163834 0.085814215 0.25189188
000280 51 15 83 3e e3 d7 c9 be 03 4b 2c 3e 87 04 4d be
       0.256022 -0.3942252 0.1682549 -0.20021258
000290 e2 95 78 bc c0 fb f5 3e d2 cd d9 3e 2f b3 83 3e
       -0.015172454 0.48043633 0.4253984 0.25722644
0002a0 6d 12 0b 3e 70 96 b3 bd a2 d3 2f 3e f3 ee a7 bd
       0.13581248 -0.08768928 0.17170575 -0.08199873
0002b0 2a a1 a9 bd 9e bd 1b be 97 ed 8e bf a0 4a 9e 3f
       -0.08282693 -0.15209052 -1.1166257 1.2366524
0002c0 e9 e1 69 3e 84 90 28 bd 31 d9 37 3e 4d 15 31 3e
       0.22840084 -0.041153446 0.17953946 0.17293282
0002d0 4e 1d 05 bc df 8b 7d 3b c5 f8 f8 bd 6d 03 1a 3f
       -0.008124663 0.0038688106 -0.12156824 0.6016148
0002e0 2d fd 84 bd 2d 4b f2 3e 7e bb 44 3e db ac 2b 3e
       -0.06493602 0.4732298 0.19212148 0.16765158
0002f0 16 af 01 bf 1d a8 74 be a6 8f 60 be 24 ef 8b be
       -0.50657785 -0.23892255 -0.21929798 -0.27330887
000300 81 c4 6e 3e 0a 18 7d 3e 0d 07 ca 3e 53 5c ca 3e
       0.23317148 0.24716201 0.39458504 0.39523563
000310 ea 95 02 3e 5a 8e c4 bd 96 3f 4b be a9 5e b5 3d
       0.127525 -0.09597464 -0.19848475 0.088559456
000320 68 18 2b be 54 a2 84 bf f4 69 3e 3f 3f 3d 10 3e
       -0.16708529 -1.0362039 0.7438042 0.14085864
000330 c7 14 43 3d b1 fe 6d 3e 2d c8 54 3e 67 57 fb bd
       0.047627237 0.23241688 0.20779486 -0.1227253
000340 2f 52 4d bd e5 e8 ff bc 64 3d 61 3f d0 77 f1 bd
       -0.050127205 -0.031238982 0.879843 -0.117904305
000350 9f c9 b0 be 9a 82 ec be c4 18 9c 3e a8 26 9b 3e
       -0.34528825 -0.4619339 0.30487645 0.3030293
000360 ef 67 80 3d e3 72 3e be ba 78 4b 3c 7d 73 e5 be
       0.06269824 -0.18598513 0.01241892 -0.44814673
000370 5a 74 97 bf 5f a7 e6 3d c1 e9 1c 3d bb 2a ab 3d
       -1.1832383 0.11262392 0.038308863 0.083577596
000380 ba 9d 3d be 57 be f4 bd 97 c0 40 3c d7 d6 02 be
       -0.18517199 -0.11950367 0.011764667 -0.12777267
000390 6f 4d e0 3e 16 ca 23 be 31 db ba 3d cb 8c d8 3d
       0.43809077 -0.15995058 0.09123839 0.10573729
0003a0 ae 85 3e 3e 8b 32 3b 3d 20 05 88 be 0d 2a 4e 3d
       0.18605682 0.0457025 -0.2656641 0.05033307
0003b0 b3 0c 8a bc a8 72 d1 3e ce c0 5b be 1f 99 98 be
       -0.016851759 0.40907788 -0.21460268 -0.29804322
0003c0 3c 4a 3a 3e 32 29 46 3e 59 e1 b1 3d 0a 75 ee 3d
       0.1819238 0.19351652 0.0868556 0.11643417
0003d0 34 35 4f be e3 d2 b3 bd 74 7e 65 3f aa 3f 85 be
       -0.20235139 -0.08780458 0.8964608 -0.26025134
0003e0 06 b2 43 3e 89 7b 67 3e 43 be 04 be 50 e7 cd be
       0.1911088 0.22605719 -0.12963204 -0.4021554
0003f0 05 b8 8a bd 50 f7 85 be ba 75 10 3d 13 ec 3c bf
       -0.0677338 -0.26165247 0.035268523 -0.7379772

trunk.network.0.bias f4 [256]
000000 7f 34 b5 bd aa 53 fe bd 36 c8 37 3d f7 fc ce bd
       -0.088479035 -0.124183014 0.04486867 -0.10106843
000010 82 66 a8 3e b6 36 85 3e 83 0f b6 3c a3 08 8d 3d
       0.32890707 0.26018304 0.022224193 0.06886413
000020 38 0e b1 3d f6 e5 20 3e 74 04 32 be e4 14 b4 3e
       0.0864529 0.15712723 -0.17384511 0.35172188
000030 cf 12 5a 3e a7 62 d0 bd 04 7d ad 3d 06 bc 2a 3e
       0.21296237 -0.101750664 0.084711105 0.16673288
000040 3d 6e 50 3e fc 3b 73 3e 3e b4 e7 3d b0 c7 09 be
       0.20354553 0.23753351 0.11313675 -0.13455081
000050 6d 82 81 3e 8f 3e 36 3e 47 93 fb 3d da 07 03 3d
       0.2529482 0.17797302 0.1228395 0.03198991
000060 cf 50 c5 bd 98 5e ad 3e 6c 03 5d bb 4a e6 4e 3d
       -0.09634554 0.33861232 -0.0033723963 0.05051259
000070 3e 42 e6 3e da 64 40 be ce 1d 99 3e 28 f9 be 3e
       0.44972414 -0.18788472 0.29905552 0.37299466
000080 6b 21 3c 3c e9 af 42 3d ad 8a 33 3e 78 e7 90 3e
       0.011482577 0.047531042 0.1753337 0.28301597
000090 c8 b3 c9 bd 58 00 cf 3e 44 57 09 be 33 ab 17 bc
       -0.09848744 0.4042995 -0.13412195 -0.009257126
0000a0 ba bd 0c be 24 fb 86 3e 26 88 cf 3c ff bc 7f 3e
       -0.1374425 0.2636348 0.025333475 0.2497444
0000b0 ea aa cf 3e af 4a d4 bd 95 ab e1 bd 68 03 9c 3c
       0.40560085 -0.10365807 -0.11019055 0.019044593
0000c0 6b 92 03 3e 04 d0 b8 3d 70 25 e9 3d 91 64 36 3e
       0.12848823 0.09024051 0.11384094 0.178118
0000d0 ca 66 20 be 44 ce 6a be ae 06 ba bd 6e b6 29 3e
       -0.15664211 -0.22930247 -0.09083305 0.16573498
0000e0 b0 5e 61 be 5b 24 cf 3d 91 18 80 3e 53 c7 02 3d
       -0.22008777 0.10114356 0.25018743 0.03192837
0000f0 fe 31 e5 3e b1 ac 17 3e 50 21 84 bd 5c ff c2 3d
       0.44764704 0.1481197 -0.06451666 0.09521362
000100 f8 60 c6 3e b0 4e ca 3e 5d a3 a1 bd 0e e2 93 3e
       0.38745856 0.3951316 -0.07892487 0.28883404
000110 75 5a b8 bd c7 dc 41 bd 99 b1 06 bd 8d 18 8e 3e
       -0.09001628 -0.04732969 -0.032884214 0.27753106
000120 2f f5 30 be c7 f8 cd 3e 0a 8b ad 3e 98 ab b5 3e
       -0.1728103 0.40228865 0.3389514 0.35482478
000130 78 8d 84 3e 04 e4 90 be 4e e1 7b bd f2 6e da bd
       0.25889182 -0.28298962 -0.061494164 -0.106656924
000140 59 39 ac 3e 96 e3 3f be 0e 10 92 3e da fb 6b 3e
       0.33637503 -0.18739161 0.28527874 0.23045292
000150 5d ce aa 3e fc 2a 19 be ae 91 9d 3e b1 7e b6 3e
       0.33360568 -0.14957803 0.30775207 0.35643533
000160 ce 11 c4 3e 77 96 05 3e d3 43 d3 bd d1 35 d9 3e
       0.38294834 0.13045679 -0.10315671 0.4242387
000170 7e c8 d2 3c 5c 58 7b 3e 79 58 ae 3d 66 c6 58 be
       0.025730368 0.24545425 0.085129686 -0.21169433
000180 9c 5e c6 3e 5d 35 2b 3e 06 6c 14 3e 3e d9 da 3d
       0.38744056 0.16719575 0.14494333 0.10685967
000190 17 57 12 3e e0 26 a0 3e 4c dd 77 3d 1c 27 d3 bd
       0.14291035 0.3127966 0.06051378 -0.10310194
0001a0 68 72 d4 3e d3 22 11 3e 4f 63 66 bb 7b a6 d4 3d
       0.41493535 0.1417344 -0.0035154407 0.10383316
0001b0 94 bd bd 3e a2 36 a0 bd d2 9c 8f 3e d1 87 83 bd
       0.370587 -0.078229204 0.28049332 -0.06422389
0001c0 a9 ec 4c bc 7a 9f 74 bc 00 f4 10 bc 44 b5 89 3e
       -0.012507596 -0.0149306 -0.008847237 0.26896107
0001d0 58 94 30 3e 04 df e2 3d c6 0c ed 3e 0e 40 80 3e
       0.17244089 0.11077693 0.46298808 0.2504887
0001e0 9e 9e 3f bd a1 5f 0b bd 7c 53 3d be df f6 16 3e
       -0.04678213 -0.034026746 -0.18488878 0.14742611
0001f0 61 ec 53 be 07 ef 6c be 9e 48 3e bd d7 6b 93 bc
       -0.2069564 -0.23138057 -0.046455972 -0.017995758
000200 e8 2f 9f bd 57 8f 96 3e 07 1a 87 be 6a 3a 05 be
       -0.07772809 0.29406235 -0.26387045 -0.13010564
000210 22 ac 13 be 77 32 c1 3e ae 69 1a be 46 07 33 bb
       -0.14421132 0.37733814 -0.15079376 -0.0027317568
000220 fa 94 25 3d 4a 7f ae 3e 86 36 7f 3e a2 85 d6 3e
       0.04042528 0.3408149 0.24923143 0.4189883
000230 34 65 64 bd 48 63 2f 3e ce 6e a8 be 05 64 55 be
       -0.055760577 0.17127717 -0.32897037 -0.20838936
000240 bd cf c1 bd 1f df 85 3e 19 43 1e 3e a9 5a eb bd
       -0.09463451 0.2614679 0.15455283 -0.114919014
000250 d5 64 95 3e 10 ce 55 3e dc 50 45 bd 9c 2d 88 3e
       0.2917849 0.20879388 -0.048172817 0.26597297
000260 00 5d 6b be ff db 52 be cf 4e 35 3e de 62 02 be
       -0.22984695 -0.20591734 0.17705844 -0.12733027
000270 29 1c bb 3e 23 6a c9 3e 24 e2 56 3e 00 52 83 be
       0.36544922 0.39338788 0.20984703 -0.256485
000280 ee ac 8a 3e 5f a2 86 3d 81 6b 72 bd bf 61 0b 3c
       0.2708506 0.065739386 -0.059184555 0.008507191
000290 8a bb 06 be 52 d2 a2 be c3 89 51 be 88 4f 36 bd
       -0.13157478 -0.31801087 -0.20462708 -0.04450944
0002a0 ad cb de bd ef 8a 3c be 88 37 52 be 29 f9 9e 3d
       -0.10878692 -0.18412374 -0.20528996 0.07762367
0002b0 fe 03 3f 3e 4e 9a 8d 3d 53 27 c4 bd 9f 08 e6 3e
       0.18653867 0.06914197 -0.09577813 0.44928452
0002c0 f3 1d ac 3e 3c 60 0d 3e f2 89 0c be e8 64 4e be
       0.336166 0.13806242 -0.13724497 -0.2015568
0002d0 e9 fe 86 bd 97 74 58 be f0 8f 83 3d 06 e8 c4 3e
       -0.06591589 -0.21138225 0.06423938 0.3845827
0002e0 9d ab d6 3c f9 66 6a 3e 38 8f 09 3e 7d fa c7 3e
       0.026204878 0.22890843 0.1343354 0.39058295
0002f0 61 8f c4 3d ab b0 e7 3c 62 9a 81 3e b6 11 ec bc
       0.0959766 0.028282484 0.25313097 -0.028817039
000300 71 44 46 3e 92 1e 43 3d e1 99 08 be 07 3e bc 3c
       0.19362046 0.047636576 -0.1333995 0.022978796
000310 e2 06 f2 bd dc 0a 0f be ad a4 8f bd 7c 2d 8e bc
       -0.11817719 -0.13968986 -0.07013831 -0.017355673
000320 33 53 b9 3e 74 77 8e be 29 02 83 3d 1f 04 70 3e
       0.36196288 -0.2782551 0.063968964 0.23439072
000330 fd 58 c9 3c 89 34 82 3d c4 a6 4f 3e 92 a8 86 3e
       0.024578566 0.063576765 0.2027846 0.26300484
000340 86 53 9b be 9c b8 e2 3d 71 d4 95 be cf 28 8f be
       -0.3033716 0.11070368 -0.29263642 -0.27960822
000350 58 3b 37 be c7 52 6a 3e 1c 9e bb 3e 66 89 3d ba
       -0.17893732 0.2288314 0.36644065 -0.0007230252
000360 4d 70 b9 bd 6a 06 2d 3e 86 66 3e be 4a c8 09 bd
       -0.09054623 0.16896978 -0.18593797 -0.033638276
000370 3f c0 0d bc 33 06 6f 3e 72 bf ad 3e d0 cf 5c 3c
       -0.008651792 0.23342209 0.33935124 0.013477281
000380 f7 c3 80 bd 18 60 47 3e 77 4b e5 3d 2c d1 a9 3d
       -0.06287377 0.1947025 0.111960344 0.082918495
000390 e9 74 ea bd e0 3a 4e 3e dc 50 83 bd f5 42 9e 3e
       -0.1144808 0.20139647 -0.06411907 0.3091046
0003a0 4b 26 10 bd e1 97 ed 3d 7a f4 b7 bd b0 3c 06 bd
       -0.03519277 0.11601234 -0.08982177 -0.03277272
0003b0 26 c7 c7 3d 96 13 ca 3e 45 bb 8a be cb b0 be 3e
       0.097547814 0.39468068 -0.27096 0.37244257
0003c0 6e e8 2a be 0d b0 aa 3d d0 28 47 3e 56 8d 25 be
       -0.16690227 0.0833436 0.19449162 -0.16167197
0003d0 5b b8 57 3e 26 d3 3d be 85 ba b8 3e 04 83 05 3c
       0.2106642 -0.18537578 0.36079803 0.008148912
0003e0 a9 e8 4d 3d 85 e3 57 3e 6d e1 f1 3d 30 9f b5 3b
       0.05027071 0.21082886 0.11810575 0.0055426583
0003f0 b5 5f a7 bd 2e 03 97 3d b1 fe c0 bd b1 47 b7 3e
       -0.081725515 0.07373653 -0.094235785 0.35796884

trunk.network.1.weight f4 [256]
000000 1d 2a a7 3f bf 16 8f 3f 17 c9 90 3f 81 44 83 3f
       1.3059727 1.1178817 1.1311368 1.0255281
000010 66 77 3d 3f 06 83 31 3f 65 66 38 3f 6f b5 53 3f
       0.7401031 0.6934055 0.7203124 0.8269872
000020 bf 47 94 3f 19 19 ab 3f dd d4 35 3f 07 50 75 3f
       1.1584395 1.3367034 0.7102793 0.9582524
000030 cb c4 96 3f eb bd 8c 3f 86 67 6c 3f 0c 5b 7d 3f
       1.1778806 1.0995458 0.92345464 0.9896705
000040 17 83 98 3e 9f 4f 61 3f be d5 5a 3f 0f 6f 75 3f
       0.29787514 0.8801212 0.85482395 0.95872587
000050 d1 46 8e 3f 59 ff 8e 3e db 59 6a 3f 13 43 83 3f
       1.1115361 0.2792919 0.9154336 1.0254844
000060 9b 99 59 3f 27 39 4d 3f de 53 9c 3f 23 41 94 3f
       0.8500001 0.8016533 1.2213094 1.1582378
000070 1b 35 7d 3f b8 1c a4 3f 21 c4 91 3f 4c 8a 4e 3f
       0.9890916 1.2821264 1.1387979 0.80679774
000080 73 90 9d 3f 0f 1c 64 3f df af 90 3f 41 85 85 3f
       1.2309707 0.89105314 1.1303672 1.0431291
000090 56 7d 07 40 53 b9 b4 3f d6 fe c3 3e b0 69 c4 3f
       2.117025 1.4119056 0.38280362 1.5344753
0000a0 f4 db a6 3f dd 07 6b 3f 68 92 80 3f 16 1d c8 3f
       1.3035874 0.91808873 1.004468 1.5633876
0000b0 9e c9 95 3f ca 9a 8b 3f bd 7b 54 3f 3d f4 86 3f
       1.1702154 1.0906613 0.8300131 1.0543286
0000c0 67 db 92 3f e1 f9 ad 3f 47 c1 b7 3f 0a 5e db 3e
       1.1473206 1.3591882 1.4355859 0.42845184
0000d0 a1 99 ab 3f 59 fd 83 3f 13 70 8f 3f 99 09 0c 3f
       1.3406259 1.031169 1.1206077 0.54702145
0000e0 ab de bf 3f 54 32 3d 3f fc 55 ab 3f a4 63 37 3f
       1.4989828 0.7390492 1.3385615 0.71636415
0000f0 9c 9b 4b 3f 77 11 a3 3f df 13 8a 3f 66 93 5c 3f
       0.79534316 1.2739705 1.0787314 0.8616241
000100 d1 80 6c 3f 5e 6a f9 3e c6 7b 67 3f f5 dd 5e 3f
       0.9238406 0.48713964 0.9042324 0.8705743
000110 f5 48 82 3f 6f 2c b7 3f d6 b3 69 3f 81 ed 84 3f
       1.0178515 1.4310435 0.9129003 1.038498
000120 cb 7c 69 3f 11 a2 6d 3f 81 ba 01 40 8b d0 ca 3f
       0.91206044 0.9282542 2.0270083 1.5844892
000130 a6 21 0a 3f 79 a6 cd 3f af 36 8b 3f 2c 64 9e 3f
       0.53957593 1.6066428 1.0876063 1.237432
000140 43 7a 3a 3f 50 ca 8f 3f f3 dd e0 3f c1 29 84 3e
       0.72842807 1.1233616 1.7567734 0.25813106
000150 83 df 5c 3f 4a 20 85 3f 54 3e 82 3e 91 50 1f 3f
       0.8627855 1.0400479 0.25438178 0.6223231
000160 3d 55 17 3f fe fa a0 3f b2 71 9b 3f 4c 2a c8 3f
       0.5911444 1.2576597 1.2144072 1.5637908
000170 6f ee 57 3f b6 fe 9e 3f 6a 04 89 3f c2 97 2f 3f
       0.84348196 1.2421482 1.0704472 0.6859094
000180 dc 08 4d 3f 1c e3 6e 3f 58 ce 9e 3f 35 48 8a 3f
       0.80091643 0.9331529 1.2406721 1.0803286
000190 c3 54 89 3f 41 88 86 3f 87 82 98 3f 78 21 8c 3f
       1.0728992 1.0510331 1.1914834 1.0947714
0001a0 ef b1 b2 3f 31 29 83 3f ee c8 5d 3f 74 85 39 3f
       1.3960551 1.0246946 0.8663472 0.7246926
0001b0 cf 1e 23 3f c8 7b 45 3f 38 66 5f 3f f5 a4 b4 3f
       0.63718885 0.77142 0.8726535 1.4112841
0001c0 ba 4a 93 3f 4a 4f bc 3f 70 1c 26 3f 40 49 b8 3f
       1.150718 1.4711697 0.6488714 1.4397354
0001d0 f9 4f 0a 3f 71 07 82 3f bf 31 9e 3f cc 16 37 3f
       0.5402828 1.0158521 1.2358931 0.7151916
0001e0 2e 0e 91 3f c9 8f 22 3f e8 f4 eb 3f ec 47 5b 3f
       1.1332452 0.6350065 1.8434114 0.8565662
0001f0 3d d5 81 3f 6f a6 73 3f 78 c9 61 3f 9e a1 7f 3f
       1.01432 0.9517583 0.8819804 0.99855983
000200 3b 63 0f 40 cb b8 13 3f 99 2c 3b 3f 6b c1 10 3f
       2.2404315 0.57703847 0.73114926 0.5654513
000210 bf ba d0 3f d0 d3 c0 3f fd 26 ac 3e f3 f1 c7 3f
       1.630699 1.506464 0.33623496 1.5620712
000220 fa e6 43 3f 50 cf bf 3f 5a cb 4d 3f fa 8a e8 3f
       0.7652432 1.4985142 0.80388415 1.8167412
000230 94 d5 78 3f 7d 1c 68 3f da 13 46 3f 80 c6 87 3f
       0.97200894 0.9066847 0.7737404 1.0607452
000240 16 d0 38 3f a7 de d3 3e a7 16 d7 3f 0b de cb 3f
       0.72192514 0.41380808 1.6803788 1.5927137
000250 80 20 29 3f 5e 6a 34 3f 08 3f 69 3f 6d 08 a7 3f
       0.66065216 0.70474803 0.91111803 1.3049446
000260 f6 a1 d4 3f a1 85 a3 3f b1 0c 0a 40 6e 58 20 3f
       1.6611927 1.2775155 2.1570246 0.62634933
000270 58 2a b0 3f 5b 9c bc 3e d6 a3 f4 3e 9f 96 ca 3e
       1.3762922 0.3683804 0.47781247 0.3956804
000280 cc 15 d6 3f 9f d6 93 3f 0e 1e f1 3e bb d1 4e 3f
       1.6725402 1.1549872 0.47093242 0.80788773
000290 c5 90 62 3f 7f 8f 4e 3f 02 a8 78 3f e6 b1 ca 3f
       0.8850215 0.8068771 0.9713136 1.583554
0002a0 d5 ac 4e 3f f3 b1 9c 3f 58 dd 7b 3f e6 b7 95 3f
       0.8073247 1.2241806 0.9838462 1.1696746
0002b0 4d 9c a9 3f 46 7f 80 3f 6e c8 b4 3f 9f f2 98 3f
       1.3250824 1.0038841 1.4123666 1.1949042
0002c0 2d f4 65 3f 6e 26 9f 3f a8 e0 f0 3e 6c d3 2c 3f
       0.8982571 1.2433603 0.470464 0.67510104
0002d0 bf 82 a2 3f 9a d5 84 3f b9 34 c8 3f ba 4a 78 3f
       1.269615 1.0377686 1.564109 0.96989024
0002e0 d3 f2 a3 3f 9f f8 96 3e e1 9a a6 3f fe f4 2c 3f
       1.2808479 0.29486558 1.3016015 0.6756133
0002f0 5f 68 a8 3f 08 62 63 3f 94 3a a2 3f f4 65 b4 3f
       1.3156852 0.8882146 1.2674127 1.4093614
000300 11 5c de 3f 24 98 0e 3f 4f 79 17 3f 10 95 30 3f
       1.7371846 0.557009 0.5916948 0.6897745
000310 51 73 c2 3f bc 91 85 3f d9 77 b2 3f 6e 27 f0 3e
       1.5191442 1.04351 1.3942825 0.46905082
000320 bd 9e 69 3f 05 0d 84 3f c1 37 80 3f 26 3d 45 3f
       0.9125784 1.0316473 1.0017015 0.7704643
000330 05 1a 92 3f 68 35 10 3f 62 e8 36 3f 1b 35 95 3f
       1.141419 0.5633149 0.7144834 1.1656832
000340 9d ad 1b 3f 95 0e 2e 3f 47 16 a2 3f a8 01 51 3f
       0.6081179 0.67991 1.2663049 0.8164315
000350 08 bf e2 3f 1c 62 92 3f 5a 1b a7 3f c5 bb 8f 3f
       1.7714548 1.1436191 1.3055222 1.1229178
000360 4e 74 a0 3f 21 a1 a7 3f 15 e6 b4 3f b4 56 69 3f
       1.2535493 1.3096048 1.4132715 0.91147923
000370 f1 85 dd 3e 6b b9 58 3f da fa 7b 3f aa 97 b5 3f
       0.43266252 0.84657925 0.98429644 1.4186909
000380 e5 55 85 3f ad 78 64 3f bc 8c 61 3f 1b 4f 33 3f
       1.0416838 0.89246637 0.8810537 0.7004258
000390 11 8f 8f 3f be 71 56 3f f2 93 88 3f 70 e0 45 3f
       1.1215535 0.83767307 1.0670149 0.7729559
0003a0 95 c4 9c 3f 8a 64 82 3f 01 54 46 3f 95 17 87 3f
       1.2247492 1.0186932 0.7747193 1.0554072
0003b0 5e 2b 67 3f 74 c7 b7 3f 56 73 ab 3f ff 96 80 3f
       0.9030055 1.4357743 1.3394573 1.004608
0003c0 46 bd 07 3f ca bd 52 3f b6 dd 04 3f cc c4 be 3f
       0.53023183 0.82320845 0.51900804 1.4903808
0003d0 0d ed dd 3e 0f 4f c0 3f 22 86 14 3f ed 83 a2 3f
       0.43344918 1.5024127 0.5801717 1.269651
0003e0 b0 86 d0 3f bd f4 35 3f c8 52 34 3f 50 11 bd 3f
       1.6291103 0.71076566 0.70438814 1.4770908
0003f0 55 40 a9 3f a5 71 40 3f 04 51 8e 3f 5d 47 53 3f
       1.3222758 0.7517341 1.1118474 0.82530767

trunk.network.1.bias f4 [256]
000000 59 84 2d be 34 6e 38 bd 75 f6 06 be 35 3b f9 bd
       -0.16945018 -0.045026973 -0.13179953 -0.12169496
000010 b0 66 fe be e8 14 12 bf fe 7f dd be d7 88 b0 be
       -0.4968772 -0.5706315 -0.43261713 -0.344794
000020 43 1e 21 be 52 d3 18 be ac ab af be e9 50 9f be
       -0.157342 -0.14924362 -0.34310663 -0.31116417
000030 83 aa 70 be 03 c7 b3 be ea 5c da be 1f 7d a4 be
       -0.23502545 -0.3511277 -0.42649013 -0.3212671
000040 c4 64 2f bf 24 35 ad be 5a f3 b8 be e7 08 a6 be
       -0.6851313 -0.33829606 -0.36123163 -0.32428667
000050 ea c9 6a be 44 62 44 bf 7d f9 bc be 9e f2 8d be
       -0.22928587 -0.7671244 -0.36909094 -0.27724165
000060 c2 bc 8f be 7f 48 d6 be 3f 90 07 be 11 f4 7e be
       -0.28073698 -0.41852185 -0.1323862 -0.24897791
000070 28 de c4 be d7 ab 78 bd d1 97 08 be 18 0e c0 be
       -0.38450742 -0.060710754 -0.13339163 -0.37510753
000080 c1 c5 1a be d3 b6 88 be 55 68 40 be 73 63 6d be
       -0.151145 -0.26701984 -0.187898 -0.23182468
000090 68 34 45 3b 62 c5 13 be 31 8d 21 bf ba 54 30 be
       0.003009105 -0.14430764 -0.63106066 -0.1721982
0000a0 d1 b5 3c bd 01 f4 90 be 2f 3c 95 be 46 c2 da bc
       -0.04607183 -0.2831116 -0.2914748 -0.026703965
0000b0 d1 a2 57 be dd 6a 27 be 33 b7 76 be 3c 06 70 be
       -0.21058203 -0.16349359 -0.24093322 -0.23439878
0000c0 75 be 76 be 15 c1 21 be ca 4d c4 bd a3 c6 1c bf
       -0.24096091 -0.15796311 -0.095851496 -0.61240596
0000d0 aa 4b 26 be ab b8 8a be c7 45 83 be e8 3c fe be
       -0.16239801 -0.27094015 -0.25639173 -0.49655843
0000e0 1e 55 82 bd 60 74 93 be 2d fe 01 be 60 9c bc be
       -0.06363891 -0.28799725 -0.12694617 -0.36838055
0000f0 41 7f d0 be e8 93 2c be 02 e8 54 be fb 46 be be
       -0.40722087 -0.16853297 -0.20791629 -0.3716353
000100 c1 aa a2 be d3 5b 12 bf 47 15 6d be ae 7b c7 be
       -0.317709 -0.5717136 -0.23152648 -0.38961548
000110 89 29 84 be 84 b4 96 bd e9 40 b5 be 43 c3 74 be
       -0.2581294 -0.073586494 -0.35401085 -0.23902611
000120 9e 62 9c be 25 6b 0e be 4e 93 0d 3b cb 66 8f bc
       -0.3054399 -0.1390806 0.0021602693 -0.01750507
000130 89 fc 11 bf d0 c7 e0 bb 44 35 82 be ad 86 1c be
       -0.57025963 -0.006859757 -0.25431263 -0.1528575
000140 a5 78 93 be b2 69 54 be 33 ce ae bc 02 22 48 bf
       -0.28802982 -0.20743445 -0.021338558 -0.7817689
000150 b5 18 65 be bf c8 a3 be ee b1 44 bf ce d1 c2 be
       -0.22372706 -0.31989095 -0.76834 -0.38050693
000160 ef 11 d9 be 56 5f e5 bd fe 0d 3b be ad a9 0e be
       -0.42396495 -0.111998245 -0.18267056 -0.13931914
000170 9e 46 71 be 0e 0c 3c be 40 22 5d be 1d 10 dc be
       -0.23562095 -0.18363973 -0.21595097 -0.42981043
000180 59 d4 8c be 91 a5 b1 be fe 4f 39 be 9b e2 21 be
       -0.27505758 -0.3469663 -0.18096921 -0.158091
000190 af 09 53 be 27 37 66 be 92 7c fc bd 5e f3 32 be
       -0.20609163 -0.22481976 -0.123284474 -0.1747565
0001a0 d3 be e3 bd 96 a0 58 be 4f 19 9b be b7 0f f9 be
       -0.11120381 -0.21155009 -0.30292746 -0.48644802
0001b0 f6 46 f1 be 50 81 e4 be d1 fc 9e be c6 8e a7 bd
       -0.4712445 -0.44629908 -0.3105226 -0.08181529
0001c0 60 d5 50 be 8b bb f9 bd 32 0f cd be 8d f8 5e 3d
       -0.20393896 -0.12193974 -0.40050656 0.054436255
0001d0 a4 db 19 bf 53 24 c1 be 11 b9 37 be 9c be c9 be
       -0.6010077 -0.37723026 -0.17941691 -0.39403236
0001e0 a7 0d 7d be 14 ed bd be 0d 03 f6 3b e6 f2 c9 be
       -0.24712239 -0.3709494 0.007507688 -0.3944313
0001f0 ae cb 7c be 02 38 c5 be 43 36 d0 bd 41 b1 b6 be
       -0.24687073 -0.38519293 -0.101665996 -0.3568211
000200 b1 92 06 3e 80 24 07 bf 31 a9 d8 be ee b1 10 bf
       0.13141896 -0.5279007 -0.42316583 -0.565215
000210 18 c6 95 3d a5 c6 ef bd f3 1a 4a bf 82 60 be bd
       0.07313174 -0.1170781 -0.7894737 -0.09295751
000220 d3 e5 e2 be 05 de c7 bd d8 8a b0 be d2 5f 8e 3d
       -0.44315967 -0.09759144 -0.3448093 0.0695187
000230 9d ff b4 be 21 f9 81 be db 7b a9 be ed e8 ce bd
       -0.35351267 -0.25385383 -0.33102307 -0.10103021
000240 85 e1 c3 be 2c 7e 0c bf 2c de d5 39 6e be 65 bd
       -0.38257995 -0.54880023 0.00040792057 -0.05608981
000250 ba b9 06 bf e2 ab c5 be 37 a0 ab be f1 1a 18 be
       -0.52627146 -0.386077 -0.33520672 -0.14854027
000260 88 55 5a bd 67 65 6a be 63 9c 15 3e a5 fe ec be
       -0.053304225 -0.22890244 0.14610438 -0.46288028
000270 4b af c4 bd 6c 47 39 bf 6b c9 16 bf a1 2e 25 bf
       -0.09603747 -0.72374606 -0.5890109 -0.64524275
000280 b9 7e 96 3c 40 d2 08 be 2c 47 fb be 74 80 d3 be
       0.018370973 -0.13361454 -0.49077737 -0.4130894
000290 fe da 9a be 4b 43 ce be a1 ce 87 be 6a 07 0e be
       -0.30245203 -0.40285715 -0.26524833 -0.13870016
0002a0 7f 33 e2 be 87 f2 57 be 26 4c 95 be 83 ee 6f be
       -0.44179913 -0.2108861 -0.2915966 -0.23430829
0002b0 c8 14 20 be 18 f6 4d be 59 6f 88 bd 41 44 27 be
       -0.15632927 -0.20113409 -0.06661863 -0.1633463
0002c0 64 14 88 be c2 e6 ee bd a3 3c 05 bf e8 cf f8 be
       -0.26578057 -0.11665107 -0.5204565 -0.4859612
0002d0 8c 86 5e be 75 74 4c be bf f2 ec bc 81 a3 95 be
       -0.21731013 -0.199663 -0.028924344 -0.29226306
0002e0 c4 0e 53 bc cf c3 27 bf 13 f0 0f be ea 26 f1 be
       -0.012881938 -0.65533155 -0.14056425 -0.47100002
0002f0 ca 08 51 be 87 5e 90 be 11 11 70 be 44 78 a0 ba
       -0.20413509 -0.2819712 -0.2344401 -0.0012242873
000300 a4 8d 02 be 63 f5 02 bf 51 ea ec be 37 f7 d8 be
       -0.12749344 -0.5115568 -0.4627252 -0.4237611
000310 a4 dd 22 be 75 d9 01 be 17 2b db bd f8 ce 07 bf
       -0.15904862 -0.1268061 -0.10701578 -0.53050184
000320 6f 75 5e be 0f ae 6f be ed 59 43 be e7 bb a1 be
       -0.21724485 -0.23406242 -0.19077273 -0.3158867
000330 9b a4 a0 bc cc a9 05 bf 0f 74 94 be a4 7a 3d be
       -0.01960974 -0.52212214 -0.28994796 -0.18503815
000340 86 c1 f1 be 28 ab dd be bd e3 08 be 48 1c b3 be
       -0.4721796 -0.43294644 -0.13368125 -0.34982514
000350 6a 71 a0 bd 31 a7 38 be 2f b9 ed bd 67 c5 69 be
       -0.07834132 -0.18032528 -0.116075866 -0.2282921
000360 a7 c0 4d be 3a 29 aa bc 75 c0 f8 bd 25 e2 97 be
       -0.20093022 -0.020771611 -0.12146083 -0.29664722
000370 92 ee 09 bf f4 ad 78 be 3f b9 a6 be 9c fa c4 bd
       -0.53879654 -0.24285108 -0.32563207 -0.096181124
000380 1e 3a a1 be bf 1b 84 be 3c 98 6f be 91 e3 b9 be
       -0.31489652 -0.2580242 -0.23397917 -0.36306432
000390 97 f6 fc bd 30 bf b7 be 23 6c 5c be 55 e9 d6 be
       -0.12351721 -0.35888052 -0.21525626 -0.41974893
0003a0 36 46 3f be 4d 77 91 be 0d ca b0 be 87 ea 8a be
       -0.18679127 -0.28411332 -0.34529153 -0.27132055
0003b0 32 35 bc be b9 c1 e2 bd 19 bd 2c bd c2 92 7f be
       -0.36759335 -0.11072106 -0.042172525 -0.24958327
0003c0 94 ee 01 bf 1f 20 c5 be 15 14 15 bf d2 da 3a be
       -0.50754666 -0.3850107 -0.5823377 -0.18247536
0003d0 4f 61 09 bf af b2 2e bd 86 3f 03 bf eb 24 5f be
       -0.53664106 -0.042650875 -0.51268804 -0.21791427
0003e0 97 b6 35 bd bb 1e dd be 90 89 e5 be a3 bf b4 3c
       -0.044363584 -0.43187508 -0.44831514 0.022064036
0003f0 a8 ba 78 bd b1 90 aa be 2b f2 4f be 9c 0a ee be
       -0.060724884 -0.33313516 -0.20307223 -0.4649247

trunk.network.3.weight f4 [256, 256]
000000 1c 2d 12 3c e0 38 ad bb 65 9d 22 3e 1b b6 83 3e
       0.008921888 -0.005286321 0.15880354 0.25724873
000010 db 8d 21 bd f7 f6 25 be 6d 55 1c bd d0 ab 33 3e
       -0.039441925 -0.16207491 -0.038167406 0.1754601
000020 20 f5 68 3c 94 fc cc 3d 92 ad 9f bd 9a 70 8a 3e
       0.014218599 0.10009113 -0.07796778 0.27039033
000030 c0 76 42 3d bf 57 cf 3b 36 06 47 3e 96 1c 8d 3d
       0.04747653 0.006327599 0.19435963 0.06890218
000040 99 70 39 3e 83 21 1d be 6a b9 66 3d 7a 00 44 3e
       0.18109359 -0.15344815 0.05632917 0.19140807
000050 e6 27 2d 3a dd 86 11 ba e7 19 2b 3e a0 14 92 3d
       0.00066053716 -0.0005551407 0.167091 0.0713284
000060 45 e8 66 bb f4 8e 41 bd 3b 03 56 3e 75 97 cb bd
       -0.0035233658 -0.04725547 0.2089967 -0.099409975
000070 ac c2 57 3d 46 4b 33 3e 7b fa 65 bd b1 98 61 3e
       0.052675888 0.17509183 -0.05614708 0.22030903
000080 cf 32 68 3e c6 76 8a 3e cc 63 0d 3e 5d 34 ed bc
       0.22675632 0.27043742 0.138076 -0.028955633
000090 69 e0 d0 3d 51 df 3e be e6 10 7c 3d 1a 50 3a be
       0.10199053 -0.18639876 0.061539553 -0.18194619
0000a0 1b 83 f3 bc 4f ae 09 3d c2 a9 2a 3e 16 7c da 3d
       -0.029725602 0.0336135 0.1666632 0.10668199
0000b0 f5 2b 6a 3c 67 eb c9 3c a6 62 31 3e 27 00 9f 3e
       0.014292707 0.024648381 0.17322788 0.31054804
0000c0 55 42 ba bc fa e2 bf bc 06 93 7f 3d 19 8e 12 3e
       -0.022736708 -0.02342366 0.06239607 0.14312018
0000d0 e1 71 0a be 2a 3c 08 3e 91 f3 24 3e 17 b5 68 3c
       -0.13520004 0.13304201 0.16108538 0.014203331
0000e0 72 23 4a 3e 74 dd 86 3e 91 95 a0 3e 4a 10 27 3e
       0.19740084 0.2634083 0.3136411 0.16314808
0000f0 5c 73 7f 3d ee 34 97 3e c8 f7 90 3e 78 d0 18 be
       0.062365875 0.2953257 0.28314042 -0.14923275
000100 f6 ae 8f 3d 5d b3 fd 3d 60 71 8e 3d ce ed 43 bd
       0.07015793 0.123877265 0.06955218 -0.04783421
000110 dc c3 f8 bd a7 6d 8e bc 22 05 04 3e 30 17 f9 3d
       -0.12146732 -0.01738627 0.12892583 0.12162626
000120 28 4b 1a 3e dd a1 23 3e 5c 8d 64 3c 3e f4 c4 3e
       0.15067732 0.15979715 0.013949718 0.38467592
000130 ff 51 f4 3d 5f c0 01 3e aa 88 b8 bd 71 40 6e 3e
       0.11929702 0.1267104 -0.090104416 0.2326677
000140 96 06 a7 3d ba e4 b8 bd 9d 14 27 3e 96 a6 bd 3d
       0.08155553 -0.09028001 0.16316457 0.09260289
000150 84 fa 4a 3e 89 4b a0 3e 39 6d df 3d 93 8c 16 3e
       0.19822127 0.3130763 0.109095044 0.14702062
000160 8e e9 28 be 30 71 d9 3e 0c 47 90 3e a4 87 c0 3c
       -0.16495344 0.42469168 0.28179204 0.023502178
000170 9f 8e 23 3e 14 c5 41 be 5f 90 43 3e 5a df 2c 3e
       0.15972374 -0.18922836 0.19098042 0.16882077
000180 68 b9 0a 3e 04 96 c9 bd ac c8 43 3d 18 bb a1 3d
       0.1354729 -0.09843066 0.047798797 0.078970134
000190 97 b2 12 3d b5 56 87 bd 05 60 79 3e 07 27 f6 bc
       0.035814848 -0.06608335 0.24353035 -0.030047907
0001a0 19 6f f2 bd 30 f5 cc 3d ab b2 9f 3e 90 86 d4 ba
       -0.118375964 0.10007703 0.31191 -0.0016214419
0001b0 06 20 94 3c e8 d1 8b 3e c9 e7 ea 3c 5d c2 27 3c
       0.018081676 0.27308583 0.028674977 0.010239211
0001c0 1a ac 33 3e 50 0b 6d be c2 17 2d 3e 3e 63 1e 3f
       0.1754612 -0.23148847 0.16903594 0.6187018
0001d0 69 3a 20 3d 03 96 01 be a4 76 3f 3e e0 22 d6 3b
       0.039118204 -0.12654881 0.18697602 0.006534919
0001e0 6b 2a 47 3e dd 9d c0 3d ee 8f 68 be 11 31 51 3e
       0.19449775 0.0940511 -0.22711155 0.20428874
0001f0 84 da d3 3d a4 ec b8 3d 3a c6 6a be 1c 61 15 3e
       0.10344413 0.090295106 -0.2292718 0.14587826
000200 38 3a 70 3f 05 4a 13 3e 1b ce 33 be d7 1f 89 3d
       0.93838835 0.14383705 -0.17559092 0.06695526
000210 83 31 07 3e a0 bc b7 3d 49 70 cd bd f5 1c f7 bc
       0.13202481 0.08971524 -0.10031182 -0.030165175
000220 9e 40 70 3e 00 c9 86 3c 98 67 19 3e ba d4 8a 3e
       0.2346215 0.016453266 0.14980924 0.27115422
000230 6b 40 56 be 52 ad 70 be 12 93 89 3d 18 18 7d 3d
       -0.20923011 -0.23503616 0.067175046 0.061790556
000240 23 6b d8 3d 91 08 ae 3e 0b c4 15 3e 08 a3 7f 3d
       0.1056731 0.3399091 0.14625566 0.062411338
000250 a3 54 eb bb bd 8d b6 3d 64 34 71 3e 4c 96 fc 3d
       -0.0071817203 0.08913753 0.23555142 0.12333354
000260 e1 e4 93 bd 5e c9 94 be 04 13 49 3f 5e bb c5 3d
       -0.072213896 -0.2905988 0.7854464 0.09654878
000270 fa b9 32 be 88 cd 0c bd c7 12 bb 3e 82 b5 e6 3d
       -0.17453757 -0.034375697 0.36537763 0.112650886
000280 ce fd 40 be 06 31 e4 3d b5 0e 8a 3e 67 de 20 3e
       -0.18846819 0.11142163 0.26964346 0.1570984
000290 f1 7d 82 3e 31 02 b9 3d a8 5e 0b bc 70 07 82 3e
       0.2548671 0.09033621 -0.0085064545 0.253963
0002a0 80 8e 38 3d 6c 23 37 bc 34 1d 8a 3e 71 3c 32 be
       0.045057774 -0.011177879 0.26975405 -0.17405869
0002b0 fd b3 66 3d 14 cc a3 3e 26 42 9c 3e bc 4c a5 bd
       0.056323994 0.31991637 0.30519217 -0.080712765
0002c0 10 e2 2f 3e 02 18 bf 3c 28 88 26 3e 73 56 c7 3d
       0.1717608 0.023326878 0.16262877 0.09733286
0002d0 08 0b c5 3d 6c 3d 0a be a1 c5 d9 bd b1 00 a9 3d
       0.09621245 -0.13499993 -0.10633398 0.08252085
0002e0 76 7c 50 3e df b9 25 3e bf c8 cf 3d d9 80 d6 3d
       0.20359978 0.16184185 0.10145711 0.104737945
0002f0 b9 21 fc 3d 08 10 3d be a4 de 0c be 17 f1 b4 3a
       0.123111196 -0.18463147 -0.13756806 0.001380476
000300 37 53 e3 3d c9 68 6d 3e 9b e2 1e 3e f1 04 39 3e
       0.11099856 0.23184504 0.1551613 0.18068291
000310 77 10 e6 3d ef ab 0d 3e 7f 39 c0 3d 8a 2d 98 3d
       0.11233609 0.13835119 0.093859665 0.07430561
000320 ef 16 60 3e e6 7a 97 3e 23 01 5b 3e 30 80 e3 3d
       0.21883748 0.29585952 0.21387152 0.11108434
000330 d5 ba 43 3e 38 1d 32 3e 4a 8a 27 3e 25 93 99 bd
       0.1911424 0.17393959 0.16361347 -0.07498769
000340 40 76 12 be d5 e4 84 3d 64 1f 9b 3c 31 2e 88 3e
       -0.14302921 0.06488959 0.018935867 0.2659774
000350 c2 b0 01 3e cf fd 69 be 3f 9b 1c be 80 7b 09 3e
       0.12665084 -0.22850727 -0.15293597 0.13426018
000360 cc 85 c6 3d 0a a8 3b 3d a4 f9 9a 3e ab e5 bb bd
       0.096934885 0.04581455 0.30268586 -0.09174665
000370 41 e8 14 3e a7 8d 77 be 29 67 42 bd e3 81 42 be
       0.14541723 -0.2417513 -0.047461662 -0.1899486
000380 0d a6 ee 3d b8 10 bb 3d e4 10 cd 3d d4 39 8b 3d
       0.116527654 0.09134048 0.10012987 0.06798139
000390 36 d6 a2 bd 40 86 a9 bd 5d a8 51 bd c1 ed 44 3d
       -0.07951014 -0.08277559 -0.051185954 0.048078302
0003a0 5f f7 9f 3d 81 c9 b9 3e 0d 88 5e 3e f1 ac f2 3d
       0.07810854 0.36286548 0.21731587 0.11849392
0003b0 f5 73 05 3c 03 77 c1 bd 7c 5f 71 3e b2 11 ab 3c
       0.008145322 -0.09446528 0.2357158 0.020882461
0003c0 9c f3 89 3d 41 e5 b3 be 3a fc 74 3e 1e df 26 bd
       0.06735918 -0.35135844 0.23924342 -0.040740125
0003d0 d0 f0 ea 3d 9f c9 e0 3e d2 40 e7 3d fb 7e 55 bd
       0.114717126 0.43903825 0.1129166 -0.05212305
0003e0 a9 18 fa 3e 9b f5 bb 3d d6 6b 55 3e b0 f9 26 3e
       0.4884694 0.09177705 0.20841917 0.16306186
0003f0 95 e3 23 3e 2d 5e 02 3d b7 9f 50 3e da c1 01 be
       0.16004784 0.031828094 0.20373426 -0.12671605

trunk.network.3.bias f4 [256]
000000 64 4a d4 3d 86 24 42 3e b0 6e b8 3d 04 f0 03 3e
       0.103657514 0.18959245 0.09005487 0.12884527
000010 2d c2 a4 bd 0f 93 a0 3d 03 ac db bc d9 e5 57 bc
       -0.080448486 0.07840549 -0.02681542 -0.013177359
000020 a3 1e ec 3c 0d c2 06 3e 31 4a 17 3e a0 79 3a 3d
       0.028823202 0.13159962 0.14774396 0.045526147
000030 5b 41 25 3e 33 c4 4d bd e1 ef a6 bd 9f 6c 03 3e
       0.16138212 -0.05023594 -0.08151222 0.12834404
000040 7e 8d fb bb 00 1b 15 3e 51 fd c7 3d cd eb 21 3d
       -0.0076767793 0.14561081 0.09765113 0.039531518
000050 85 bc 8e 3d 25 dc 00 bd d5 e8 50 3d 2a 64 f5 3d
       0.06969551 -0.031459946 0.051003296 0.119819954
000060 2d fa cd bd 7e bc ba bc 1c df 41 bc ba 7e c7 3d
       -0.10057483 -0.022794958 -0.011832979 0.09740968
000070 e5 8c 84 3d 93 81 0f 3e 2a 02 37 bd 10 92 f2 3d
       0.06472186 0.14014272 -0.0446798 0.118442655
000080 cb 91 c8 3d d7 e8 ec bc ec 9b ba 3d c8 52 74 3d
       0.09793433 -0.02891962 0.09111771 0.05964926
000090 b7 d9 31 3d f9 89 50 3c 06 5e 0b 3e 5b 1e 7a 3f
       0.04342052 0.012728208 0.13610086 0.9770257
0000a0 66 38 31 3e 8d b1 ec 3c 30 3f ce 3e 96 b7 62 3d
       0.1730667 0.028893257 0.40282583 0.055350862
0000b0 27 89 80 3d 00 0e 08 bd aa 66 a4 3d 8a 6c 11 bd
       0.0627616 -0.033216476 0.08027394 -0.0355039
0000c0 1a 94 49 3e 34 02 6b bc 38 7f 4e 3d 17 75 3b bd
       0.19685403 -0.014343787 0.050414294 -0.045765962
0000d0 95 6f c5 3d a2 c5 86 3c 2d 72 b2 3c 9a 7a 04 3e
       0.09640423 0.01645166 0.021782959 0.12937394
0000e0 ac 34 a1 3d 34 70 68 3d 1f 8a d4 bc 2b a7 95 3d
       0.078713745 0.05674763 -0.025944768 0.073072754
0000f0 e4 a8 21 3e 92 bb 5e 3e 08 aa 26 3d 23 43 76 bd
       0.15787083 0.2175124 0.0406895 -0.06012262
000100 9c 8e 18 3e e3 3e 9b 3c f9 f0 11 3e 03 ad 0a 3c
       0.14898151 0.018950885 0.1425208 0.008464101
000110 dc 6a 3e 3e 66 dc 17 3e f0 04 a2 3b 1f 48 07 3d
       0.18595451 0.14830169 0.0049444363 0.033027764
000120 87 82 d1 3d 1d 55 69 3e e1 bd 13 3e 1c ff 3d 3e
       0.10229974 0.22786374 0.14427902 0.18554348
000130 a4 52 f4 3d 18 8f f6 3c 51 91 55 3d 31 f4 46 3e
       0.11929825 0.03009753 0.052140538 0.19429089
000140 67 8d 8b bd ec d6 81 3d fd cd e8 3d 54 4c 2c bd
       -0.0681408 0.06339821 0.11367414 -0.04206498
000150 c6 27 23 bc 48 50 38 3e 84 3a 22 3e 0d ff eb 3d
       -0.009958213 0.17999375 0.15842634 0.115232565
000160 fb c5 68 3c d4 01 f6 3d 35 99 41 3e ec c3 8c 3d
       0.0142073585 0.120120674 0.189061 0.06873307
000170 9d ca 38 3c 8f 7c 83 bd 74 1f fd bc 98 29 28 3d
       0.0112787755 -0.06420242 -0.030898787 0.041055292
000180 53 73 6f 3e 11 7d fc 3d 25 9d 97 bd da 79 e0 3d
       0.23383836 0.12328542 -0.0740302 0.10960741
000190 39 7f d3 bb bd 64 a4 3e 3a 64 00 3e 0e ad 58 3e
       -0.006454375 0.32108107 0.12538233 0.21159765
0001a0 b2 c1 c4 3d be 67 a1 ba a8 fc 49 39 da 07 8c bc
       0.09607257 -0.0012314243 0.00019262976 -0.017093588
0001b0 b8 d7 6e 3d da a8 89 3c b0 cd 26 3e 79 75 a3 3d
       0.058311194 0.016804148 0.16289401 0.079813905
0001c0 1c ec 72 bd 96 fc be 3d ec 4a a0 bd 0e 4a df 3d
       -0.059307203 0.09325521 -0.0782679 0.10902797
0001d0 1a 33 d6 3d 8d 7c 0c 3e 7c d3 b6 3d 35 7e 7d 3d
       0.104589656 0.13719387 0.08927056 0.06188794
0001e0 c2 53 3c 3e c4 a1 8c bd 83 78 36 3d f2 d6 bc 3c
       0.18391326 -0.06866792 0.044548523 0.023051713
0001f0 b5 1d 99 3d 2d 1e df bc e1 3d 31 bd 35 d9 37 bd
       0.07476369 -0.027236069 -0.043271903 -0.04488488
000200 a6 10 92 3c c4 05 85 3c 84 cb b1 3d 95 59 37 3e
       0.017830204 0.0162381 0.08681396 0.17905267
000210 6c e6 d2 3c b2 4d 6e 3d f8 c7 06 3f 87 6f 30 3e
       0.02574464 0.058179565 0.5264888 0.17230044
000220 91 3d c6 3d da 03 8d 3c 0e 3f 14 3e f7 cd ae bd
       0.096797116 0.01721375 0.14477178 -0.085353784
000230 db 12 03 3e 1a 7e 02 3e 30 c9 49 3e c6 3c d9 3c
       0.12800162 0.12743416 0.19705653 0.026518237
000240 d4 02 19 3b 20 a7 9a 3d dd 05 a9 3e a2 31 d0 3e
       0.0023347633 0.07551408 0.33012286 0.40662867
000250 67 73 07 3e 64 f0 d4 3c 95 59 6d 3d fa ce 07 3d
       0.13227616 0.025993533 0.05794676 0.033156373
000260 bc 47 5f bc 7c f7 51 bb 05 57 02 3e 95 49 03 bd
       -0.013627943 -0.0032038381 0.12728508 -0.032052595
000270 96 3d fb 3b ef 31 74 3d 49 3c 6a 3d b7 bd 91 3d
       0.0076672537 0.059617933 0.0571864 0.07116263
000280 b6 d8 ed 3d 3a 6b 15 bd f0 85 8d bd e7 8e a4 bd
       0.116136 -0.036479212 -0.06910312 -0.08035069
000290 43 fa 9a 3d f3 14 05 3e 23 01 d8 3c 45 8f c0 3c
       0.07567265 0.12996273 0.02636773 0.023505816
0002a0 95 93 c0 bb 93 2e a8 3d 92 52 86 3d 5a 35 b6 bb
       -0.005876968 0.08212008 0.06558718 -0.005560559
0002b0 24 a7 6d 3c 8b 7a 51 3d 29 41 41 3e c2 59 99 3d
       0.014505181 0.051142257 0.18872513 0.07487823
0002c0 06 e3 87 3b 96 17 ca bd 2e 6f 74 3d 80 5b a9 3c
       0.0041469363 -0.0986778 0.05967634 0.020673513
0002d0 39 f3 41 bc 0f 91 27 3e b4 6d cd 3d 0c b9 e0 3d
       -0.011837774 0.16363929 0.1003069 0.10972795
0002e0 14 82 11 3d bf 1e 58 bc 03 62 44 3e 61 d2 b4 3d
       0.035524443 -0.013190924 0.19178014 0.08829189
0002f0 b8 2e 26 3c f2 6b 01 3e 20 fc b1 bc 25 f8 83 3d
       0.010142975 0.12638834 -0.021726668 0.06443814
000300 a6 0b 40 3d e3 9f f0 3c b2 bc d2 bd f3 ca 1b 3e
       0.04688611 0.029373115 -0.10289897 0.15214138
000310 5c 02 f0 3d 10 a9 72 3e 53 df e3 3d 8a 98 86 3d
       0.117192 0.23697305 0.1112658 0.06572063
000320 2c 2e ec 3d ee 39 cd 3d 11 c0 cb bd fa f1 19 bd
       0.11532244 0.10020815 -0.09948743 -0.037584282
000330 e4 1e 89 3d b4 32 16 3e f9 3a cd 3c 81 9c 05 3e
       0.06695345 0.14667779 0.025052534 0.13047983
000340 6c fd 8c 3d e3 e9 3e 3d 3f 05 03 3e e7 6f ef bd
       0.06884274 0.04660977 0.1279497 -0.116912656
000350 77 d6 3d 3e fe e6 24 3e f4 64 73 3d e8 15 58 3b
       0.18538843 0.16103742 0.05942245 0.0032972042
000360 49 8d fc 3b c1 8b 68 3d f7 23 75 3d 69 b0 3a 3e
       0.007707272 0.056773905 0.059848752 0.18231358
000370 ba d5 3e 3d 47 ac 84 3b 6c fd c1 3d 04 49 c2 3c
       0.046590544 0.0040488574 0.094721645 0.023716457
000380 22 5a d3 3d 45 b8 e0 3d 83 1c 21 3e de de c9 3d
       0.10319926 0.109726466 0.15733533 0.09856962
000390 74 7b 68 3e 46 34 28 bd 6f 43 02 3e 68 18 19 bd
       0.22703344 -0.041065477 0.12721036 -0.03737679
0003a0 dd 0f aa 3d 59 5a 09 3d ab ce 60 3d 2c 15 cb 3d
       0.08303807 0.033533428 0.054884594 0.099161476
0003b0 5b 0a 57 bb 57 4a 06 3d ee a8 cd 3e 73 c5 9d 3c
       -0.0032812569 0.03278574 0.40167946 0.01925919
0003c0 3e ac 9c bc de 02 ce 3d b4 6e 26 3d 86 49 69 bc
       -0.0191251 0.100591406 0.04063292 -0.014238721
0003d0 a8 7c e5 3c 2a 97 b8 3d 3c 62 ff 3d ff 18 48 3e
       0.028013542 0.09013207 0.124699086 0.19540785
0003e0 3b 55 97 3d 5b c6 d0 bc fc 25 9c 3d 20 95 0c bc
       0.07389303 -0.025485208 0.076244324 -0.008580476
0003f0 f4 90 50 3e 69 cf 1c bc d8 90 fd bc e8 24 df 3d
       0.20367795 -0.009570935 -0.030952856 0.10895711

trunk.network.4.weight f4 [256]
000000 0b cf 53 3f ea f5 c8 3e 4c 8d a4 3f 2b 5a 1f 3f
       0.827378 0.39250118 1.285562 0.6224696
000010 41 af 90 3f 07 4b 98 3f 4e ec 8b 3f b1 37 60 3f
       1.1303483 1.1897897 1.093149 0.8758498
000020 6a 06 84 3f 87 35 55 3f 2b fa 55 3f e9 37 98 3f
       1.0314457 0.832848 0.8358485 1.1892062
000030 99 f4 7f 3f 85 b0 4e 3f 08 d1 99 3f 16 c6 82 3f
       0.999826 0.807381 1.2016916 1.0216701
000040 92 86 84 3f 96 40 23 3f 1a 65 73 3f 6e 26 5d 3f
       1.0353568 0.63770425 0.95076144 0.86386764
000050 0b 8e 7c 3f cd 67 a5 3f 61 25 a1 3f c5 40 84 3f
       0.9865424 1.2922302 1.2589532 1.0332266
000060 20 87 af 3f 75 24 92 3f 42 d8 7f 3f f2 ca 80 3f
       1.3713112 1.1417376 0.9993936 1.0061934
000070 09 7a 5c 3f 4f 0c 7b 3f cc b4 bb 3f b6 3b 3a 3f
       0.8612371 0.98065656 1.466455 0.7274736
000080 84 4c 8e 3f 74 f0 8a 3f 1c b2 84 3f 0a 00 8c 3f
       1.1117101 1.085463 1.0366855 1.0937512
000090 d4 1c 59 3f de 25 8d 3f e8 3d 2b 3f 6c 50 b4 3d
       0.84809613 1.1027181 0.66891336 0.08804402
0000a0 ba c5 40 3f a2 6f 9f 3f e1 a7 a7 3e 67 dd 80 3f
       0.75301707 1.2455943 0.3274527 1.0067567
0000b0 f9 51 a6 3f 24 a1 9a 3f 70 d7 53 3f 87 5c 81 3f
       1.2993766 1.2080426 0.82750607 1.0106362
0000c0 c1 0a 0a 3f e1 9f 7e 3f 79 ac a1 3f 5b d3 84 3f
       0.5392266 0.99462706 1.263076 1.0377
0000d0 bb 4f 56 3f 48 d7 7f 3f d6 c2 56 3f 41 6b 84 3f
       0.8371541 0.9993787 0.83891046 1.0345231
0000e0 65 d4 92 3f c0 36 8f 3f d1 2d a9 3f 4f 08 54 3f
       1.1471068 1.1188583 1.3217107 0.8282518
0000f0 65 64 65 3f d0 c0 42 3f 72 4d a9 3f 42 68 64 3f
       0.89606315 0.7607546 1.322676 0.89221585
000100 09 6c 78 3f 25 97 97 3f de 63 62 3f 14 00 ba 3f
       0.9703985 1.1843001 0.88433635 1.4531274
000110 3f b2 77 3f 73 72 31 3f df c6 75 3f 4a a4 af 3f
       0.96756357 0.6931526 0.9600658 1.3722012
000120 52 a9 b5 3f 50 86 16 3f eb 3a 9e 3f ce 97 6f 3f
       1.4192297 0.58798695 1.236173 0.9359101
000130 04 ac a0 3f db 02 2f 3f df d1 46 3f 38 87 24 3f
       1.2552495 0.6836373 0.7766399 0.6426883
000140 8b 78 86 3f f9 3a 72 3f 9f 93 64 3f 9a 97 94 3f
       1.0505537 0.94621235 0.8928775 1.1608765
000150 7e 23 93 3f 42 84 53 3f e5 b6 83 3f c5 a3 9d 3f
       1.1495206 0.82623684 1.029019 1.2315603
000160 f6 e4 82 3f 2e ce 2d 3f 1f 7c 82 3f 5e a1 68 3f
       1.0226123 0.6789273 1.0194129 0.90871227
000170 38 b8 a5 3f d6 01 6b 3f 42 1b 7f 3f 04 7a 80 3f
       1.2946844 0.91799676 0.9965097 1.0037236
000180 15 12 29 3f 24 7c 49 3f 61 19 9e 3f 4e a1 86 3f
       0.66043216 0.7870505 1.2351495 1.0517976
000190 2b 15 8c 3f 05 a4 a0 3e db 8e 8f 3f 18 61 25 3f
       1.094396 0.31375137 1.1215471 0.6460128
0001a0 74 3a 33 3f 17 8f 9a 3f 3a 36 70 3f 5b 0c 46 3f
       0.7001107 1.2074918 0.93832743 0.773626
0001b0 91 8c 86 3f c7 3d 6d 3f c7 c6 7f 3f ed 8a 76 3f
       1.0511647 0.9267239 0.99912685 0.96305734
0001c0 cd 24 8c 3f ca be 54 3f 99 0c 86 3f f5 c2 a4 3f
       1.0948731 0.8310362 1.0472594 1.2871996
0001d0 74 23 82 3f e9 2a 55 3f a2 a1 2e 3f ec 23 93 3f
       1.016707 0.832686 0.6821538 1.1495337
0001e0 ce e0 39 3f 7c c4 9d 3f 94 b1 63 3f 0d 66 88 3f
       0.7260865 1.2325587 0.8894284 1.0656143
0001f0 10 52 7b 3f fd db 91 3f 21 6b 8d 3f 0e 3b a1 3f
       0.9817209 1.139526 1.1048318 1.2596147
000200 77 ec 71 3f 5c c2 69 3f b3 c2 7a 3f c3 da 93 3f
       0.9450144 0.91312194 0.9795334 1.1551136
000210 7b 48 9b 3f aa a2 84 3f 1b bc 55 3e f4 32 17 3f
       1.2131494 1.0362141 0.20872538 0.59062123
000220 9b b0 79 3f f4 73 77 3f 35 fd e3 3e b7 01 b8 3f
       0.97535104 0.96661305 0.4452912 1.4375523
000230 a4 16 a8 3f ca 68 57 3f 6f 13 f8 3e d9 e0 b1 3f
       1.3131909 0.8414427 0.48452327 1.3896743
000240 3b 80 81 3f 2d d7 42 3f cf 5a ad 3e 6c e2 86 3e
       1.0117258 0.7610958 0.33858344 0.2634462
000250 d5 0e 79 3f 93 e6 82 3f 8e cc 75 3f e3 b5 64 3f
       0.97288257 1.0226616 0.9601525 0.8934004
000260 9f 3f 89 3f d8 cc b0 3f f2 c6 59 3f 09 2e a8 3f
       1.0722541 1.3812513 0.8506919 1.3139049
000270 35 c4 26 3f 91 54 7e 3f 7e 60 65 3f 51 db 63 3f
       0.6514314 0.9934779 0.8960036 0.89006525
000280 75 ee 6e 3f 0a 4a 90 3f c4 8d 93 3f c4 b5 a3 3f
       0.93332607 1.1272595 1.1527638 1.2789845
000290 26 4f 31 3f 37 21 25 3f c4 11 6f 3f ca 01 8e 3f
       0.69261396 0.64503807 0.93386483 1.1094296
0002a0 e9 43 9f 3f d7 ca 7b 3f 34 b7 4b 3f a2 74 9a 3f
       1.24426 0.98356384 0.7957642 1.2066844
0002b0 6b 5f 78 3f 05 21 3d 3f 42 6e 22 3f 86 87 48 3f
       0.97020596 0.7387851 0.6344949 0.7833179
0002c0 76 7e 8a 3f 33 ae aa 3f 27 d1 56 3f d2 86 7f 3f
       1.0819843 1.3334411 0.8391289 0.99815094
0002d0 81 c7 88 3f 4d de 67 3f eb de 91 3f c6 9b 3c 3f
       1.0685884 0.9057358 1.1396154 0.7367519
0002e0 ef f5 82 3f 89 b4 a3 3f bd 93 43 3f 87 22 8c 3f
       1.0231303 1.278947 0.76397306 1.0948037
0002f0 42 8e 80 3f 66 6e 5e 3f 84 96 92 3f b1 8c ab 3f
       1.0043414 0.86887205 1.1452184 1.3402311
000300 25 40 6c 3f c8 ab ad 3f 84 0e 8a 3f f4 8f 78 3f
       0.92285377 1.3568048 1.078568 0.97094655
000310 b3 d9 9e 3f 80 0a d6 3e eb a1 4d 3f a6 1d 86 3f
       1.2410187 0.41804886 0.8032519 1.0477798
000320 8c 25 7f 3f b1 f4 98 3f 88 8a 9f 3f dc b7 66 3f
       0.99666667 1.1949674 1.2464151 0.901243
000330 42 f7 a8 3f cd bf 16 3f 32 a2 7b 3f b8 18 bb 3f
       1.3200457 0.58886415 0.98294365 1.4616919
000340 06 12 39 3f 13 74 61 3f a6 f6 4c 3f f8 ad 99 3f
       0.72293127 0.8806774 0.80063856 1.2006216
000350 08 2a 17 3f 4a da f6 3e a9 19 4c 3f 0a 65 8f 3f
       0.5904851 0.48213416 0.79726654 1.120271
000360 12 a5 95 3f 9f 26 94 3f e0 3b a7 3f 10 e3 6e 3f
       1.1691 1.1574286 1.3065147 0.9331522
000370 86 5a 3c 3f 70 07 93 3f 9e ba 9d 3f 99 27 a1 3f
       0.7357563 1.1486645 1.2322576 1.2590209
000380 0b 83 51 3f 17 da 5a 3f 8c 51 54 3f f0 40 80 3f
       0.8184058 0.8548903 0.8293693 1.0019817
000390 bf bf 00 3f 39 4b a6 3f cb ef 54 3f cd d9 72 3f
       0.5029258 1.2991706 0.83178395 0.9486359
0003a0 3d fe 68 3f 15 29 8d 3f f5 c8 87 3f 19 80 96 3f
       0.91012937 1.1028162 1.0608202 1.1757842
0003b0 f5 16 37 3f e6 c1 8c 3f 20 9c a4 3e 37 74 53 3f
       0.71519405 1.0996673 0.32150364 0.82599205
0003c0 cc 6d 9a 3f 50 e5 66 3f f8 68 8b 3f c8 5a a1 3f
       1.2064757 0.90193653 1.0891409 1.2605829
0003d0 a5 86 90 3f 61 cd 24 3f ff ca 45 3f 1d 7d 21 3f
       1.129109 0.64375883 0.7726287 0.6308153
0003e0 81 aa 8c 3f 95 14 b8 3f 7e fd 6e 3f 51 f9 86 3f
       1.0989534 1.4381281 0.9335555 1.0544835
0003f0 b8 3c fe 3e be f2 6d 3f 8d 69 87 3f a2 c8 83 3f
       0.496557 0.9294852 1.0579087 1.0295603
