canonical_models/4actor.pt (torch, 552373 bytes, 14 tensors)

trunk.network.0.weight f4 [256, 9]
0	0x3e0ceca1	0.13762142
1	0xbe36ed92	-0.17864063
2	0x3da08b26	0.078390405
3	0x3ebe5594	0.37174666
4	0xbbcde331	-0.006283187
5	0x3e36e030	0.17858958
6	0x3e725078	0.23663509
7	0x3e0c5872	0.13705614
8	0xbe47004d	-0.19433708
9	0x3ec31ed8	0.3810947
10	0x3e5c4d48	0.21513855
11	0x3dd94db9	0.106105275
12	0x3e0891d8	0.13336885
13	0xbe6a1ea6	-0.22863254
14	0x3df112f6	0.11771195
15	0x3dad7537	0.084696226
16	0x3d853b6a	0.06505473
17	0x3e6f1378	0.2334727
18	0x3ec2d51c	0.38053215
19	0x3de15521	0.11002565
20	0xbe9af8e7	-0.30268022
21	0x3e84b4ec	0.25919282
22	0x3ddcb4d0	0.10776675
23	0xbeaa8e93	-0.333119
24	0x3df50996	0.11964719
25	0x3e934ffc	0.2877196
26	0x3e91b90a	0.28461486
27	0x3cca3e8e	0.024688032
28	0x3e660c63	0.22465663
29	0x3da1e521	0.07905031
30	0x3eb7968f	0.35857055
31	0xbebcaa40	-0.3684864
32	0x3e4b19cd	0.19834061
33	0xbdf0389f	-0.117295496
34	0xbe212f3f	-0.15740679
35	0x3d4eaf7e	0.05046033
36	0x3e98a0f9	0.29810312
37	0x3da15a47	0.07878547
38	0x3c91b48e	0.01778629
39	0x3eb8bda8	0.36082196
40	0x3e781748	0.24227631
41	0x3e568137	0.20947729
42	0xbe809133	-0.25110778
43	0x3db93f50	0.09045279
44	0x3e1c4ae8	0.1526295
45	0xbecc8899	-0.39947966
46	0xbe10e0e2	-0.14148286
47	0xbe61c322	-0.22047094
48	0x3e7b91a6	0.24567279
49	0x3e212460	0.15736532
50	0xbdc479aa	-0.09593518
51	0x3d9cf39e	0.07663654
52	0xbd975d91	-0.07390893
53	0x3df499fa	0.11943431
54	0xbe24a499	-0.16078414
55	0x3e688f61	0.22710945
56	0xbd8626dd	-0.06550381
57	0x3e565d34	0.20933992
58	0xbe71828b	-0.23584954
59	0x3dc4434b	0.095831476
60	0xbe478182	-0.19482997
61	0x3d7be579	0.06149814
62	0xbdf3df01	-0.11907769
63	0x3dc05644	0.09391454
64	0xbe6737d7	-0.22579895
65	0xbc71e13c	-0.014763173
66	0xbecbed98	-0.39829707
67	0x3d7297c0	0.05922675
68	0x3e5e2083	0.2169209
69	0x3e24f42e	0.16108772
70	0x3e3003ad	0.17188902
71	0x3e294cb2	0.16533163
72	0xbe616b43	-0.22013573
73	0x3e2e72fe	0.17036054
74	0xbe321ed5	-0.17394574
75	0xbcd2d027	-0.02573402
76	0xbcaba524	-0.020952769
77	0x3e21c6e3	0.15798526
78	0xbe5485ad	-0.20754118
79	0xbe65d916	-0.22446093
80	0x3e2ceb0d	0.1688654
81	0xbe8bdce9	-0.2731698
82	0x3e456c34	0.19279557
83	0x3c80de56	0.015731018
84	0x3d4bf441	0.049793486
85	0xbebe1554	-0.37125647
86	0xbe7dab58	-0.24772394
87	0x3d678cde	0.056530826
88	0x3daccd04	0.08437541
89	0xbaaaef86	-0.0013041354
90	0xbe06d988	-0.13168919
91	0xbce10504	-0.027468212
92	0x3d474ffa	0.048660256
93	0x3ee00d17	0.43759987
94	0xbf216113	-0.6303875
95	0x3e0eb06d	0.13934489
96	0xbcd0247c	-0.025408022
97	0x3df2e852	0.11860718
98	0x3e7834b4	0.24238855
99	0xbd46a972	-0.04850144
100	0x3e8d6894	0.2761885
101	0x3dbca059	0.092102714
102	0x3e02895b	0.1274771
103	0x3e034848	0.12820542
104	0xbded5f8f	-0.11590492
105	0x3d75122f	0.059831794
106	0x3c7a547a	0.01527893
107	0x3dfb7d11	0.12279714
108	0xbd8a8149	-0.067629404
109	0x3ea56229	0.32301453
110	0xbcb5f6c0	-0.022212386
111	0xbe2423e1	-0.16029312
112	0x3e92e619	0.28691176
113	0xbe576e46	-0.2103816
114	0xbe22ed9b	-0.15910952
115	0x3c5e97d4	0.013586003
116	0x3e778079	0.24170102
117	0xbe2db916	-0.16965136
118	0xbe5ce595	-0.21571954
119	0x3db4970f	0.08817875
120	0x3e5cfa63	0.2157989
121	0xbebe365b	-0.37150845
122	0x3e51fc20	0.20506334
123	0x3e618c9e	0.22026297
124	0xbdda2ff2	-0.10653676
125	0xbda45f7a	-0.08026023
126	0xbe5e3b36	-0.21702275
127	0x3e90a259	0.2824886
128	0xbd1754e7	-0.036946204
129	0x3e9800c9	0.296881
130	0xbe472e31	-0.19451214
131	0x3afc5308	0.001925082
132	0xbe0cbc2d	-0.13743658
133	0x3b5530a9	0.0032530224
134	0x3df46007	0.11932378
135	0x3dbe8105	0.09301952
136	0x3ebfbbbd	0.3744792
137	0x3df5e988	0.12007433
138	0x3d951246	0.07278876
139	0x3df6f66c	0.1205872
140	0x3c10d13a	0.008838946
141	0x3e05a25d	0.13050218
142	0x3dc4f630	0.09617269
143	0xbe23a9b5	-0.15982707
144	0xbe841e99	-0.25804594
145	0xbe97a065	-0.2961456
146	0x3d9d6a8d	0.076863386
147	0xbe0ca55c	-0.13734955
148	0x3ec9fbeb	0.3945001
149	0xbcf8409b	-0.030304244
150	0x3e8e16ea	0.27751857
151	0x3d5916c4	0.053000227
152	0xbe11a733	-0.14223938
153	0xbda078b5	-0.07835523
154	0x3dc1007f	0.09423923
155	0x3d3db29f	0.046312924
156	0xbd35580b	-0.044273417
157	0xbccb4564	-0.024813361
158	0x3d9a8ff5	0.07546989
159	0x3dec5285	0.11539177
160	0x3e0fcee0	0.1404376
161	0xbd1184b9	-0.035526965
162	0x3d760dfe	0.060071938
163	0xbe220707	-0.15822993
164	0xbe2c427a	-0.16822234
165	0x3de16527	0.110056214
166	0x3f0710ed	0.527602
167	0x3df6e356	0.1205508
168	0x3dbc8c4f	0.09206449
169	0x3daaa659	0.083325095
170	0x3e2fe649	0.1717769
171	0xbe2e0368	-0.16993487
172	0x3dc65cab	0.09685644
173	0xbc2afcc0	-0.010436237
174	0xbe9385ee	-0.28813118
175	0x3e776fee	0.24163792
176	0x3db8c2d2	0.09021534
177	0x3e62bbac	0.22141904
178	0x3be8024c	0.007080352
179	0x3e0d25a7	0.13783894
180	0x3e042349	0.12904085
181	0xbd55f809	-0.052238498
182	0xbd72fae1	-0.059321288
183	0x3e7bdebb	0.24596684
184	0xbf047d39	-0.51753575
185	0x3e29bc7a	0.16575804
186	0xbe60f1c5	-0.21967228
187	0x3e10e4b3	0.14149742
188	0xbdb02da3	-0.086024545
189	0xbe53750c	-0.20650119
190	0xbdc1bc47	-0.09459739
191	0xbdad9e6f	-0.084774844
192	0xbe095ffa	-0.13415518
193	0x3ebdcabe	0.37068743
194	0x3d32876c	0.04358618
195	0x3e39e368	0.18153155
196	0x3d963f5f	0.07336306
197	0xbd0bc364	-0.034121886
198	0xbe305ada	-0.17222157
199	0x3d801e5c	0.062557906
200	0x3d992283	0.07477286
201	0xbd9e91f3	-0.07742681
202	0x3d00f2b2	0.031481452
203	0x3d7607cd	0.060066033
204	0x3d9ec203	0.077518485
205	0x3e3ee81f	0.18643235
206	0x3e39b2e2	0.18134645
207	0xbe815b7c	-0.2526511
208	0xbea106d2	-0.31450516
209	0x3d095e20	0.03353703
210	0x3ed62c2b	0.41830572
211	0x3de70d2e	0.11281811
212	0xbe3eaabd	-0.18619819
213	0xbe5234d5	-0.20527966
214	0x3e4b771a	0.19869652
215	0x3e48c4eb	0.19606368
216	0x3dd88c37	0.10573619
217	0xbd92b29b	-0.071629725
218	0xbe41750e	-0.18892309
219	0xbe37bfe2	-0.17944291
220	0x3ed2ba67	0.4115784
221	0x3e66dbb1	0.22544743
222	0x3d6bbbed	0.057552267
223	0x3e69bfc9	0.22827066
224	0x3e0168bc	0.12637609
225	0xbdba46f8	-0.090955675
226	0x3e96fe06	0.2949068
227	0xbc5c532f	-0.013447567
228	0xbddfbe63	-0.10924985
229	0x3ed0e5aa	0.4080022
230	0xbe2e1e2a	-0.17003694
231	0x3d104b94	0.035228327
232	0x3dbc5eea	0.09197791
233	0xbe1388e6	-0.14407691
234	0xbe403b51	-0.18772627
235	0x3e880ef7	0.26573917
236	0x3d4abd62	0.049497016
237	0x3e4fe040	0.20300388
238	0xbcef907e	-0.029243704
239	0xbe19a740	-0.15005207
240	0x3db3d64d	0.08781109
241	0x3cc56a53	0.02409855
242	0x3d5e7e92	0.054319926
243	0x3dfa6b22	0.12227465
244	0x3b93f1da	0.004514915
245	0xbced8d5a	-0.028998066
246	0x3f26bd29	0.65132385
247	0xbeb2f237	-0.3495042
248	0x3e161a91	0.14658572
249	0xbe8b8ebf	-0.27257344
250	0x3e34c8f5	0.17654784
251	0x3d8b5457	0.06803196
252	0xbe436300	-0.19080734
253	0xbe19fa94	-0.15036994
254	0x3db73df3	0.08947363
255	0xbea70aed	-0.32625523

trunk.network.0.bias f4 [256]
0	0xbe03b23c	-0.1286096
1	0xbe7f91cb	-0.2495796
2	0x3da5fc39	0.08104748
3	0xbe0d8111	-0.13818766
4	0x3e862bd6	0.2620532
5	0x3e930fd3	0.2872301
6	0x3c81b06e	0.015831199
7	0xbb1f0e4b	-0.0024269994
8	0x3dab31a8	0.083590806
9	0x3e85588f	0.26044127
10	0xbe1ad8bf	-0.15121745
11	0x3e91fafe	0.28511804
12	0x3e3448c1	0.17605878
13	0xbd7034d8	-0.058644146
14	0x3dd80c5e	0.10549234
15	0xbc9ad344	-0.018899567
16	0x3e5a6245	0.2132655
17	0x3e3a08fe	0.18167493
18	0x3de41983	0.111376785
19	0xbe544a6e	-0.20731518
20	0x3e2fddcc	0.17174453
21	0x3ddb5bf7	0.107109
22	0x3e28803c	0.16455168
23	0x3e32739b	0.17426912
24	0xbe2f05dc	-0.17092079
25	0x3e8abbcb	0.270964
26	0xbc01cc46	-0.007922238
27	0x3dfe0f13	0.12405219
28	0x3ed9dbc8	0.42550492
29	0xbe15810b	-0.14600007
30	0x3e82a9a7	0.2552006
31	0x3ec3a1de	0.38209432
32	0xbdc21874	-0.0947732
33	0x3ddd96b1	0.10819758
34	0x3e97a07e	0.29614633
35	0x3e869c23	0.26290998
36	0xbe3b0889	-0.18264975
37	0x3ec0a091	0.37622502
38	0xbe37ea67	-0.17960511
39	0xbdc223d6	-0.094794914
40	0xbe222f71	-0.1583841
41	0x3e969af4	0.29415095
42	0x3c98160e	0.018565204
43	0x3e384817	0.1799625
44	0x3ebfee2e	0.37486404
45	0xbdc7774b	-0.0973955
46	0xbe4030f8	-0.1876868
47	0x3d1df0a6	0.03855958
48	0x3d748727	0.059699204
49	0xbd1ddb4f	-0.038539227
50	0x3dd45d13	0.10369315
51	0x3d92ef4d	0.07174549
52	0xbdb9ac1e	-0.09066032
53	0xbe8694f5	-0.2628552
54	0x3d232483	0.039829742
55	0x3e024041	0.12719823
56	0xbe7237e2	-0.2365413
57	0x3d608c80	0.05482149
58	0x3e2ccd0a	0.16875091
59	0x3d87ea09	0.066364355
60	0x3eb26e9b	0.3485001
61	0x3e4e02ee	0.20118305
62	0xbda7f61a	-0.08201237
63	0x3dfea0a1	0.12432981
64	0x3e8d4398	0.27590632
65	0x3e9f5da5	0.31126133
66	0xbd87c019	-0.066284366
67	0x3e773960	0.2414298
68	0xbe40d75a	-0.1883215
69	0x3cbd9cd3	0.023146069
70	0xbc91650f	-0.017748384
71	0x3e431e3a	0.190545
72	0xbdc237c7	-0.09483295
73	0x3ec59460	0.38589764
74	0x3e8add6e	0.27122062
75	0x3e9aa180	0.3020134
76	0x3e94ec04	0.29086316
77	0xbdc9b406	-0.0984879
78	0xbdd1a166	-0.102358624
79	0xbe566552	-0.20937088
80	0x3e7c016f	0.24609922
81	0xbe134e78	-0.14385402
82	0x3e73106c	0.23736733
83	0xbda68800	-0.08131409
84	0x3e9fefdd	0.3123769
85	0xbdda496b	-0.106585346
86	0x3e87eccc	0.2654785
87	0x3ec327ca	0.38116294
88	0x3ec4b8a1	0.3842211
89	0x3e05666d	0.13027354
90	0xbdb32cb1	-0.087487586
91	0x3ec3639d	0.38161936
92	0xbc39e1df	-0.011345356
93	0x3e8e9324	0.27846634
94	0x3d9dae10	0.076992154
95	0xbe9161c1	-0.28394893
96	0x3e5c094f	0.21487926
97	0x3e11cb1b	0.14237635
98	0x3e627e75	0.22118552
99	0x3dc29593	0.09501185
100	0x3e075ea5	0.13219698
101	0x3e8e00e0	0.27735043
102	0x3e00b9a1	0.12570812
103	0xbe5140d2	-0.20434883
104	0x3ed30efa	0.41222364
105	0x3d8878e4	0.06663683
106	0xbdb677c7	-0.089095645
107	0x3dcec619	0.10096378
108	0x3e83ae9c	0.25719154
109	0xbdeb22db	-0.114812575
110	0x3ef00d0a	0.46884948
111	0xbdf321c3	-0.11871674
112	0xbd604278	-0.05475089
113	0xbbd83e1d	-0.0065992014
114	0xbdf57270	-0.11984718
115	0x3e52a616	0.2057117
116	0x3e3c448a	0.1838552
117	0x3c8f33c2	0.017480735
118	0x3ea215b4	0.31657183
119	0x3e41fbdd	0.18943734
120	0xbd32f989	-0.043695007
121	0x3db0e809	0.08638007
122	0xbdb492a3	-0.08817031
123	0x3d195105	0.037430782
124	0xbdbf6437	-0.09345286
125	0xbe2ca146	-0.16858396
126	0x39927dc9	0.00027941007
127	0xbdeb1168	-0.11477929
128	0x3c8f2517	0.01747374
129	0x3e95af7a	0.2923544
130	0xbe8bb898	-0.2728927
131	0xbd79a64b	-0.060949605
132	0xbe852864	-0.26007378
133	0x3e87b553	0.26505527
134	0xbe7211be	-0.2363958
135	0xbdba4da2	-0.090968385
136	0xbcfa7692	-0.030574117
137	0x3e8df475	0.27725568
138	0x3e3cbbc3	0.18431
139	0x3edcaab5	0.4309899
140	0x3cdbdabb	0.026837697
141	0x3e0b4908	0.13602078
142	0xbe42dbe1	-0.1902919
143	0xbd4058fe	-0.04695987
144	0xbdf92ce5	-0.12166766
145	0x3db30a74	0.08742228
146	0x3e3ef256	0.18647131
147	0xbe4f5e6d	-0.20250864
148	0x3e7e1510	0.24812722
149	0x3e41dca0	0.18931818
150	0xbd9b20bb	-0.07574602
151	0x3e814cac	0.25253808
152	0xbe7dcd2b	-0.24785297
153	0xbe9047e6	-0.28179854
154	0x3e2110cf	0.15729068
155	0xbe19f3d1	-0.15034415
156	0x3e7afccc	0.24510497
157	0x3e9caa45	0.30598655
158	0x3da6bbac	0.08141264
159	0xbe884546	-0.2661535
160	0x3e83b26b	0.2572206
161	0x3db4f791	0.08836282
162	0xbdd3cc46	-0.103416964
163	0x3dd48be6	0.10378246
164	0xbe524944	-0.20535761
165	0xbe4f646e	-0.20253155
166	0xbde313b1	-0.1108774
167	0xbd6da7f2	-0.058021493
168	0xbd2e0a0e	-0.042490058
169	0xbe3b91c3	-0.18317322
170	0xbdab7b25	-0.08373097
171	0x3e0e20a6	0.13879642
172	0x3e3c750c	0.18404025
173	0x3d936afb	0.07198139
174	0x3cca0869	0.024662213
175	0x3ebfcbcb	0.3746017
176	0x3ec676a7	0.387624
177	0x3dfde2f4	0.123968035
178	0xbe336c9c	-0.175219
179	0xbe8df925	-0.27729145
180	0x3c160341	0.009156049
181	0xbd46e959	-0.04856238
182	0x3e2f66e9	0.17129101
183	0x3e7f8f89	0.24957098
184	0x3d28a49f	0.04117262
185	0x3db2f2ac	0.08737692
186	0x3e2b3e9d	0.16723104
187	0x3edcc921	0.431222
188	0x3dda6914	0.10664573
189	0xbd0c3a97	-0.034235563
190	0x3eb00be0	0.3438406
191	0xbd1314b5	-0.03590842
192	0x3e8a588f	0.2702069
193	0x3dcd37aa	0.10020383
194	0xbdadd09e	-0.08487056
195	0xbde52689	-0.111889906
196	0xbe1e648e	-0.15468046
197	0xbe1977fb	-0.14987175
198	0xbe0a0a3f	-0.13480471
199	0xbc086d63	-0.008326861
200	0x3ec70652	0.3887201
201	0xbeb2f726	-0.34954184
202	0xb90338b6	-0.0001251426
203	0x3e53a1ef	0.20667242
204	0x3d2130bb	0.039353114
205	0x3d1fca06	0.039011024
206	0x3e480d52	0.19536331
207	0x3ead5d45	0.33860222
208	0xbe8f8057	-0.28027603
209	0xbadc208b	-0.0016794367
210	0xbe60bd48	-0.21947205
211	0xbeb86f4f	-0.36022422
212	0xbe64b378	-0.22334087
213	0x3e981bb8	0.29708648
214	0x3ec7ac0a	0.38998443
215	0xbd296dfe	-0.041364662
216	0xbe330400	-0.17481995
217	0x3e155864	0.145845
218	0xbe611f2a	-0.21984544
219	0xbdfbdb07	-0.122976355
220	0xbd8ea136	-0.06964342
221	0x3e0f4970	0.13992858
222	0x3eba3492	0.36368233
223	0x3d6a6a81	0.057230476
224	0xbe411617	-0.18856083
225	0x3e721c69	0.2364365
226	0x3d0ff95a	0.03514991
227	0x3e41c756	0.18923697
228	0xbe2e2dee	-0.17009708
229	0x3e13c04c	0.14428824
230	0xbe155b35	-0.14585574
231	0x3eb0dc11	0.34542897
232	0xbd950b00	-0.07277489
233	0x3dca8ae0	0.098897696
234	0xbe084cad	-0.133105
235	0xbd93c635	-0.07215539
236	0x3d9b5b65	0.075857915
237	0x3ebe3744	0.3715154
238	0xbe475d5c	-0.19469208
239	0x3ea41503	0.3204728
240	0xbe129a5c	-0.14316696
241	0x3e5f8204	0.21826941
242	0x3e105720	0.14095736
243	0xbbcccb1e	-0.0062497994
244	0x3e643678	0.22286403
245	0xbdd7f9ee	-0.10545717
246	0x3ea8132e	0.32827133
247	0xbd24c69f	-0.040228482
248	0x3d3f9841	0.04677606
249	0x3e643825	0.22287042
250	0x3d23066d	0.03980105
251	0x3c4c1193	0.012455362
252	0xbe01deca	-0.12682644
253	0x3b124190	0.002231691
254	0xbe3c2f23	-0.18377356
255	0x3ea86478	0.32889152

trunk.network.1.weight f4 [256]
0	0x3f9b945f	1.2154654
1	0x3fab3866	1.3376586
2	0x3fe0294e	1.7512605
3	0x3fc3a135	1.5283571
4	0x3fa60ebf	1.297325
5	0x3f8e86e8	1.113492
6	0x3f6fc4c9	0.93659645
7	0x3f71e90b	0.9449622
8	0x3f9e42ae	1.2364099
9	0x3f892963	1.0715755
10	0x3f8fc0c3	1.1230701
11	0x3f4c6607	0.7984318
12	0x3f9a0727	1.2033433
13	0x3fa57713	1.2926964
14	0x3f66d08b	0.9016196
15	0x3f93b1ce	1.1538637
16	0x3fa8ffe8	1.3203096
17	0x3ebb3ef1	0.36571458
18	0x3f538556	0.8262533
19	0x3f4a123d	0.7893408
20	0x3f7cc16d	0.98732644
21	0x3f2f8a68	0.68570566
22	0x3eb86171	0.36011842
23	0x3fb68223	1.4258465
24	0x3f941ff1	1.1572248
25	0x3f5a3b95	0.85247165
26	0x3f8a73e6	1.0816619
27	0x3fd28fe9	1.6450168
28	0x3f8c5866	1.0964477
29	0x3f59bfcd	0.8505829
30	0x3f963480	1.1734772
31	0x3f4abcc0	0.7919426
32	0x3f87e2df	1.061611
33	0x3fdb3096	1.7124202
34	0x3fbf7036	1.4956119
35	0x3f649197	0.8928465
36	0x3fb06ad4	1.3782601
37	0x3f5d8f2a	0.86546576
38	0x3f503089	0.8132406
39	0x3f3a92a9	0.72880036
40	0x3fbf2d5a	1.4935715
41	0x3fbfee75	1.4994646
42	0x3fa2a58e	1.2706773
43	0x3f0e7f06	0.5566257
44	0x3f82fb38	1.0232916
45	0x3f897b32	1.0740721
46	0x3f1ac5b5	0.60457927
47	0x3f569ee9	0.8383623
48	0x3f81bae5	1.0135161
49	0x3f9c3761	1.22044
50	0x3fc568ae	1.5422571
51	0x3ee7f66c	0.45305192
52	0x3f81a0a7	1.0127152
53	0x3f9302bd	1.1485211
54	0x3f93f46f	1.155897
55	0x3f643a6d	0.8915165
56	0x3f9af7f4	1.2106919
57	0x3ef74ce9	0.48300865
58	0x3f728b9e	0.9474429
59	0x3f6a13ca	0.91436446
60	0x3f5442d9	0.829145
61	0x3fb586b6	1.4181736
62	0x3f81af97	1.0131711
63	0x3f1d236f	0.6138219
64	0x3f3095f1	0.6897879
65	0x3ee3e954	0.44513953
66	0x3fbe0269	1.4844486
67	0x3f88c0e7	1.0683869
68	0x3fba9f9f	1.4579962
69	0x3fdc97ac	1.7233787
70	0x3f4a71ea	0.7908007
71	0x3f6d87f9	0.927856
72	0x3fd1efcf	1.6401309
73	0x3f7382d1	0.95121485
74	0x3fb8102f	1.4379939
75	0x3f7b238b	0.9810111
76	0x3f44ece9	0.76923996
77	0x3fbf7446	1.4957359
78	0x3fd28fcb	1.6450132
79	0x3fa178e7	1.2615021
80	0x3f9021de	1.1260335
81	0x3f974c1d	1.1820103
82	0x3f4fd49a	0.8118378
83	0x3fb039fa	1.3767693
84	0x3f84636b	1.034284
85	0x3fae91d0	1.3638248
86	0x3f459804	0.7718508
87	0x3f55de66	0.8354248
88	0x3ed5af2a	0.41735202
89	0x3fb2a156	1.3955486
90	0x3f94b36f	1.1617259
91	0x3f153ae9	0.58293015
92	0x3f0ff0d4	0.5622685
93	0x3fd031f2	1.6265242
94	0x3f3cc2f0	0.7373495
95	0x3f6a8679	0.9161144
96	0x3f009d13	0.50239676
97	0x3f20d696	0.6282743
98	0x3f45339e	0.77031887
99	0x3f75a3a2	0.9595281
100	0x3faaae6c	1.3334479
101	0x3f41a5cb	0.75643605
102	0x3fb2f1d0	1.3980045
103	0x3f535c7d	0.82563
104	0x3f474b82	0.7784959
105	0x3f32ec79	0.6989208
106	0x3f97e624	1.1867108
107	0x3f6288b7	0.8848986
108	0x3eea3dad	0.4575018
109	0x3f0939d2	0.5360385
110	0x3fb95689	1.4479533
111	0x3f8b31c1	1.0874559
112	0x3f5283c6	0.8223232
113	0x3f9d4686	1.2287147
114	0x3f873379	1.0562583
115	0x3faf3e47	1.369088
116	0x3f0e946b	0.5569522
117	0x3f8bd3b5	1.0923983
118	0x3f921043	1.1411213
119	0x3ef9d65e	0.48796362
120	0x3f989a6f	1.1922129
121	0x3f84e2ed	1.0381752
122	0x3fb1276f	1.3840159
123	0x3f9a0b67	1.203473
124	0x3fa0edf0	1.2572613
125	0x3fa3112a	1.2739613
126	0x3face646	1.3507774
127	0x3f193ff9	0.5986324
128	0x3fdf63b0	1.7452297
129	0x3f3a24f6	0.7271265
130	0x3fa37471	1.276991
131	0x3f6d8987	0.92787975
132	0x3fb1ea99	1.3899719
133	0x3f92de4b	1.1474088
134	0x3f7c0e44	0.9845927
135	0x3f41332d	0.75468713
136	0x3f3e01ac	0.742213
137	0x3fb73cd1	1.4315435
138	0x3f1316ce	0.5745667
139	0x3f92f8d7	1.148219
140	0x3f95bcd5	1.1698252
141	0x3f9d7a7d	1.2303005
142	0x3f68ade8	0.9089036
143	0x3f910eb8	1.1332617
144	0x3fa53c8c	1.2909102
145	0x3f6e8aab	0.9318034
146	0x3fb88679	1.4416038
147	0x3fbe84d7	1.488429
148	0x3f3e9cd6	0.7445806
149	0x3edb740b	0.4286197
150	0x3efe759c	0.49699104
151	0x3f8aac8f	1.0833911
152	0x3f87f325	1.0621077
153	0x3f8754ca	1.057275
154	0x3f7dbbfc	0.99114966
155	0x3f805799	1.0026733
156	0x3f6a45d7	0.9151282
157	0x3f20ca09	0.6280828
158	0x3f5b09af	0.8556165
159	0x3f9c532d	1.2212883
160	0x3fcc5235	1.5962588
161	0x3f31a184	0.6938708
162	0x3f3d72f5	0.74003536
163	0x3f87e958	1.0618086
164	0x3f7d3d4e	0.9892167
165	0x3fb3d806	1.40503
166	0x3fa42474	1.2823625
167	0x3f93333d	1.1500012
168	0x3f83d26a	1.0298588
169	0x3fcc5f56	1.5966594
170	0x3fc75955	1.5574137
171	0x3f825816	1.0183132
172	0x3fb834ef	1.4391154
173	0x3fa9220c	1.3213515
174	0x3fc1b0fa	1.5132134
175	0x3f57b7cb	0.8426482
176	0x3f34939d	0.7053774
177	0x3fadf0e8	1.3589144
178	0x3f87475e	1.0568655
179	0x3f45689d	0.7711275
180	0x3fdead5f	1.7396659
181	0x3ff24049	1.8925868
182	0x3fdd9ef0	1.7314129
183	0x3f718354	0.94341016
184	0x3f872851	1.0559179
185	0x3f511cb2	0.8168441
186	0x3f3890f9	0.7209621
187	0x3f42978f	0.7601251
188	0x3f5a61c3	0.8530542
189	0x3f858b8f	1.0433215
190	0x3f8c16af	1.0944422
191	0x3ffe522f	1.986883
192	0x3fba4d52	1.4554846
193	0x3f931f8b	1.1494001
194	0x3f82ae00	1.020935
195	0x3f5a6e08	0.85324144
196	0x3f9db8a1	1.2321969
197	0x3fa9a435	1.3253237
198	0x3f4eca3c	0.80777335
199	0x3f6e9857	0.932012
200	0x3f6ff77e	0.9373702
201	0x3fb1394f	1.3845614
202	0x3f2da686	0.6783222
203	0x3f364088	0.71192217
204	0x3f93e3d4	1.1553903
205	0x3f94e685	1.1632849
206	0x3f457da7	0.77144855
207	0x3f532f19	0.8249374
208	0x3fc6346c	1.5484748
209	0x3fc451f1	1.5337507
210	0x3f6a5479	0.91535145
211	0x3f84245b	1.0323595
212	0x3f9ba977	1.2161092
213	0x3f3f7a96	0.74796426
214	0x3fb282a9	1.3946124
215	0x3faccaee	1.3499429
216	0x3f978e29	1.1840259
217	0x3f708cb0	0.9396467
218	0x3f84d1eb	1.0376562
219	0x3f95ef0c	1.1713576
220	0x3f8098f4	1.0046678
221	0x3f0d4782	0.5518724
222	0x3f343511	0.7039347
223	0x3f7a2b66	0.9772247
224	0x3f8fa702	1.1222842
225	0x3f9110ea	1.1333287
226	0x3f50fe35	0.8163789
227	0x3fb59802	1.4187014
228	0x3f30aeea	0.690169
229	0x3f6ca6c4	0.92441964
230	0x3facb309	1.3492137
231	0x3f21a26c	0.6313846
232	0x3f82bb05	1.0213324
233	0x3fc0ce24	1.5062909
234	0x3f8ab901	1.0837709
235	0x3f98fe61	1.195263
236	0x3f4b160e	0.7933053
237	0x3f4bf084	0.7966387
238	0x3fadd6d7	1.3581189
239	0x3f8240a0	1.0175972
240	0x3f504b90	0.813653
241	0x3fd2f2bf	1.648033
242	0x3f1c38db	0.61024255
243	0x3fb63c80	1.4237213
244	0x3f91909c	1.1372256
245	0x3f8d4427	1.1036423
246	0x3f1fbad6	0.62394464
247	0x3f93ace3	1.1537136
248	0x3fb945cd	1.4474427
249	0x3f7abb20	0.9794178
250	0x3f228f0d	0.6349953
251	0x3f79a782	0.9752122
252	0x3f9765e1	1.1827966
253	0x3f944bed	1.1585671
254	0x3f81b90a	1.0134594
255	0x3f56e528	0.83943415

trunk.network.1.bias f4 [256]
0	0xbe0fba98	-0.14036024
1	0xbdee336a	-0.116309
2	0x3ce49b5f	0.027906118
3	0xbd31092f	-0.04322165
4	0xbe7f35c1	-0.24922849
5	0xbebea500	-0.3723526
6	0xbe9f8ac2	-0.3116055
7	0xbe8def28	-0.27721524
8	0xbe063875	-0.13107474
9	0xbe55ed68	-0.20891345
10	0xbe2c0eb2	-0.16802481
11	0xbea0888b	-0.31354174
12	0xbe5ebaae	-0.217509
13	0xbda2bfb9	-0.079467244
14	0xbea97ea5	-0.33104435
15	0xbe218bda	-0.15776005
16	0xbe600556	-0.21877035
17	0xbf12c320	-0.5732899
18	0xbe9ab255	-0.30214182
19	0xbead19d3	-0.33808765
20	0xbea42e99	-0.320668
21	0xbeea9f2f	-0.45824572
22	0xbf274441	-0.6533852
23	0xbdac4d0a	-0.084131315
24	0xbe29558f	-0.16536544
25	0xbe998b8b	-0.29989275
26	0xbe45ea32	-0.1932762
27	0x3c510739	0.01275807
28	0xbe951385	-0.29116455
29	0xbe97e73b	-0.29668602
30	0xbe48ec79	-0.19621457
31	0xbec88dd6	-0.39170712
32	0xbe922bf0	-0.28549147
33	0xbd972776	-0.073805735
34	0xbd9ca555	-0.07648722
35	0xbeaa7b0c	-0.33297002
36	0xbd89bbd6	-0.0672528
37	0xbea806fa	-0.32817823
38	0xbe83fdde	-0.25779623
39	0xbeae851b	-0.34085926
40	0x3bfcca97	0.0077145803
41	0xbde6368c	-0.11240873
42	0xbdb7893c	-0.08961722
43	0xbf07cc30	-0.5304594
44	0xbeab0e6a	-0.33409435
45	0xbe709fc9	-0.23498453
46	0xbee92cf2	-0.45542103
47	0xbe990414	-0.29885924
48	0xbea5a5ea	-0.32353145
49	0xbe6af128	-0.22943556
50	0xbdb102e0	-0.086431265
51	0xbf15a0ed	-0.5844868
52	0xbe77b996	-0.24191889
53	0xbe24edab	-0.16106288
54	0xbe5cd57e	-0.21565816
55	0xbeb9739c	-0.36221015
56	0xbe937df7	-0.2880704
57	0xbef9b5b9	-0.48771456
58	0xbe2ac5fb	-0.16677086
59	0xbe80ad16	-0.25132054
60	0xbebe2487	-0.37137243
61	0xbcc07ae5	-0.0234961
62	0xbe8eca9c	-0.27888954
63	0xbefa07bc	-0.48834026
64	0xbec25431	-0.37954858
65	0xbf13080c	-0.57434154
66	0xbdcab5f5	-0.09897987
67	0xbe4d7c87	-0.20067035
68	0xbe04b1c3	-0.12958436
69	0xbc355893	-0.011068481
70	0xbee67abd	-0.45015517
71	0xbeb8c017	-0.36084053
72	0xbba9c75b	-0.0051812357
73	0xbea03c2a	-0.31295902
74	0xbdf03cea	-0.117303684
75	0xbe836560	-0.2566328
76	0xbebde81f	-0.37091157
77	0x3c2d9683	0.010594967
78	0xbcb54b8a	-0.022130746
79	0xbe09f9ac	-0.13474149
80	0xbe420a7a	-0.18949309
81	0xbe406e08	-0.18791974
82	0xbea67084	-0.32507718
83	0xbdb607e6	-0.08888225
84	0xbe9d0d3e	-0.30674165
85	0xbe0f0836	-0.13967976
86	0xbedf7ce4	-0.4364997
87	0xbea2a35f	-0.31765267
88	0xbf176022	-0.5913106
89	0xbd4054d5	-0.046955902
90	0xbe5e6a0b	-0.2172014
91	0xbee49126	-0.4464199
92	0xbed2d8a8	-0.4118092
93	0xbcc16831	-0.023609253
94	0xbed2c726	-0.41167563
95	0xbe68629f	-0.22693871
96	0xbf052a16	-0.52017343
97	0xbee729e3	-0.45149145
98	0xbedf18bb	-0.43573555
99	0xbe9d620b	-0.30738863
100	0xbdf3da96	-0.11906926
101	0xbeb15e11	-0.3464208
102	0xbd87bbf2	-0.066276446
103	0xbe9f17ac	-0.31072748
104	0xbebbb3d2	-0.3666063
105	0xbec40d33	-0.3829132
106	0xbe86d5a6	-0.26334876
107	0xbecf3102	-0.40467077
108	0xbf0a5339	-0.5403324
109	0xbeec1b60	-0.46114635
110	0xbdad737b	-0.08469292
111	0xbe221045	-0.15826519
112	0xbecff832	-0.40619045
113	0xbe07dcd9	-0.1326784
114	0xbeab8696	-0.33501118
115	0xbcac201a	-0.021011401
116	0xbee8f156	-0.45496625
117	0xbe4af7b8	-0.1982106
118	0xbe5bf46c	-0.21479958
119	0xbefcd724	-0.4938289
120	0xbdf63501	-0.120218284
121	0xbe2e8d87	-0.17046176
122	0xbd5c69a2	-0.053811677
123	0xbe66836c	-0.22511071
124	0xbe221f4d	-0.15832253
125	0xbe356a18	-0.17716253
126	0xbe2ebeed	-0.1706502
127	0xbedf9b16	-0.4367301
128	0x3df0dfe8	0.11761457
129	0xbedcd84e	-0.43133777
130	0xbe21af2e	-0.15789482
131	0xbea4cb37	-0.3218629
132	0xbdc34289	-0.09534175
133	0xbe7898ec	-0.24277085
134	0xbed2790f	-0.41107985
135	0xbe8f1d6f	-0.27952144
136	0xbebda7c9	-0.37042072
137	0xbe36f0e3	-0.17865328
138	0xbef27789	-0.47356823
139	0xbd9170de	-0.07101606
140	0xbe7b396e	-0.24533626
141	0xbe1bc827	-0.15213071
142	0xbe46b50f	-0.19405006
143	0xbd2fb81c	-0.04290019
144	0xbe4f892c	-0.2026717
145	0xbebb9dc6	-0.3664381
146	0xbda507d5	-0.080581345
147	0xbe8a486f	-0.27008387
148	0xbeccd753	-0.4000803
149	0xbf12c650	-0.5733385
150	0xbf16adca	-0.5885893
151	0xbdf18d8c	-0.11794576
152	0xbe5bf341	-0.21479513
153	0xbe461e5f	-0.19347523
154	0xbe492f35	-0.19646914
155	0xbea68be0	-0.3252859
156	0xbe82c062	-0.255374
157	0xbede474c	-0.4341377
158	0xbe90fca2	-0.28317744
159	0xbe567495	-0.2094291
160	0xbd9d8faa	-0.07693417
161	0xbebf2a25	-0.3733684
162	0xbeacf1f9	-0.3377836
163	0xbe1e38a4	-0.15451294
164	0xbe46fa28	-0.19431365
165	0xbdc84ff9	-0.097808786
166	0xbe0324be	-0.12806985
167	0xbe883778	-0.2660482
168	0xbe78815a	-0.24268094
169	0xbc646306	-0.013939625
170	0x3d53ea5d	0.051737178
171	0xbe8864cb	-0.266394
172	0xbde7e0e1	-0.11322189
173	0xbd37a97f	-0.04483938
174	0xbe3141f5	-0.17310317
175	0xbe899218	-0.26869273
176	0xbeb91ac9	-0.36153248
177	0xbdc30ed3	-0.09524312
178	0xbe91e824	-0.28497422
179	0xbec38c12	-0.38192803
180	0x3dee44e3	0.11634233
181	0xbda33e1a	-0.07970829
182	0xbdb839d5	-0.089954056
183	0xbeab3478	-0.33438468
184	0xbddef883	-0.108872436
185	0xbeac9713	-0.3370901
186	0xbeb62c9a	-0.35580903
187	0xbe9c2107	-0.30493948
188	0xbea0b0ee	-0.31384987
189	0xbebf20f7	-0.37329838
190	0xbe2272cc	-0.15864104
191	0xbd187590	-0.03722149
192	0xbdb8cf46	-0.09023909
193	0xbe1d4e91	-0.15362002
194	0xbe8edc39	-0.27902392
195	0xbea22171	-0.3166614
196	0xbe0ec055	-0.13940556
197	0xbdfe2380	-0.12409115
198	0xbea47ba9	-0.32125595
199	0xbe90f12e	-0.28309005
200	0xbe8758be	-0.26434892
201	0xbe44c2c4	-0.19214922
202	0xbeb2d1ba	-0.34925634
203	0xbedef387	-0.43545172
204	0xbe640f4e	-0.22271463
205	0xbea0c792	-0.3140226
206	0xbecd0915	-0.40045992
207	0xbeba95d8	-0.36442447
208	0xbd35b4f7	-0.044362035
209	0xbdc81509	-0.09769637
210	0xbe5dcf9c	-0.21661228
211	0xbe413ce9	-0.18870892
212	0xbe198e12	-0.14995602
213	0xbea6c929	-0.32575348
214	0xbd8bb556	-0.068216965
215	0xbe58f2d5	-0.21186383
216	0xbe0c6d7b	-0.13713638
217	0xbe7fef8c	-0.24993724
218	0xbe96df53	-0.29467258
219	0xbe1337a7	-0.14376698
220	0xbe62f806	-0.22164926
221	0xbf0a6c37	-0.5407137
222	0xbee4a156	-0.4465434
223	0xbdfc92b4	-0.12332669
224	0xbe511b1c	-0.20420498
225	0xbe5a996a	-0.21347585
226	0xbea6e468	-0.32596135
227	0xbe256031	-0.16149975
228	0xbeb5d937	-0.35517284
229	0xbe7382b9	-0.23780335
230	0xbe101980	-0.14072227
231	0xbf040910	-0.5157633
232	0xbe450825	-0.19241388
233	0xbddb1b1c	-0.1069853
234	0xbe3add11	-0.18248393
235	0xbe61c3e3	-0.22047381
236	0xbeb89be6	-0.3605644
237	0xbe890bc7	-0.26766798
238	0xbd529e8c	-0.051420733
239	0xbeb1e7dc	-0.34747207
240	0xbe974133	-0.2954193
241	0x3dca7146	0.098848864
242	0xbf0379ea	-0.513579
243	0xbe82c187	-0.25538275
244	0xbe6eabd4	-0.23307735
245	0xbe5eee8b	-0.21770684
246	0xbec83cb2	-0.39108807
247	0xbe339c69	-0.17540134
248	0x3d61de12	0.055143423
249	0xbead94d0	-0.33902597
250	0xbeee206c	-0.4650911
251	0xbe499b08	-0.19688046
252	0xbe3e1b8d	-0.18565197
253	0xbeb16656	-0.3464839
254	0xbe859a31	-0.260942
255	0xbe99c418	-0.3003242

trunk.network.3.weight f4 [256, 256]
0	0x3cfbd768	0.030742362
1	0xbe84cc76	-0.2593724
2	0xbdc1734c	-0.09445819
3	0x3df2b04d	0.11850033
4	0x3e57e254	0.21082431
5	0x3b1950b6	0.0023394055
6	0xbcaf87a8	-0.02142699
7	0x3e0ded1b	0.1385998
8	0x3d4ba87f	0.049721237
9	0x3c753e7e	0.014968513
10	0xbda733a5	-0.08164147
11	0x3e9624c8	0.29324937
12	0xbe00fdbc	-0.12596792
13	0x3d637fff	0.05554199
14	0x3d1b6ae4	0.037943736
15	0x3de2a9ef	0.110675685
16	0x3ebbedc8	0.3670485
17	0xbd8ba4b4	-0.06818524
18	0x3d8d7d4f	0.06908666
19	0x3e599ac9	0.21250452
20	0x3d85600c	0.0651246
21	0xbde7e9dd	-0.11323903
22	0x3e07a34d	0.13245888
23	0x3da27dbb	0.079341374
24	0x3e8be023	0.2731944
25	0x3d4b0edb	0.049574714
26	0x3e5ebcc1	0.21751691
27	0x3d04c14f	0.032410916
28	0x3e341c35	0.17588885
29	0x3d955798	0.07292098
30	0xbcd322cc	-0.025773428
31	0xbdcc085f	-0.09962534
32	0x3e1c43f1	0.15260293
33	0xbd4f1a80	-0.05056238
34	0x3ddbf984	0.10740951
35	0x3ddb36c2	0.107038036
36	0xbd0af3d8	-0.033923954
37	0x3e2c9728	0.16854537
38	0xbe49490c	-0.19656771
39	0xbde31a20	-0.11088967
40	0xbe1ff059	-0.15619029
41	0x3ddcf8ff	0.1078968
42	0x3e87f8e3	0.26557073
43	0x3d93c03c	0.072144
44	0x3e1f8de4	0.1558147
45	0xbd93bf92	-0.072142735
46	0x3de7e87d	0.113236405
47	0x3dddfb7d	0.10838983
48	0xbdc765d6	-0.097362205
49	0x3c5b4e7f	0.013385414
50	0xbe9c50f0	-0.305305
51	0x3e24554d	0.16048165
52	0x3d2522bc	0.04031633
53	0x3c05187e	0.008123515
54	0x3ea0ebd5	0.31429926
55	0x3e64a99e	0.22330329
56	0x3d4387ba	0.04773686
57	0x3ca33458	0.01992242
58	0x3dc321a4	0.09527901
59	0x3e58444a	0.211198
60	0x3e11ee8c	0.14251155
61	0x3e11eae6	0.14249763
62	0x3e3dac2d	0.18522711
63	0xbdab7ad3	-0.08373036
64	0x3e8e7d38	0.2782991
65	0x3d9ebcab	0.07750829
66	0x3db50b72	0.08840074
67	0x3e424337	0.18970953
68	0x3dbbfeae	0.09179436
69	0xbd956779	-0.072951265
70	0xbd469b6d	-0.04848807
71	0x3e0d1713	0.13778333
72	0x3d92e87d	0.0717325
73	0xbe1b07cc	-0.15139693
74	0x3e14c7fb	0.14529411
75	0x3dc15832	0.0944065
76	0x3e505f55	0.20348866
77	0xbc6c97cd	-0.014440489
78	0xbe09b242	-0.13446906
79	0x3dd00e70	0.10159004
80	0x3de3d556	0.11124675
81	0x3dd78124	0.105226785
82	0xbb809a8c	-0.0039246734
83	0x3e719aed	0.23594256
84	0x3da00a6d	0.078144886
85	0x3dab018c	0.083499044
86	0x3c9a1cfe	0.018812653
87	0x3e582af9	0.21110143
88	0x3c8facab	0.01753839
89	0x3cc6b9d7	0.024258537
90	0x3d02e9c3	0.031961214
91	0xbdbbad5d	-0.09163926
92	0x3d95eda1	0.07320715
93	0x3db9bbd9	0.09069032
94	0x3da30efa	0.07961841
95	0x3dc770be	0.09738301
96	0x3dfc1eb6	0.12310545
97	0xbddbca89	-0.1073199
98	0x3dca9f3e	0.09893654
99	0x3e0c19c9	0.13681711
100	0xbe674857	-0.22586189
101	0xbd8a7fa4	-0.06762627
102	0xbd316f1b	-0.04331885
103	0x3e2f14b7	0.17097746
104	0x3e39719d	0.18109746
105	0x3e4430b5	0.19159205
106	0x3d92c939	0.071672864
107	0x3d3470b5	0.0440528
108	0x3d93e245	0.07220892
109	0x3e0a71b8	0.13519943
110	0x3d932ff0	0.07186878
111	0x3dd940c2	0.10608055
112	0x3d133973	0.03594346
113	0x3d57406d	0.052551676
114	0xbd9ed9b9	-0.07756371
115	0xbcf5c032	-0.029998872
116	0x3daacf14	0.08340278
117	0x3e2431be	0.160346
118	0x3e44d33d	0.19221206
119	0xbe54fb84	-0.2079907
120	0x3e6b2df6	0.22966751
121	0x3da6e93c	0.08149955
122	0x3db23dde	0.087032065
123	0x3e200011	0.15625025
124	0x3dec6b0e	0.115438566
125	0xbdb906f0	-0.09034526
126	0xbe249029	-0.16070618
127	0x3e179d92	0.14806202
128	0x3e81de73	0.25365028
129	0xbdad31c5	-0.084567584
130	0x3cd17bd9	0.02557175
131	0x3e1a0ae6	0.1504322
132	0x3e630149	0.22168459
133	0x3d3ae175	0.04562517
134	0xbd294bb1	-0.04133195
135	0xbd96e71b	-0.073682986
136	0x3e117ce8	0.14207804
137	0x3db993e4	0.09061411
138	0x3dab27e3	0.08357217
139	0xbabecb34	-0.0014556409
140	0x3da80484	0.08203986
141	0xbd66cfb6	-0.056350432
142	0x3cdc340b	0.026880285
143	0x3eb4a650	0.35283136
144	0x3d7a139b	0.061053853
145	0x3cbb676d	0.022876466
146	0x3e2e1611	0.17000605
147	0xbe198ae0	-0.14994383
148	0x3d62a986	0.05533745
149	0x3daad366	0.08341102
150	0x3db5eb76	0.08882801
151	0x3e18b262	0.14911798
152	0x3ea56841	0.32306102
153	0xbd8a2274	-0.06744853
154	0x3d9fa7c3	0.0779567
155	0xbc4b5c68	-0.012412168
156	0x3ea55b0e	0.32296032
157	0x3cb779d9	0.022396969
158	0x3d8db93a	0.06920095
159	0x3d886d4c	0.06661472
160	0xbd5e52fd	-0.054278363
161	0x3d28ca42	0.041208513
162	0x3d39e622	0.045385487
163	0x3e142a36	0.14469227
164	0x3dc214ca	0.094766214
165	0x3d08bb44	0.033381715
166	0xbd971e19	-0.073787875
167	0x3e817e51	0.25291684
168	0x3e4fc5ac	0.2029025
169	0xbe9630bc	-0.29334056
170	0xbe9ba5b8	-0.3039987
171	0xbdf752e8	-0.1207636
172	0xbd4cb9cf	-0.04998189
173	0x3e93cdf0	0.28868055
174	0x3e5317b7	0.20614515
175	0x3ddc5495	0.1075832
176	0x3e0ed790	0.13949418
177	0x3e1b2204	0.15149695
178	0x3d33c7a0	0.04389155
179	0x3e801472	0.250156
180	0xbb71d91f	-0.0036903096
181	0x3e9b7046	0.30359095
182	0xbd9f8d1e	-0.07790588
183	0x3e260117	0.16211353
184	0x3ef2109a	0.4727829
185	0xbc92a465	-0.017900655
186	0x3e65daeb	0.22446792
187	0x3d9748fc	0.073869675
188	0x3e664a62	0.22489312
189	0xbdb162a0	-0.08661389
190	0x3e2a2bce	0.16618273
191	0x3cd9bb66	0.026578616
192	0x3c87e007	0.016586317
193	0x3d940837	0.07228129
194	0x3e868232	0.26271206
195	0xbe209735	-0.15682681
196	0x3d655684	0.05599071
197	0xbddb8df8	-0.10720438
198	0x3dc4079e	0.09571765
199	0x3df990fd	0.121858574
200	0x3e04e461	0.12977745
201	0x3e073498	0.13203657
202	0x3c82f5e1	0.015986385
203	0xbd491029	-0.049087677
204	0x3ca5ea5d	0.020253355
205	0x3d94c0b4	0.07263318
206	0x3da703ee	0.081550464
207	0x3d0b6d1d	0.034039605
208	0x3e125183	0.14288907
209	0xbd3bd5e7	-0.04585829
210	0x3dd3b7f5	0.103378214
211	0x3dbfe246	0.0936933
212	0xbe2c5284	-0.16828352
213	0xba41d52e	-0.0007394132
214	0x3dabf780	0.08396816
215	0xbebcabd1	-0.36849836
216	0x3db7eb9b	0.08980485
217	0x3ca0c6ad	0.019625986
218	0x3e3c3dc5	0.18382938
219	0x3c9d4e85	0.01920248
220	0xbe517d5d	-0.20457979
221	0x3b82b1f2	0.003988498
222	0x3dc99a6e	0.09843908
223	0x3e2a3688	0.16622365
224	0x3d8ded0e	0.0692998
225	0x3e0b8889	0.13626303
226	0xbc770b89	-0.015078434
227	0x3ddabb0b	0.10680207
228	0x3cf66e1f	0.030081807
229	0x3d8074d7	0.062722854
230	0xbe9839e6	-0.29731673
231	0x3e3e89d0	0.18607259
232	0x3d9e5d3b	0.07732626
233	0xbdbabe0f	-0.09118282
234	0x3d885bb4	0.06658116
235	0x3ecf705c	0.4051541
236	0xbe259d71	-0.1617334
237	0x3d909b8c	0.07060918
238	0x3dad9709	0.08476073
239	0x3ddf7839	0.109116025
240	0x3dbb2b70	0.091391444
241	0x3dcf56e7	0.10123997
242	0x3e1732ac	0.14765424
243	0x3c64da26	0.013968026
244	0xbe7423e7	-0.2384182
245	0x3eba8826	0.36431998
246	0x3d8e6d3e	0.0695443
247	0xbdf73b99	-0.12071914
248	0x3dabb076	0.08383267
249	0xbd61dec5	-0.05514409
250	0x3d7bfd80	0.061521053
251	0x3c508c28	0.012728728
252	0x3e6257e0	0.22103834
253	0xbed74a2b	-0.42048773
254	0x3e616498	0.2201103
255	0x3dffb95a	0.12486525

trunk.network.3.bias f4 [256]
0	0x3dd7f66a	0.10545047
1	0x3e780465	0.24220426
2	0x3aa6e5c1	0.0012733267
3	0x3dedb6c3	0.11607125
4	0x3c1975e8	0.00936649
5	0x3c8b6dc4	0.017020114
6	0x3cc3b89d	0.023891741
7	0x3add8d88	0.0016903142
8	0x3d614e9d	0.055006612
9	0x3c4b4754	0.012407143
10	0x3d6b83cb	0.057498734
11	0x3beee802	0.007290841
12	0x3d8a4e86	0.067532584
13	0xbb09b1ab	-0.002101044
14	0xbd7b896a	-0.061410345
15	0x3df2d937	0.11857837
16	0x3d9c6c2f	0.07637822
17	0xbc283c3f	-0.01026827
18	0x3d8bb4e7	0.06821614
19	0x3e0c4485	0.13698013
20	0x3ba97f06	0.005172613
21	0x3bd6e77a	0.006558356
22	0xbcd1b6d8	-0.025599882
23	0x3dfa110e	0.12210284
24	0xbccd3c6e	-0.02505323
25	0xbd260bbd	-0.04053854
26	0xbc6dfa11	-0.0145249525
27	0x3d20b047	0.03923061
28	0x3d5fdb50	0.054652512
29	0x3c0f7515	0.008755942
30	0x3d62eec8	0.0554035
31	0x3ddc3f9c	0.1075432
32	0x3d424a4d	0.04743414
33	0x3d2ffcbc	0.042965636
34	0x3f0760a6	0.5288185
35	0x3e39a485	0.18129165
36	0x3dcda76d	0.100416996
37	0xbd0f8762	-0.03504122
38	0x3d23ffb1	0.04003877
39	0xbd9d97f7	-0.076950006
40	0x3d4d2991	0.05008847
41	0xbda94ae1	-0.08266235
42	0xbd982f9e	-0.07430957
43	0x3d590c34	0.052990153
44	0xbc731884	-0.014837388
45	0xbc76f53c	-0.015073117
46	0x3e29c848	0.16580307
47	0x3d17f83a	0.03710196
48	0x3dc9ca9b	0.09853097
49	0xbc0caf48	-0.008586712
50	0x3d8efe44	0.06982091
51	0xbc552b8f	-0.013010873
52	0x3d9428b5	0.07234327
53	0xbd5e4bd3	-0.05427153
54	0x3b880f2d	0.0041521997
55	0x3d4f1c27	0.050563958
56	0x3dc03343	0.093847774
57	0xbc1971f0	-0.009365544
58	0x3e0e6648	0.13906205
59	0x3ddec604	0.10877612
60	0x3c79c3b5	0.015244414
61	0x3e1d8245	0.15381725
62	0x3dce7413	0.10080733
63	0xbcef9b58	-0.029248878
64	0x3e3425e6	0.17592582
65	0x3e3c62b2	0.18397024
66	0x3e0665b4	0.13124734
67	0x3d97b38f	0.07407295
68	0x3e149954	0.14511615
69	0x3dda55a6	0.106608674
70	0x3cb8b94f	0.0225493
71	0x3def1b28	0.116751015
72	0x3db70da1	0.089381464
73	0x3dc3c8f2	0.09559812
74	0x3d80e91d	0.06294463
75	0x3e0db47f	0.13838385
76	0x3df0d4b6	0.117593214
77	0x3da0b6ef	0.07847392
78	0x3dae3767	0.08506661
79	0xbc93144f	-0.01795402
80	0xbd5d6709	-0.05405334
81	0x3e4030eb	0.1876866
82	0x3e1e04bc	0.15431494
83	0xbd2592b8	-0.040423125
84	0x3dbdf746	0.09275679
85	0xbca62218	-0.020279929
86	0x3d8e8577	0.0695905
87	0x3d111688	0.035421878
88	0x3dcf4c3c	0.101219624
89	0x3dbaf97e	0.09129618
90	0x3db81c97	0.08989828
91	0x3dd39a7d	0.10332201
92	0xbc1dc616	-0.009629747
93	0x3e622143	0.22083001
94	0x3e233ea7	0.15941869
95	0x3c83d782	0.016093973
96	0x3d97173c	0.073774785
97	0xbd164e32	-0.036695667
98	0x3b8b5963	0.004252599
99	0x3d756e68	0.059919745
100	0xbc2aaea1	-0.010417611
101	0xbbe3a03e	-0.0069465926
102	0x3d52d7fa	0.051475503
103	0x3d2ee8b8	0.042702407
104	0x3d896b7c	0.06709954
105	0x3e2fd9eb	0.17172973
106	0x3d6de462	0.05807913
107	0x3c93764c	0.018000744
108	0x3d911292	0.0708362
109	0x3d5c132f	0.053729232
110	0x3dcfb4ca	0.10141905
111	0xbc341345	-0.010990922
112	0xbba89b26	-0.0051454483
113	0x3d8d84be	0.06910084
114	0x3c113505	0.0088627385
115	0x3d312108	0.04324439
116	0x3d1f0ae4	0.038828745
117	0x3d9b3401	0.07578278
118	0x3e3bee30	0.1835258
119	0x3da0ca20	0.07851052
120	0x3e16fb46	0.1474429
121	0xbd351b1c	-0.044215307
122	0x3e6786d6	0.2261003
123	0x3cd78307	0.026307596
124	0x3d27f971	0.04100937
125	0xba921e3e	-0.0011147929
126	0x3d29964d	0.041403104
127	0x3d784abf	0.06061816
128	0xbd655bb2	-0.05599565
129	0x3d97b9f7	0.07408517
130	0x3d90aa56	0.07063739
131	0x3dc1442d	0.094368316
132	0x3d94d5fa	0.07267375
133	0xbc776bfa	-0.015101427
134	0xbc904fbf	-0.01761615
135	0x3caa0d87	0.020758403
136	0x3d6d84ac	0.057987854
137	0x3d26cfd6	0.04072555
138	0xbda651f3	-0.08121099
139	0x3dc8e893	0.09809985
140	0x3ce08678	0.02740787
141	0x3db3fa3f	0.08787965
142	0x3d8324a4	0.06403473
143	0x3d84e7a1	0.06489492
144	0x3dd69181	0.104769714
145	0x3c9d6bbf	0.019216416
146	0x3c6afdd9	0.014342749
147	0x3dbf3181	0.09335614
148	0x3dab91d4	0.08377424
149	0x3e01c8ba	0.12674227
150	0x3d97cb3d	0.074118115
151	0x3d087052	0.033310242
152	0x3820c352	3.832888e-05
153	0x3e0158d2	0.12631539
154	0x3db5c1c8	0.088748515
155	0x3d8f5461	0.06998516
156	0xba514e1d	-0.0007984357
157	0xbc8caa95	-0.017171184
158	0x3da17406	0.07883458
159	0x3cfbe4d8	0.03074877
160	0x3daa0a24	0.083027154
161	0x3d1d3358	0.038379043
162	0xbc080d56	-0.008303961
163	0xbd0112bd	-0.03151201
164	0xbda46094	-0.08026233
165	0x3d0002d8	0.031252712
166	0x3d21c440	0.0394938
167	0xbd5174c8	-0.051136762
168	0x3dc1541b	0.0943987
169	0xbb3fcd71	-0.002926674
170	0x3d733de8	0.05938521
171	0x3d963ae8	0.07335454
172	0xbdbeb942	-0.09312679
173	0xbd19bfe8	-0.03753653
174	0x3e0405ca	0.12892833
175	0xbccdc306	-0.025117408
176	0xbd283f44	-0.04107596
177	0xbc65d0b9	-0.014026814
178	0xbd2a1179	-0.04152057
179	0x3d841244	0.064487964
180	0x3ccae53d	0.024767512
181	0x3dff8f1a	0.12478466
182	0x3d4f5121	0.05061448
183	0x3d1630bb	0.036667567
184	0x3d490c17	0.049083795
185	0xbc21bdf8	-0.009871952
186	0x3e05af88	0.13055241
187	0x3caa1e46	0.020766389
188	0xbd133b4b	-0.035945218
189	0x3e47454c	0.19460028
190	0x3d861e89	0.06548793
191	0x3c1881f4	0.009308327
192	0x3dbc6ac5	0.09200052
193	0x3dedd410	0.11612713
194	0xbd3e3b88	-0.046443492
195	0x3e18569b	0.14876787
196	0x3d8c43c3	0.06848862
197	0x3d9aec46	0.07564597
198	0x3db23d1f	0.08703064
199	0x3e0dea93	0.13859014
200	0x3ded4fc5	0.115874805
201	0x3da81d25	0.08208684
202	0xbc7d650e	-0.015465988
203	0x3e75ded9	0.24010791
204	0x3db88677	0.09010022
205	0x3dc87a18	0.097889125
206	0x3d5bb664	0.053640738
207	0xbcde6476	-0.027147513
208	0x3f187e81	0.5956803
209	0x3da7ce20	0.08193612
210	0x3d9e1ecc	0.07720718
211	0xbdd04d02	-0.10170938
212	0x3c9bc6d5	0.019015709
213	0x3d980d04	0.074243575
214	0x3d5a73dc	0.05333315
215	0x3d9b8c59	0.075951286
216	0x3d55dd41	0.052212957
217	0xbd98020f	-0.07422268
218	0x3dbad53b	0.09122702
219	0x3d35e8a8	0.04441133
220	0xbc1c038b	-0.009522329
221	0x3dc22e9b	0.094815455
222	0x3d8a31d5	0.06747786
223	0x3db7b0ab	0.089692436
224	0x3df8c86e	0.12147604
225	0x3d113afa	0.035456635
226	0x3d816d83	0.06319716
227	0x3d3985ff	0.045293804
228	0x3de228c6	0.11042933
229	0x3c891e2a	0.016738016
230	0x3d68d189	0.056840453
231	0x3cbf11ee	0.02332398
232	0xbd0d7076	-0.03453108
233	0x3d3a0546	0.045415185
234	0x3d8223ac	0.0635446
235	0x3d9a2384	0.07526305
236	0xbd38d438	-0.045124263
237	0x3dc6a0ef	0.096986644
238	0x3ddc9468	0.10770494
239	0xbd2fcb51	-0.042918507
240	0xbc929db0	-0.017897457
241	0x3e1eafa1	0.15496685
242	0xbd0449fe	-0.032297127
243	0x3cdbac35	0.026815513
244	0x3c875b89	0.01652314
245	0xbd1c4577	-0.038152184
246	0x3dec5ed0	0.115415215
247	0x3d806804	0.062698394
248	0x3d085d36	0.033292018
249	0x3d9341d5	0.07190291
250	0x3dfe2824	0.1241
251	0x3d31e578	0.04343173
252	0x3d874991	0.066058286
253	0x3c83f896	0.016109746
254	0x3dea5e23	0.114437364
255	0x39469286	0.00018937336

trunk.network.4.weight f4 [256]
0	0x3f127574	0.5721047
1	0x3e7a5c82	0.24449351
2	0x3f8e6394	1.1124139
3	0x3f16bbd8	0.58880377
4	0x3f5f2557	0.8716635
5	0x3f8db9fb	1.1072382
6	0x3f90651c	1.1280856
7	0x3f3d2249	0.7388044
8	0x3f4eb436	0.8074373
9	0x3fb0d9b6	1.381644
10	0x3f9647d8	1.1740675
11	0x3f4a5d0c	0.7904823
12	0x3f8ca60b	1.0988172
13	0x3f2325ef	0.6372976
14	0x3f8dffb7	1.1093663
15	0x3f7919c9	0.9730497
16	0x3f909ff3	1.1298813
17	0x3f90ad5b	1.1302904
18	0x3f511b46	0.8168224
19	0x3f136c6d	0.5758732
20	0x3f5b2383	0.8560106
21	0x3f4fa101	0.8110505
22	0x3f97697b	1.1829065
23	0x3f7a546e	0.9778508
24	0x3f8a8c93	1.082415
25	0x3fa2da01	1.272278
26	0x3fa751bf	1.3071822
27	0x3fb101e2	1.38287
28	0x3f940c2a	1.1566212
29	0x3f33cd62	0.70235264
30	0x3f981aeb	1.1883215
31	0x3f697370	0.9119177
32	0x3f81404e	1.0097749
33	0x3f4d9325	0.8030265
34	0x3de72806	0.11286931
35	0x3f174960	0.59096336
36	0x3f513770	0.81725216
37	0x3f7d2d65	0.9889739
38	0x3f28b1f1	0.6589652
39	0x3faf8340	1.3711929
40	0x3f8bc313	1.0918907
41	0x3f9b8064	1.2148557
42	0x3f90aef1	1.1303388
43	0x3f902c1e	1.1263463
44	0x3f489721	0.78355604
45	0x3f99fb5a	1.2029831
46	0x3f4983cd	0.7871674
47	0x3f5440b3	0.82911223
48	0x3f8f670c	1.1203322
49	0x3f3512c3	0.70731753
50	0x3fa2f635	1.2731386
51	0x3f99ce35	1.2016054
52	0x3f877348	1.0582056
53	0x3f8a49cd	1.0803772
54	0x3f5c3834	0.8602326
55	0x3f4a2aea	0.7897173
56	0x3f3b61b9	0.7319599
57	0x3fae34cf	1.3609866
58	0x3f522bb9	0.82097965
59	0x3f9c3e21	1.220646
60	0x3faa9246	1.3325889
61	0x3f9b0227	1.2110032
62	0x3f5db182	0.8659898
63	0x3f977caf	1.1834925
64	0x3f6582ec	0.89652896
65	0x3f2f51ef	0.68484396
66	0x3f86d40e	1.0533464
67	0x3f39dab7	0.7259936
68	0x3f60af9f	0.87767977
69	0x3f4c9a9b	0.7992341
70	0x3f81c71e	1.0138891
71	0x3f6fcbdd	0.93670446
72	0x3f4176c5	0.7557185
73	0x3f60224d	0.8755234
74	0x3f67c16f	0.9052953
75	0x3f78ec10	0.972352
76	0x3f6712cd	0.9026306
77	0x3ecbc484	0.39798367
78	0x3f81ea5f	1.0149649
79	0x3f957f60	1.1679497
80	0x3f95a775	1.1691729
81	0x3e98d344	0.29848683
82	0x3f2800de	0.65626323
83	0x3f21f1ca	0.63259566
84	0x3f94abd4	1.1614938
85	0x3fa5ad0b	1.2943434
86	0x3fa34c8b	1.2757734
87	0x3f8ec835	1.1154848
88	0x3f82b093	1.0210136
89	0x3f37df82	0.7182542
90	0x3f83a93a	1.0286019
91	0x3f7abb39	0.9794193
92	0x3f92a53b	1.1456674
93	0x3e64fbd3	0.22361688
94	0x3f168757	0.5880026
95	0x3f7facd7	0.9987311
96	0x3f8892d3	1.0669807
97	0x3f6fd78c	0.93688273
98	0x3f89a053	1.0752052
99	0x3f343962	0.7040006
100	0x3f84beef	1.0370768
101	0x3f76dcaf	0.96430486
102	0x3fb9f06c	1.4526496
103	0x3fb0e77e	1.3820646
104	0x3f2806a2	0.6563512
105	0x3f515c0f	0.81781095
106	0x3f82c0b8	1.0215063
107	0x3f6a96bc	0.9163625
108	0x3f23d149	0.6399122
109	0x3f43a76b	0.76427335
110	0x3f2e66c0	0.68125534
111	0x3f49a4d5	0.7876714
112	0x3f91b6d6	1.1383922
113	0x3f9140b6	1.1347873
114	0x3fa56e2b	1.2924246
115	0x3f54f376	0.8318399
116	0x3f814246	1.009835
117	0x3fad4642	1.3537066
118	0x3eba06fe	0.3633346
119	0x3f5a2d99	0.85225827
120	0x3f15c292	0.58500016
121	0x3f8b607b	1.0888819
122	0x3f32536b	0.69658536
123	0x3f640582	0.89070904
124	0x3f4dbf34	0.8036988
125	0x3f88fd00	1.070221
126	0x3f36446e	0.71198165
127	0x3f2a9558	0.6663413
128	0x3f9ad699	1.209674
129	0x3faed7d4	1.3659616
130	0x3f4c1909	0.797257
131	0x3f5725be	0.84041965
132	0x3f6a1df5	0.9145196
133	0x3fa9cfb0	1.3266506
134	0x3fb6812f	1.4258174
135	0x3faf0764	1.367413
136	0x3f92853e	1.1446912
137	0x3f8aa5d2	1.0831854
138	0x3f238649	0.6387678
139	0x3f2e84a1	0.68171126
140	0x3f920e27	1.1410569
141	0x3f8104e5	1.0079619
142	0x3f0110d4	0.504163
143	0x3f9d4e40	1.2289505
144	0x3f6946e2	0.91123784
145	0x3f76a9f6	0.9635309
146	0x3f2192d0	0.63114643
147	0x3f508fea	0.81469595
148	0x3f537b8b	0.82610387
149	0x3f79a8ea	0.9752337
150	0x3f515ada	0.81779253
151	0x3f8d90a0	1.1059761
152	0x3f66466a	0.89951193
153	0x3f0574de	0.5213145
154	0x3f94d915	1.1628748
155	0x3f99cf1e	1.2016332
156	0x3fa166ea	1.2609532
157	0x3fb96da8	1.448659
158	0x3f287c33	0.6581451
159	0x3f76cc55	0.96405536
160	0x3f81851b	1.0118746
161	0x3f42d1fc	0.7610166
162	0x3f7190e5	0.94361717
163	0x3f8e1de2	1.110287
164	0x3f841551	1.0319005
165	0x3f65217d	0.89504224
166	0x3f35dda3	0.71041316
167	0x3f945503	1.1588444
168	0x3f934900	1.1506653
169	0x3fb16006	1.3857429
170	0x3f9130c9	1.1343013
171	0x3f97c4d8	1.1856947
172	0x3fc9a7ce	1.5754335
173	0x3f86101a	1.0473664
174	0x3eeafda7	0.45896646
175	0x3f860fc8	1.0473566
176	0x3f8b36f7	1.0876149
177	0x3f98d7bb	1.1940836
178	0x3f781a0d	0.9691475
179	0x3f5c7646	0.8611797
180	0x3f17bbc5	0.5927089
181	0x3f828917	1.0198087
182	0x3f88dfef	1.0693339
183	0x3f9417ea	1.1569798
184	0x3f8bf2fc	1.0933528
185	0x3fb58c69	1.4183475
186	0x3f71179b	0.94176644
187	0x3f560fa2	0.83617604
188	0x3f91cb37	1.1390141
189	0x3f0f25a0	0.55916786
190	0x3f80787d	1.003677
191	0x3f98161c	1.1881747
192	0x3f464fe9	0.77465683
193	0x3fc3f2f5	1.530852
194	0x3f93d5de	1.1549642
195	0x3f2d2aa0	0.67643166
196	0x3f87b89d	1.0603215
197	0x3fa0d2aa	1.256429
198	0x3f6ef28d	0.93338853
199	0x3f6042a8	0.8760171
200	0x3f6bebb0	0.92156506
201	0x3f7d6131	0.9897643
202	0x3f87e606	1.0617073
203	0x3ee9a4cc	0.45633543
204	0x3f875a43	1.0574421
205	0x3f8f3c6b	1.1190313
206	0x3f888268	1.0664797
207	0x3faf01bc	1.3672404
208	0x3dc4704e	0.09591733
209	0x3f841509	1.031892
210	0x3f876af8	1.0579519
211	0x3fa82f28	1.3139391
212	0x3fa0587b	1.2527002
213	0x3eead9ff	0.45869443
214	0x3f3ea453	0.7446949
215	0x3f62ae2f	0.88547033
216	0x3fad6f56	1.3549602
217	0x3fb4bf1f	1.4120826
218	0x3f66ee96	0.90207803
219	0x3fb7caf1	1.4358808
220	0x3f685b58	0.9076438
221	0x3f8e240c	1.1104751
222	0x3fa64306	1.2989204
223	0x3f42206c	0.7583072
224	0x3f8090dc	1.0044208
225	0x3f7a8384	0.97856927
226	0x3f89c578	1.0763388
227	0x3f38c190	0.7217035
228	0x3f630c1e	0.88690364
229	0x3f7fdc33	0.9994537
230	0x3f0f15d8	0.55892706
231	0x3f6dabba	0.9284016
232	0x3fb9ca21	1.451481
233	0x3f96277f	1.1730803
234	0x3f8400ec	1.0312781
235	0x3f619ccc	0.8812988
236	0x3f591b61	0.848074
237	0x3f4b45d5	0.7940343
238	0x3f7250bf	0.9465446
239	0x3f59e480	0.8511429
240	0x3f5b816d	0.85744363
241	0x3ecbfc99	0.39841154
242	0x3f92eaa4	1.1477857
243	0x3f972f75	1.1811358
244	0x3f692186	0.9106678
245	0x3f499ea8	0.78757715
246	0x3f2d73cb	0.6775481
247	0x3f80fbe2	1.0076869
248	0x3f299816	0.6624769
249	0x3fa3120b	1.2739881
250	0x3f4cdce3	0.80024546
251	0x3f2973fc	0.66192603
252	0x3f55e8cc	0.83558345
253	0x3f5eeffd	0.87084943
254	0x3f736da1	0.95089155
255	0x3f9eb38c	1.2398543
