canonical_models/4to6actor.pt (torch, 552353 bytes, 14 tensors)

trunk.network.0.weight f4 [256, 9]
0.18890983 -0.23767269 0.088800505 0.29860255 -0.020234205 0.26232228 0.2847919 0.20400794
-0.030123774 0.31572416 0.5115609 0.12601347 0.12601383 -0.015760534 0.29566455 0.13167971
0.16679274 0.36584234 0.34564087 0.08962735 -0.29418015 0.28627515 0.20569827 -0.40705505
0.1613257 0.38687316 0.34905124 -0.19489744 0.2734536 0.18435244 0.44967225 -0.6029584
0.2545453 -0.01791926 -0.039430078 0.16205111 0.29915088 0.233688 -0.056976307 0.44059813
0.30810544 0.25070015 -0.389757 0.14156984 0.20329754 -0.4223847 -0.12805855 -0.3358836
0.46932644 0.309659 -0.0037880277 0.098131575 -0.05454403 0.14814116 -0.31078705 0.11613431
0.04775765 0.30080464 -0.07952168 0.26052558 -0.21708024 0.058139797 -0.06587855 0.0975471
-0.41633597 -0.01827004 -0.62404954 0.06893023 0.26742435 0.23099814 0.22731027 0.18963303
-0.3490078 0.1756182 -0.11075014 0.1612237 0.056170937 0.048362195 -0.23348942 -0.2322552
0.28217322 -0.39662498 0.2960345 -0.0025275762 0.114417836 -0.38847262 -0.22680883 0.10275137
0.18824703 0.12369694 -0.14495352 -0.13048236 -0.00171729 0.61815673 -0.67236865 0.16602013
0.1056861 0.14778484 0.30392107 -0.20567624 0.20970477 0.10416776 0.20510493 0.083629996
0.03842412 0.20627747 0.04035611 0.21742368 -0.15212004 0.2422205 -0.086438954 -0.094981275
0.4330004 -0.010076996 -0.10190651 0.08411425 0.27304593 -0.1873292 -0.18453763 0.07039679
0.26548916 -0.35450286 0.3152048 0.23463306 -0.1213694 -0.1026278 -0.3576832 0.26254982
-0.059694186 0.46160093 -0.057739694 0.11244852 -0.110521704 0.051871225 0.14151861 -0.03502469
0.461183 0.17179151 0.11171243 0.006723502 0.068325944 0.35533345 0.23962684 -0.08087944
-0.19188952 -0.079064116 0.03281001 -0.2761006 0.25989193 0.0072402987 0.28814337 -0.005200885
-0.20988365 -0.28931206 -0.13523151 0.14298819 0.15429108 0.18674156 0.26930234 0.42107385
0.45217958 0.17141226 0.057171308 -0.22282372 -0.113226615 0.11077872 0.5459232 0.17154802
0.19770575 0.101761326 0.25355113 -0.23814413 0.07862476 0.103323676 -0.3900718 0.3495398
0.13255182 0.3997722 0.10923284 0.31638125 0.058080554 -0.20013638 0.0020025668 0.38580635
-0.50842667 0.27054256 -0.14600872 0.26077282 -0.12764908 -0.2816894 -0.0046547623 -0.043858975
-0.09608586 0.3923273 0.13643378 0.22733538 0.14208178 0.18725368 -0.3636184 -0.07263172
0.2256856 0.044227883 0.16264248 0.22350243 0.1547085 0.3594483 0.44382355 -0.25517112
-0.3295486 0.058664057 0.5741772 0.30752894 -0.26753384 -0.3261517 0.24498074 0.22933184
0.19930243 -0.13320082 -0.10866553 -0.11367985 0.45967206 0.24205245 0.14513175 0.29254082
0.09271545 -0.194426 0.045167264 0.035193827 0.0096750725 0.50913215 -0.29104403 0.059772022
0.25472426 -0.117096625 -0.35930806 0.019198129 0.13427678 0.32318318 -0.16038638 -0.27040526
0.11796063 0.0986622 0.17048472 0.106677115 0.050854996 -0.032295838 0.78076196 -0.42240056
0.12939724 -0.39630285 0.1928175 0.10401819 -0.23456806 -0.18473497 0.12491937 -0.33243755
00000000: 9471 413e 7860 73be 0add b53d 6fe2 983e
00000010: 34c2 a5bc 1b4f 863e 3ed0 913e 75e7 503e
00000020: 22c6 f6bc 99a6 a13e a8f5 023f ad09 013e
00000030: c509 013e 3c1c 81bc 5861 973e 0cd7 063e
00000040: b7cb 2a3e b04f bb3e d7f7 b03e 8b8e b73d
00000050: c89e 96be a892 923e 91a2 523e 8569 d0be
00000060: 9032 253e 3d14 c63e d8b6 b23e 3293 47be
00000070: 1c02 8c3e e3c6 3c3e 713b e63e 7b5b 1abf
00000080: c353 823e 69cb 92bc 6f81 21bd baf0 253e
00000090: 4e2a 993e e84b 6f3e fd5f 69bd 1496 e13e
000000a0: ffbf 9d3e c55b 803e 3b8e c7be aff7 103e
000000b0: 3b2d 503e cf42 d8be c821 03be eff8 abbe
000000c0: 8e4b f03e a08b 9e3e 8f40 78bb 35f9 c83d
000000d0: 9069 5fbd 51b2 173e 7b1f 9fbe d3d7 ed3d
000000e0: 879d 433d 1103 9a3e 43dc a2bd 9c63 853e
000000f0: 484a 5ebe ff23 6e3d 55eb 86bd c6c6 c73d
00000100: fd29 d5be 0dab 95bc b6c1 1fbf 4b2b 8d3d
00000110: d8eb 883e c78a 6c3e 06c4 683e 292f 423e
00000120: 26b1 b2be 42d5 333e f8d0 e2bd d317 253e
00000130: 7f13 663d 7017 463d da17 6fbe 4fd4 6dbe
00000140: 0279 903e 6e12 cbbe d591 973e b1a5 25bb
00000150: e653 ea3d e2e5 c6be 9340 68be 4f6f d23d
00000160: d4c3 403e d254 fd3d b26e 14be 2b9d 05be
00000170: b116 e1ba 853f 1e3f 5a20 2cbf 2e01 2a3e
00000180: f471 d83d e954 173e 8b9b 9b3e cb9c 52be
00000190: d9bc 563e e855 d53d 0707 523e 3446 ab3d
000001a0: 9c62 1d3d 673a 533e 734c 253d 50a4 5e3e
000001b0: 5bc5 1bbe a708 783e e806 b1bd 8b85 c2bd
000001c0: 3ab2 dd3e fc19 25bc 5cb4 d0bd 1844 ac3d
000001d0: adcc 8b3e 3ad3 3fbe 6ff7 3cbe 312c 903d
000001e0: 32ee 873e 6681 b5be 8662 a13e a643 703e
000001f0: 8590 f8bd 862e d2bd 4122 b7be ee6c 863e
00000200: e481 74bd f556 ec3e 7580 6cbd 694b e63d
00000210: 3459 e2bd ec76 543d 41ea 103e 0d76 0fbd
00000220: 2e20 ec3e 1dea 2f3e 7dc9 e43d d350 dc3b
00000230: 79ee 8b3d 44ee b53e bd60 753e 1fa4 a5bd
00000240: b07e 44be 5eec a1bd ca63 063d 0f5d 8dbe
00000250: 8e10 853e 0740 ed3b 8787 933e 2f6c aabb
00000260: bdeb 56be b620 94be 217a 0abe 7f6b 123e
00000270: 7bfe 1d3e 2e39 3f3e ffe1 893e fe96 d73e
00000280: 1584 e73e b286 2f3e 762c 6a3d e72b 64be
00000290: 5be3 e7bd f4df e23d 9fc1 0b3f 49aa 2f3e
000002a0: 6073 4a3e 3e68 d03d 74d1 813e 0edc 73be
000002b0: 0506 a13d 5d9b d33d 7eb7 c7be e1f6 b23e
000002c0: aabb 073e f1ae cc3e 78b5 df3d b9fc a13e
000002d0: e0e5 6d3d 8df0 4cbe 7f3d 033b 6988 c53e
000002e0: 4028 02bf 8e84 8a3e 4f83 15be 0484 853e
000002f0: 71b6 02be 9839 90be fa86 98bb 78a5 33bd
00000300: aac8 c4bd 20df c83e 4cb5 0b3e 9bca 683e
00000310: e37d 113e 6ebf 3f3e 312c babe f0bf 94bd
00000320: 201a 673e 4c28 353d c08b 263e d2dd 643e
00000330: e86b 1e3e 9c09 b83e d73c e33e caa5 82be
00000340: 98ba a8be b949 703d 47fd 123f 6f74 9d3e
00000350: 32fa 88be 5bfd a6be 3bdc 7a3e f7d5 6a3e
00000360: f015 4c3e cc65 08be 098c debd fbd0 e8bd
00000370: 235a eb3e 99dc 773e 6b9d 143e e9c7 953e
00000380: 99e1 bd3d 9c17 47be 4f01 393d 6727 103d
00000390: 3284 1e3c 7c56 023f b903 95be 82d3 743d
000003a0: 386b 823e 5bd0 efbd 3af7 b7be 6545 9d3c
000003b0: da7f 093e 4478 a53e 543c 24be 8f72 8abe
000003c0: 5895 f13d 680f ca3d 8c93 2e3e 8879 da3d
000003d0: 544d 503d a448 04bd 04e0 473f e344 d8be
000003e0: b680 043e 35e8 cabe f371 453e 7d07 d53d
000003f0: 9c32 70be 2a2b 3dbe bad5 ff3d 4135 aabe

trunk.network.0.bias f4 [256]
-0.07326376 -0.13247116 0.17165102 -0.0053274203 0.3019953 0.3338459 0.08185932 0.019520188
0.19551907 0.36251572 -0.16115771 0.4214286 0.23088488 -0.04307909 0.25773844 0.12566516
0.14140931 0.43520743 0.18336989 -0.14972277 0.3005888 0.15979779 0.3386314 0.15939388
-0.14968927 0.37915304 0.09499417 0.13136369 0.45787036 -0.1122471 0.33283058 0.42580074
0.0026931097 0.14252955 0.298125 0.42033124 -0.082840405 0.4469889 -0.18787558 0.009854752
-0.104793064 0.3433373 0.11419102 0.28104523 0.4005375 -0.061608803 -0.11731437 0.116703264
0.16808774 0.10222438 0.18349925 0.21386026 0.014462085 -0.29646793 0.059962742 0.17368893
-0.24897729 0.11169766 0.28289402 0.1995529 0.39243248 0.34947982 -0.039578393 0.2514841
0.3430326 0.44235438 -0.04261673 0.3839345 -0.16499282 0.12225001 0.003927241 0.3327351
-0.090932034 0.48386282 0.32666135 0.47886586 0.30324256 -0.061853293 -0.040387105 -0.121566206
0.29922435 -0.16315375 0.3380568 0.11813074 0.42373195 -0.092379645 0.4142526 0.4483107
0.49650392 0.20560738 -0.032193314 0.53978384 -0.0012507184 0.29832748 0.1322779 -0.21399741
0.34460053 0.16254877 0.3588064 0.16921861 0.25614226 0.37736508 0.18272078 -0.16222098
0.5630846 0.16589685 0.030454751 0.20002837 0.3403349 -0.120863676 0.48851764 0.014229112
-0.035812 0.08273763 -0.014128499 0.28961495 0.32069752 0.11733883 0.41671893 0.25504696
-0.07322956 0.123028316 -0.16083086 0.037630886 -0.15680319 -0.21107534 -0.0030460916 -0.061223187
0.069130875 0.38934386 -0.26425177 -0.06261789 -0.17716424 0.37371248 -0.18162316 0.06556467
0.010566422 0.32942632 0.31958333 0.5818311 0.09351963 0.27588835 -0.2031031 -0.085220374
-0.08929474 0.17902851 0.18356244 -0.20711076 0.30681452 0.30847988 -0.031220803 0.24947883
-0.093638584 -0.18616381 0.25785327 -0.23603769 0.3770632 0.4173688 0.16922851 -0.31153324
0.29564467 0.12306385 -0.101991095 0.12993781 -0.15845555 -0.19454695 -0.091922805 0.0029870765
-0.07397465 -0.20343731 -0.06515357 0.21175537 0.2938578 0.10787054 0.06873158 0.4721934
0.46132657 0.16121237 -0.22710223 -0.27079937 0.014925165 -0.1090119 0.23802015 0.2933363
0.08207321 0.075261086 0.26477283 0.50988096 0.1474732 0.037085246 0.39395255 -0.037768282
0.31443828 0.1084451 -0.09579114 -0.05668716 -0.024334207 -0.18193477 -0.039978176 0.033936888
0.44820738 -0.3385157 0.09296418 0.25264588 0.114623055 0.041972063 0.17979583 0.33028942
-0.15935339 0.07503472 -0.17778875 -0.2538879 -0.21096864 0.3438373 0.46977618 0.049637336
-0.11513527 0.26531383 -0.19562738 0.00032942687 -0.05669822 0.23848546 0.39739084 0.16139846
-0.06106278 0.2743507 0.15629233 0.29419318 -0.1368604 0.28850523 -0.16761169 0.41375384
0.023561718 0.08328387 -0.023286916 -0.0009712552 0.20273189 0.47591636 -0.13225824 0.36799675
-0.08699561 0.28577238 0.20704994 -0.021730747 0.19660343 -0.09752635 0.36730313 -0.02367774
0.09965098 0.25712124 0.15506741 0.08909254 -0.1385864 0.03752764 -0.14761272 0.3843162
00000000: 4f0b 96bd 85a6 07be 49c5 2f3e a491 aebb
00000010: 219f 9a3e daed aa3e dca5 a73d cde8 9f3c
00000020: 2736 483e a99b b93e 8706 25be 7dc5 d73e
00000030: 166d 6c3e b373 30bd 4bf6 833e 5eae 003e
00000040: 9acd 103e 82d3 de3e 51c5 3b3e ed50 19be
00000050: c6e6 993e 08a2 233e 1861 ad3e 2638 233e
00000060: 2548 19be 5920 c23e 4e8c c23d 3484 063e
00000070: fc6d ea3e cfe1 e5bd c568 aa3e 8e02 da3e
00000080: e27e 303b 44f3 113e d7a3 983e a835 d73e
00000090: 3ba8 a9bd bbdb e43e 7562 40be d375 213c
000000a0: bf9d d6bd e8c9 af3e fbdc e93d 29e5 8f3e
000000b0: 4013 cd3e 8359 7cbd 8442 f0bd 1f02 ef3d
000000c0: 311f 2c3e 045b d13d 3ae7 3b3e 2ffe 5a3e
000000d0: 62f2 6c3c a5ca 97be 7e9b 753d 83db 313e
000000e0: e7f3 7ebe bec1 e43d 7cd7 903e 9857 4c3e
000000f0: e9ec c83e 05ef b23e f41c 22bd 86c2 803e
00000100: f8a1 af3e 467c e23e e18e 2ebd 1093 c43e
00000110: e1f3 28be 375e fa3d 16b0 803b 415c aa3e
00000120: 933a babd debc f73e 2840 a73e e82d f53e
00000130: 9c42 9b3e e159 7dbd f36c 25bd b4f7 f8bd
00000140: ef33 993e c711 27be c815 ad3e 88ee f13d
00000150: 65f3 d83e 8a31 bdbd eb18 d43e fb88 e53e
00000160: c335 fe3e be8a 523e 23dd 03bd 462f 0a3f
00000170: 25ef a3ba 61be 983e dc73 073e 2322 5bbe
00000180: 7b6f b03e 2f73 263e 79b5 b73e a547 2d3e
00000190: 1425 833e ff35 c13e 281b 3b3e 421d 26be
000001a0: 5026 103f dde0 293e 3e7c f93c 3dd4 4c3e
000001b0: 6040 ae3e 6087 f7bd fc1e fa3e 3921 693c
000001c0: 9baf 12bd 5972 a93d 387b 67bc 6948 943e
000001d0: 7732 a43e 574f f03d 2f5c d53e 8495 823e
000001e0: 61f9 95bd 45f6 fb3d d8b0 24be d822 1a3d
000001f0: 0491 20be 2224 58be f0a0 47bb 2ac5 7abd
00000200: 7d94 8d3d 1458 c73e 024c 87be cf3d 80bd
00000210: 8b6a 35be 3e57 bf3e 6cfb 39be c546 863d
00000220: c91e 2d3c 91aa a83e 6da0 a33e e2f2 143f
00000230: 3887 bf3d 3d41 8d3e 42fa 4fbe 0588 aebd
00000240: 29e0 b6bd 4053 373e cbf7 3b3e d814 54be
00000250: cb16 9d3e 13f1 9d3e c5c2 ffbc 6177 7f3e
00000260: 96c5 bfbd baa1 3ebe 5805 843e ddb3 71be
00000270: 6e0e c13e 5db1 d53e 3d4a 2d3e 4981 9fbe
00000280: bd5e 973e e608 fc3d b5e0 d0bd 6b0e 053e
00000290: 2c42 22be 5137 47be 0642 bcbd d4c2 433b
000002a0: 0580 97bd df51 50be 3c6f 85bd 66d6 583e
000002b0: 8874 963e 3beb dc3d 25c3 8c3d 55c3 f13e
000002c0: ff32 ec3e db14 253e 7d8d 68be 37a6 8abe
000002d0: ae88 743c a241 dfbd 8ebb 733e 2d30 963e
000002e0: 0016 a83d 7c22 9a3d 4e90 873e 8f87 023f
000002f0: 3703 173e b3e6 173d 26b4 c93e eab2 1abd
00000300: 0efe a03e 7718 de3d 252e c4bd cc30 68bd
00000310: 8858 c7bc 1c4d 3abe 28c0 23bd 6801 0b3d
00000320: 707b e53e ee51 adbe 0164 be3d cd5a 813e
00000330: 7ebf ea3d e6ea 2b3d 661c 383e b21b a93e
00000340: 892d 23be ceab 993d 410e 36be 98fd 81be
00000350: 2a08 58be 710b b03e 8186 f03e 8550 4b3d
00000360: 0acc ebbd 37d7 873e 8b52 48be edb6 ac39
00000370: 653c 68bd 8835 743e d076 cb3e a345 253e
00000380: f71c 7abd b277 8c3e 190b 203e 7da0 963e
00000390: 2225 0cbe f5b6 933e 66a2 2bbe 8bd7 d33e
000003a0: 8104 c13c bc90 aa3d 34c4 bebc d59b 7eba
000003b0: f398 4f3e 4fab f33e b46e 07be 126a bc3e
000003c0: c12a b2bd c250 923e e604 543e ae04 b2bc
000003d0: 6952 493e e5bb c7bd 280f bc3e d2f7 c1bc
000003e0: d015 cc3d 65a5 833e fec9 1e3e 2676 b63d
000003f0: 98e9 0dbe 95b6 193d ca27 17be 18c5 c43e

trunk.network.1.weight f4 [256]
1.1808141 1.5153387 1.972192 1.9027447 1.4580158 1.0762167 1.003353 1.155885
1.3401214 1.2021033 1.1506923 0.75836587 1.1881778 1.1438352 0.93361664 1.2869118
1.1150999 0.16829444 0.7194491 0.8179003 1.0505551 0.514616 0.26049143 1.4567163
1.229637 0.9550259 1.2308652 1.7786708 1.0337158 0.963685 1.235889 0.71931106
1.1400819 1.9374732 1.5954869 1.0203023 1.4245971 0.8668358 0.6994877 0.7465413
1.63214 1.4608066 1.4511569 0.49967295 1.0582758 1.0995725 0.6129905 0.7867565
0.9363753 1.4202765 1.8290677 0.29228103 1.0619783 0.9639 1.125802 0.7267596
1.2492672 0.43000877 1.1688864 0.8486661 0.86452615 1.6445352 0.97312653 0.5520653
0.6414757 0.3642015 1.4425681 1.2416203 1.4845023 1.9744202 0.74166524 1.0663023
1.6237841 0.8904952 1.5636375 0.9955052 0.6924541 1.6782024 1.5775442 1.352871
1.2262969 1.2543302 0.80494857 1.5533696 1.0630734 1.5054964 0.6891709 0.85207415
0.36520267 1.715695 1.3557038 0.47736993 0.48734376 1.8218817 0.66898906 0.90139496
0.51211673 0.60742086 0.7853722 0.9816234 1.7729198 0.7785709 1.4652728 0.89800626
0.8491887 0.5900238 1.2261211 0.800139 0.38009658 0.52471215 1.4904382 1.2708513
0.858903 1.4744524 1.0854292 1.7859366 0.5233623 1.2418793 1.202559 0.4883688
1.306167 0.9755611 1.2592694 1.2221726 1.0978154 1.3620862 1.4980334 0.44686526
2.3900747 0.698175 1.2496449 0.7917746 1.5614444 1.1722882 0.93177086 0.7435938
0.66826177 1.5907677 0.56857765 1.1920719 1.2533106 1.3130038 0.8661787 0.93201786
1.3698641 1.0083891 1.465845 1.5481955 0.86508644 0.31754938 0.39041746 1.0505686
1.1786884 1.042777 1.1196431 1.0223855 0.9233457 0.5773218 0.8175034 1.1688243
1.8540837 0.64373285 0.6144241 1.0441157 1.0425063 1.941435 1.3047795 1.1439025
1.0281811 1.7666188 1.4695983 1.1063119 1.956661 1.4145739 1.883896 0.9026579
0.68227965 1.3896365 1.0218127 0.7856261 2.2198713 2.0034235 1.5873766 0.8834166
1.0294808 0.69202036 0.49550247 0.6729271 0.83176064 1.0823122 1.1853907 2.1730587
1.8333448 1.3663205 1.0064639 0.824021 1.2614354 1.3523924 0.6076852 0.96664166
1.0859729 1.4457871 0.65061337 0.61030954 1.2238905 1.0191553 0.66549015 0.7638527
1.9942689 1.6504297 0.66906226 1.0628694 1.2955796 0.64250016 1.5217955 1.4401528
1.159372 1.0857329 1.158943 1.3542104 0.89971423 0.45009223 0.674835 0.99301153
1.1010516 1.0025002 0.7985261 1.3795296 0.7685223 0.984269 1.3528032 0.48460075
1.3022624 1.594958 1.1786356 1.2991946 0.94848186 0.7429321 1.7160714 1.1181146
0.7127433 1.8243822 0.55990654 1.4407787 0.9969824 1.0777864 0.5184821 1.1616995
1.8069795 0.9115364 0.4425302 1.0562783 0.99476653 1.1858649 1.0478334 0.7810348
00000000: eb24 973f 9ef6 c13f ca70 fc3f 238d f33f
00000010: 43a0 ba3f 78c1 893f df6d 803f 0af4 933f
00000020: 1989 ab3f 85de 993f e349 933f 4424 423f
00000030: 3616 983f 3169 923f 8001 6f3f 87b9 a43f
00000040: 98bb 8e3f 6155 2c3e d12d 383f ea61 513f
00000050: 9778 863f e0bd 033f 225f 853e ae75 ba3f
00000060: bf64 9d3f 947c 743f fe8c 9d3f 7cab e33f
00000070: cd50 843f 0fb4 763f 9c31 9e3f c524 383f
00000080: 34ee 913f 1fff f73f ea38 cc3f 4499 823f
00000090: 3359 b63f f3e8 5d3f a011 333f 551d 3f3f
000000a0: f7e9 d03f b6fb ba3f 82bf b93f 22d5 ff3e
000000b0: 9575 873f cbbe 8c3f f2ec 1c3f e068 493f
000000c0: 4bb6 6f3f 9fcb b53f e41e ea3f dca5 953e
000000d0: e8ee 873f 27c2 763f 481a 903f eb0c 3a3f
000000e0: fde7 9f3f 1c2a dc3e 129e 953f 2e42 593f
000000f0: 9651 5d3f 2180 d23f d21e 793f 2754 0d3f
00000100: c037 243f 9e78 ba3e 12a6 b83f 6aed 9e3f
00000110: 2c04 be3f cdb9 fc3f c6dd 3d3f 987c 883f
00000120: 28d8 cf3f 7ef7 633f 4625 c83f 6ed9 7e3f
00000130: ac44 313f 56cf d63f f8ec c93f e02a ad3f
00000140: 4cf7 9c3f e48d a03f 1c11 4e3f d1d4 c63f
00000150: ca12 883f 1bb4 c03f 816d 303f 8821 5a3f
00000160: d8fb ba3e e59b db3f b487 ad3f d569 f43e
00000170: 1f85 f93e 6b33 e93f de42 2b3f d2c1 663f
00000180: 151a 033f ef7f 1b3f 270e 493f ac4b 7b3f
00000190: 09ef e23f 6c50 473f 0f8e bb3f bde3 653f
000001a0: 6e64 593f cd0b 173f 89f1 9c3f e9d5 4c3f
000001b0: 059c c23e 8953 063f aec6 be3f 41ab a23f
000001c0: 11e1 5b3f dbba bc3f 58ef 8a3f 9299 e43f
000001d0: 12fb 053f e7f5 9e3f 74ed 993f 7a0b fa3e
000001e0: 7b30 a73f 5fbe 793f bd2f a13f 2770 9c3f
000001f0: 3785 8c3f d758 ae3f 8fbf bf3f 86cb e43e
00000200: fcf6 1840 99bb 323f 5df4 9f3f bdb1 4a3f
00000210: 69dd c73f 8a0d 963f 8988 6e3f 2a5c 3e3f
00000220: 3413 2b3f 479e cb3f 4e8e 113f d095 983f
00000230: 7b6c a03f 8210 a83f e3bd 5d3f b998 6e3f
00000240: b557 af3f e512 813f cfa0 bb3f 452b c63f
00000250: 4e76 5d3f d595 a23e cce4 c73e 0879 863f
00000260: 43df 963f b779 853f 7750 8f3f 87dd 823f
00000270: 6260 6c3f 5dcb 133f e747 513f 099c 953f
00000280: 9d52 ed3f adcb 243f e64a 1d3f 95a5 853f
00000290: d970 853f f180 f83f 0403 a73f 666b 923f
000002a0: 709b 833f 9120 e23f cc1b bc3f a19b 8d3f
000002b0: de73 fa3f c210 b53f 8123 f13f 9714 673f
000002c0: e1a9 2e3f 9cdf b13f c2ca 823f cb1e 493f
000002d0: 5f12 0e40 1738 0040 282f cb3f 9727 623f
000002e0: 07c6 833f 3f28 313f 80b2 fd3e f344 2c3f
000002f0: 44ee 543f 3589 8a3f e2ba 973f 6513 0b40
00000300: 0bab ea3f 97e3 ae3f cfd3 803f 0af3 523f
00000310: b776 a13f 321b ad3f 4291 1b3f d475 773f
00000320: 2901 8b3f 8d0f b93f 998e 263f 3f3d 1c3f
00000330: 72a8 9c3f ae73 823f 905d 2a3f da8b 433f
00000340: 3444 ff3f 4841 d33f aa47 2b3f 1b0c 883f
00000350: 8dd5 a53f e47a 243f 32ca c23f ed56 b83f
00000360: 4d66 943f 4cf9 8a3f 3f58 943f c456 ad3f
00000370: ac53 663f 7d72 e63e fdc1 2c3f 0136 7e3f
00000380: 42ef 8c3f ed51 803f 356c 4c3f 6d94 b03f
00000390: e1bd 443f 0ef9 7b3f a828 ad3f 971d f83e
000003a0: 89b0 a63f 9527 cc3f 88dd 963f 024c a63f
000003b0: b5cf 723f cc30 3e3f 3aa8 db3f 611e 8f3f
000003c0: 5876 363f 5b85 e93f 0956 0f3f 706b b83f
000003d0: 3d3a 7f3f e8f4 893f 3ebb 043f 92b2 943f
000003e0: 1b4b e73f 735a 693f 5293 e23e 2134 873f
000003f0: 05a9 7e3f 6cca 973f 681f 863f e6f1 473f

trunk.network.1.bias f4 [256]
-0.12424822 -0.10061137 -0.016599793 -0.046294197 -0.28618872 -0.40910095 -0.33898896 -0.29977465
-0.20692481 -0.3716492 -0.19459285 -0.3932554 -0.4320291 -0.104332946 -0.35631448 -0.17585656
-0.3357786 -0.798672 -0.41136488 -0.39279658 -0.28426462 -0.5821346 -0.78099257 -0.12672608
-0.25000754 -0.24900337 -0.19725096 -0.020799227 -0.3278889 -0.3942977 -0.3000289 -0.44568768
-0.31945673 -0.097148746 -0.12233236 -0.36565563 -0.14766888 -0.4229527 -0.32965717 -0.3848278
-0.086226605 -0.15993136 -0.088240124 -0.6251443 -0.39289784 -0.23606297 -0.4849245 -0.40538886
-0.42663854 -0.2513069 0.03175777 -0.7368212 -0.29270956 -0.26271212 -0.2327008 -0.4881798
-0.30119014 -0.5615123 -0.07186897 -0.5138285 -0.43457744 0.03360751 -0.3535613 -0.5983651
-0.45290002 -0.6656616 -0.10957567 -0.18221839 -0.1710104 0.041360557 -0.5208973 -0.40622118
-0.07386959 -0.3409767 -0.19761133 -0.36481938 -0.4320538 0.031213285 -0.08613372 -0.18665981
-0.22495306 -0.23123552 -0.46673313 -0.21266223 -0.29201138 -0.2220651 -0.4734325 -0.39761347
-0.6605285 -0.026295235 -0.20138255 -0.53799605 -0.50142413 -0.0041041337 -0.5220898 -0.24581327
-0.5458482 -0.5721508 -0.47009268 -0.32293 -0.0907397 -0.3676604 -0.06028957 -0.3697718
-0.38130742 -0.53417796 -0.3826065 -0.4903558 -0.63218707 -0.5307218 -0.14239067 -0.15259054
-0.4371084 -0.23834027 -0.32073912 0.04504389 -0.48066983 -0.19442862 -0.16130745 -0.53998613
-0.18222979 -0.2532333 -0.11802245 -0.27816078 -0.18555205 -0.22567363 -0.21864982 -0.5654949
0.13515957 -0.52249783 -0.2315883 -0.38750055 -0.14882722 -0.2820328 -0.43539155 -0.33057785
-0.46083653 -0.20555589 -0.5057172 -0.06614084 -0.26043007 -0.25258595 -0.26978984 -0.14734596
-0.17888302 -0.32812107 -0.15173037 -0.27333242 -0.41183048 -0.71313083 -0.726901 -0.25711364
-0.1851318 -0.15459822 -0.23294815 -0.39799088 -0.3675366 -0.5018365 -0.30431473 -0.28731683
-0.14810947 -0.488941 -0.43539134 -0.21003127 -0.22753064 -0.088944815 -0.12740155 -0.27884936
-0.3061942 -0.04482646 0.07093465 -0.2720857 -0.12234859 -0.06835116 -0.2094259 -0.2754231
-0.4072955 -0.1758164 -0.3586977 -0.43297637 0.16933472 -0.120897405 -0.09352451 -0.42721093
-0.14743686 -0.3912365 -0.5740693 -0.47277662 -0.4581375 -0.4448105 -0.25862923 0.006838108
-0.05525859 -0.1700938 -0.32235324 -0.35335684 -0.24407563 -0.22736548 -0.5311872 -0.29741785
-0.27239308 -0.22151053 -0.47708622 -0.5408401 -0.29947457 -0.4060554 -0.5079929 -0.4404688
-0.021447651 -0.13367473 -0.3807701 -0.21718404 -0.12100909 -0.4002745 -0.061456643 -0.20516555
-0.22085291 -0.26237556 -0.30938604 -0.18157983 -0.28833705 -0.6561985 -0.48464933 -0.12928393
-0.18383232 -0.3060506 -0.45861378 -0.19479263 -0.353631 -0.23763223 -0.16216348 -0.66558117
-0.14594707 -0.1337999 -0.17251429 -0.27857006 -0.3834913 -0.34667516 -0.044999506 -0.36052555
-0.40595645 0.12893903 -0.5968148 -0.27570143 -0.32178727 -0.25153 -0.47075894 -0.2556081
0.10501413 -0.398485 -0.6588722 -0.2221947 -0.27804166 -0.50558734 -0.34576672 -0.43319926
00000000: da75 febd 550d cebd 4afc 87bc fc9e 3dbd
00000010: 5487 92be ae75 d1be f68f adbe 107c 99be
00000020: 19e4 53be ce48 bebe 5943 47be c658 c9be
00000030: eb32 ddbe 83ac d5bd da6e b6be be13 34be
00000040: 2ceb abbe c575 4cbf 6b9e d2be a21c c9be
00000050: 228b 91be c606 15bf 21ef 47bf 7bc4 01be
00000060: fd00 80be bdfa 7ebe 28fc 49be 2463 aabc
00000070: 0ee1 a7be 63e1 c9be 639d 99be 2d31 e4be
00000080: d58f a3be ecf5 c6bd 6389 fabd 3737 bbbe
00000090: 8336 17be 428d d8be d3c8 a8be 2608 c5be
000000a0: 9397 b0bd 0cc5 23be 3db7 b4bd 7509 20bf
000000b0: e829 c9be 7eba 71be 0648 f8be 218f cfbe
000000c0: 5e70 dabe 4cab 80be 6f14 023d 50a0 3cbf
000000d0: 07de 95be 3482 86be 1e49 6ebe b4f2 f9be
000000e0: 9835 9abe 45bf 0fbf 0a30 93bd 448a 03bf
000000f0: ef80 debe 07a8 093d fd05 b5be 752e 19bf
00000100: 83e2 e7be cc68 2abf 3569 e0bd 7597 3abe
00000110: 5a1d 2fbe b069 293d 8759 05bf 39fc cfbe
00000120: f148 97bd 7f94 aebe a05a 4abe 9bc9 babe
00000130: 2836 ddbe 01b3 ff3c e066 b0bd c023 3fbe
00000140: 185a 66be 01c9 6cbe a5f7 eebe 21c4 59be
00000150: 8482 95be 0965 63be bf65 f2be fe93 cbbe
00000160: 6518 29bf 1b69 d7bc 3a37 4ebe 1cba 09bf
00000170: 555d 00bf f87b 86bb ada7 05bf 79b6 7bbe
00000180: b5bc 0bbf 7a78 12bf fdaf f0be 1557 a5be
00000190: bcd5 b9bd fc3d bcbe 32f2 76bd bb52 bdbe
000001a0: ba3a c3be e3bf 08bf 00e5 c3be ea0f fbbe
000001b0: 03d7 21bf 62dd 07bf dcce 11be b240 1cbe
000001c0: accc dfbe 790f 74be eb37 a4be f17f 383d
000001d0: 5b1a f6be 4c18 47be c82d 25be 883c 0abf
000001e0: 729a 3abe cca7 81be c1b5 f1bd 176b 8ebe
000001f0: 5b01 3ebe fd16 67be bde5 5fbe 46c4 10bf
00000200: 4567 0a3e 6bc2 05bf 7c25 6dbe 7966 c6be
00000210: 2a66 18be 9a66 90be a4eb debe 8041 a9be
00000220: c4f2 ebbe 3e7d 52be af76 01bf d974 87bd
00000230: 1757 85be f252 81be e521 8abe dce1 16be
00000240: 1c2d 37be 7cff a7be 355f 1bbe 3af2 8bbe
00000250: 72db d2be be8f 36bf 2f16 3abf 66a4 83be
00000260: 3193 3dbe ff4e 1ebe f689 6ebe 76c5 cbbe
00000270: c22d bcbe 5b78 00bf 24cf 9bbe 311b 93be
00000280: 02aa 17be 7a56 fabe 9deb debe 7012 57be
00000290: cbfd 68be b328 b6bd 8d75 02be 58c5 8ebe
000002a0: 7cc5 9cbe f39b 37bd 3046 913d d14e 8bbe
000002b0: e691 fabd b1fb 8bbd be73 56be 4204 8dbe
000002c0: 0989 d0be 3709 34be 3aa7 b7be 14af ddbe
000002d0: 1566 2d3e 0f99 f7bd c789 bfbd 64bb dabe
000002e0: b0f9 16be 2750 c8be 35f6 12bf c70f f2be
000002f0: 0091 eabe 34be e3be 0d6b 84be 3512 e03b
00000300: d556 62bd 122d 2ebe 7c0b a5be 30eb b4be
00000310: f6ee 79be 7fd2 68be e2fb 07bf 2747 98be
00000320: 1b77 8bbe a8d3 62be a544 f4be 7f74 0abf
00000330: bb54 99be 7ee6 cfbe d30b 02bf 2085 e1be
00000340: fcb2 afbc 07e2 08be 4cf4 c2be 7e65 5ebe
00000350: 9dd3 f7bd c7f0 ccbe f6b9 7bbd eb16 52be
00000360: 4427 62be 1756 86be d967 9ebe 10f0 39be
00000370: eaa0 93be a0fc 27bf f523 f8be 0263 04be
00000380: 8a3e 3cbe aab2 9cbe 6dcf eabe b877 47be
00000390: 1f0f b5be dd55 73be 2f0e 26be 8763 2abf
000003a0: 2673 15be d702 09be 96a7 30be bca0 8ebe
000003b0: f958 c4be 687f b1be 6751 38bd ce96 b8be
000003c0: 86d9 cfbe 9808 043e dbc8 18bf bd28 8dbe
000003d0: 4dc1 a4be 8ac8 80be 5107 f1be 11df 82be
000003e0: a611 d73d 3a06 ccbe d9ab 28bf 0287 63be
000003f0: 7a5b 8ebe 2c6e 01bf 5608 b1be 4bcc ddbe

trunk.network.3.weight f4 [256, 256]
0.15321971 -0.37540564 0.15008736 0.24029304 0.11669722 0.10296465 -0.02514802 0.19887435
0.39839676 0.23470864 -0.081158385 0.35980204 0.030972784 0.10826101 0.26319993 0.1410079
0.4997344 0.14824729 0.15055789 0.38085908 0.13939562 -0.056541815 0.36482224 0.17492135
0.27787593 0.25794345 0.24979337 0.06771758 0.24392496 0.3034308 0.12007597 -0.0010386844
0.07679423 -0.06801098 0.029173423 0.08236427 0.05157955 0.12770346 -0.13258007 0.09866277
-0.2124061 0.2739382 0.34340078 -0.01853504 0.32775754 0.11875077 0.26718652 0.26719993
0.007684007 0.05646019 -0.50836265 0.35006762 0.109641805 0.07421084 0.34052598 0.25514346
0.18793784 -0.0066758585 0.31731406 0.4864326 0.16866238 0.24335541 0.22000982 -0.14941122
0.3327721 0.107406124 0.49678478 0.20641673 0.24834284 0.060033064 0.15996005 0.13737382
0.3049824 0.012245287 0.28691158 0.30253345 0.26655948 0.11015829 0.083990276 0.51949656
0.26363063 0.2789979 0.038722377 0.41457942 0.19736707 0.21409255 0.11362668 0.13405892
0.045202512 0.10363393 0.16199915 -0.075849734 0.11381343 0.10969068 0.006122415 0.30719203
0.23562962 -0.3229765 0.14335336 -0.2054187 -0.12489626 -0.1564872 0.0804348 0.1793059
0.1009554 0.1298836 0.08707763 0.19733553 0.18593785 0.21461312 0.18528634 0.20908238
-0.021050619 0.29125756 0.05386083 -0.022221928 0.0860039 0.26731563 0.24338543 -0.25722942
0.35793006 0.049672306 0.17355661 0.17650257 0.22796969 0.14966084 0.1701113 0.061627258
0.2633195 -0.016915536 0.0013843968 0.1917235 0.22432673 0.16981015 0.039629716 0.0092173675
0.18391025 0.319072 0.028061377 0.090630665 0.14003049 0.36589885 0.15433858 0.47551882
0.5077498 0.2647132 0.42234385 -0.24511898 0.17572781 0.27676356 0.13123745 0.16767503
0.32667243 0.14724681 -0.14159307 0.1285239 0.012019158 0.033990793 0.17500427 0.15053241
-0.038411967 -0.02008502 0.051899604 0.26780587 0.4323825 0.20676684 0.12537368 0.25422686
0.31842035 -0.008061815 -0.31356156 -0.027293967 -0.060879238 0.4732183 0.45609874 0.17083965
0.27248338 0.4226469 0.13032095 0.29546627 -0.0798496 0.4537156 0.017882474 0.11021214
0.5651733 0.15916999 0.22886477 0.21628648 0.25617912 -0.0056471303 0.1154267 0.08214594
-0.035613734 0.18098223 0.34672093 -0.1470841 0.28098723 0.040043306 0.2590932 0.22900103
0.27245912 0.055788465 0.13857499 -0.024300963 0.082806215 0.20119533 0.16815801 0.14792813
0.33926052 0.112270415 0.10788154 0.2920936 -0.21324606 -0.007901912 0.13092284 -0.4867209
-0.009436073 0.040429477 0.048578653 0.2205667 -0.20249394 0.083863616 0.23251992 0.24525051
0.21923468 0.19327435 0.13398193 0.36683384 0.100072466 0.35067102 -0.09468245 0.18339728
-0.030128505 -0.030884339 0.26643008 0.4784678 -0.25381204 0.03560508 0.22307286 0.2614015
0.2370194 0.12600137 0.15215482 0.03300604 -0.16683328 0.4850126 -0.031688184 0.08329321
0.089903414 0.06507808 -0.059520572 0.07240128 0.29126683 -0.36856523 0.1999127 0.22567227
00000000: a1e5 1c3e 2b35 c0be 80b0 193e 610f 763e
00000010: f4fe ee3d 21df d23d 3803 cebc b8a5 4b3e
00000020: a9fa cb3e 7657 703e 5e36 a6bd f937 b83e
00000030: a3ba fd3c f3b7 dd3d 24c2 863e 6064 103e
00000040: 30dd ff3e 23ce 173e d92b 1a3e f6ff c23e
00000050: babd 0e3e 6498 67bd fbc9 ba3e 951e 333e
00000060: c145 8e3e 2a11 843e d5c9 7f3e 84af 8a3d
00000070: 77c7 793e 485b 9b3e 64ea f53d 7724 88ba
00000080: 4b46 9d3d 5749 8bbd 1afd ee3c 99ae a83d
00000090: 1445 533d b2c4 023e 12c3 07be b50f ca3d
000000a0: fc80 59be a141 8c3e 3ad2 af3e ccd6 97bc
000000b0: d6cf a73e 9b33 f33d accc 883e 6ece 883e
000000c0: 1fca fb3b cd42 673d 0e24 02bf 103c b33e
000000d0: e28b e03d dafb 973d 6c59 ae3e 2aa2 823e
000000e0: c772 403e 29c1 dabb fd76 a23e b20d f93e
000000f0: d5b5 2c3e 2932 793e 414a 613e 41ff 18be
00000100: 1b61 aa3e bef7 db3d 935a fe3e e85e 533e
00000110: 964d 7e3e 3be5 753d 91cc 233e b9ab 0c3e
00000120: a726 9c3e 75a0 483c 13e6 923e aae5 9a3e
00000130: 7c7a 883e ab9a e13d 1803 ac3d bafd 043f
00000140: 98fa 863e d0d8 8e3e 5b9b 1e3d c143 d43e
00000150: 981a 4a3e 143b 5b3e 1bb5 e83d be46 093e
00000160: 4526 393d 073e d43d 1be3 253e 1b57 9bbd
00000170: 0417 e93d 82a5 e03d 8a9e c83b 4648 9d3e
00000180: e448 713e 2d5d a5be 39cb 123e 4859 52be
00000190: 9cc9 ffbd 2e3e 20be 00bb a43d f79b 373e
000001a0: b4c1 ce3d 3500 053e c255 b23d 5312 4a3e
000001b0: 7e66 3e3e 8bc3 5b3e b4bb 3d3e b119 563e
000001c0: 5972 acbc b61f 953e 2c9d 5c3d c30a b6bc
000001d0: d022 b03d 98dd 883e 083a 793e 93b3 83be
000001e0: 9c42 b73e 3075 4b3d d3b8 313e 17bd 343e
000001f0: e370 693e b140 193e a831 2e3e dd6c 7c3d
00000200: d0d1 863e 7392 8abc a674 b53a 2a53 443e
00000210: e8b5 653e b6e2 2d3e c552 223d 7104 173c
00000220: f852 3c3e 685d a33e f9e0 e53c 929c b93d
00000230: 2764 0f3e 1857 bb3e ef0a 1e3e 3477 f33e
00000240: e4fb 013f 7d88 873e 743d d83e 7800 7bbe
00000250: fef1 333e f4b3 8d3e 1c63 063e 01b3 2b3e
00000260: 9c41 a73e dec7 163e c6fd 10be c59b 033e
00000270: 01ec 443c ee39 0b3d 5234 333e 2b25 1a3e
00000280: de55 1dbd 5789 a4bc ae94 543d da1d 893e
00000290: 3d61 dd3e b0ba 533e f561 003e 062a 823e
000002a0: fe07 a33e b415 04bc 248b a0be 9997 dfbc
000002b0: 825c 79bd ab49 f23e c685 e93e 97f0 2e3e
000002c0: f182 8b3e 2d65 d83e db72 053e 5b47 973e
000002d0: 3088 a3bd 694d e83e 447e 923c e7b6 e13d
000002e0: 33af 103f 75fd 223e 875b 6a3e 347a 5d3e
000002f0: e929 833e 900b b9bb d564 ec3d 213c a83d
00000300: b5df 11bd 6853 393e 6885 b13e 379d 16be
00000310: 8fdd 8f3e 7304 243d dda7 843e 3f7f 6a3e
00000320: c37f 8b3e 7282 643d 9ae6 0d3e d012 c7bc
00000330: 4e96 a93d 2606 4e3e 9d31 2c3e 797a 173e
00000340: 8eb3 ad3e 08ee e53d fff0 dc3d 4b8d 953e
00000350: 2d5d 5abe 0577 01bc a310 063e 7b33 f9be
00000360: c299 1abc 6199 253d 69fa 463d 3ddc 613e
00000370: 925a 4fbe b0c0 ab3d b419 6e3e f322 7b3e
00000380: 0e7f 603e b6e9 453e 8f32 093e a5d1 bb3e
00000390: cbf2 cc3d 278b b33e dfe8 c1bd 7fcc 3b3e
000003a0: 0ed0 f6bc 2701 fdbc 8669 883e bbf9 f43e
000003b0: a7f3 81be a2d6 113d 366d 643e 6bd6 853e
000003c0: 37b5 723e 8106 013e 79ce 1b3e 5731 073d
000003d0: 58d6 2abe 9253 f83e 78cb 01bd a195 aa3d
000003e0: 481f b83d a847 853d d8cb 73bd 1f47 943d
000003f0: ed20 953e 95b4 bcbe eab5 4c3e a216 673e

trunk.network.3.bias f4 [256]
0.1747336 0.5329051 0.0104436595 0.20723425 0.113927655 0.07038323 0.029217236 0.06422855
0.09208752 0.05962508 0.110464066 0.11153775 0.088946834 0.11683657 -0.031750806 0.09993928
0.06877373 0.09652134 0.21421 0.2319519 0.07892302 0.079924576 0.014349508 0.16106538
-0.021915011 -0.011852031 -0.0036883426 0.08928756 0.120594874 0.09167422 0.083414435 0.072277084
0.088142104 0.08515572 0.95690215 0.31689778 0.12115057 0.04775935 0.10493592 -0.050915543
0.09963787 -0.012986581 -0.007687999 0.02691669 0.03848575 0.0291643 0.264039 0.07198911
0.14182866 0.11032321 0.13142581 0.029865723 0.11945942 -0.026499178 0.017569382 0.10322812
0.19731793 0.03387759 0.19576056 0.12140782 0.13308585 0.21648137 0.18022427 -0.015961453
0.250853 0.21434407 0.12138016 0.21317479 0.15487574 0.20143367 0.08251294 0.22027603
0.14901367 0.12908867 0.1152512 0.16820227 0.10191031 0.17728505 0.121042974 0.02851285
-0.01726788 0.29640213 0.22033948 0.097983085 0.22492878 0.02558226 0.15273608 0.12519969
0.09595022 0.16045833 0.20808871 0.1480954 0.056939095 0.47523943 0.20122002 0.08580234
0.15975216 -0.0027215413 0.07484915 0.11419967 0.066717915 0.09700727 0.087586135 0.026078817
0.12956575 0.2341829 0.12502481 0.019991683 0.11730828 0.008028957 0.2689748 0.0752758
0.043994877 0.12448526 0.084170245 0.093519144 0.071687855 0.04561523 0.3331982 0.12261681
0.24760026 -0.027989512 0.28697014 0.11428368 0.049415175 0.09609597 0.12158443 0.05212624
0.005793857 0.2154333 0.14486028 0.16956988 0.19147293 0.011087533 0.030045377 0.043887123
0.02378359 0.07855931 -0.011957967 0.15655267 0.082307756 0.13594472 0.15231761 0.17946967
0.1648732 0.016780509 0.08864553 0.16561262 0.08864269 0.13217221 0.18622339 0.0104932925
-0.028063962 0.17053708 0.1363675 0.024900697 0.08123895 0.0251412 0.13788873 0.11082993
0.13906538 0.13196996 0.0144585045 0.003049735 0.03207609 0.07142546 0.10389517 0.0035240888
0.18824631 0.021675052 0.14808586 0.025065478 -0.08402089 0.0407855 0.31509528 -0.025298
-0.014831902 -0.0126910815 0.03368813 0.06959334 0.13491334 0.18642811 0.115918785 0.079366684
0.090696834 0.029231466 0.14821875 0.103381746 0.045803823 0.31973502 0.12626167 -0.0014669513
0.115126036 0.11290381 -0.0012014089 0.2425844 0.13506918 0.060416274 0.13304566 0.1819492
0.13884583 0.13334803 0.055316288 0.33941123 0.2168697 0.11964023 0.033874348 0.010259965
1.010382 0.14890766 0.089457676 -0.08054051 0.019433528 0.20894147 0.06819541 0.15010953
0.06635378 -0.09419056 0.1545134 0.07181662 0.0018463806 0.14466195 0.09340353 0.118761756
0.19759099 0.08000624 0.14023726 0.11591354 0.07685018 0.0837636 0.12219048 0.19326673
0.033767357 0.12833823 -0.0026287897 0.10195912 -0.04788988 0.15675874 0.16962463 -0.009727961
0.035934374 0.2700895 0.019986954 0.019850278 0.04951007 0.05364739 0.15677148 0.11648655
0.12596092 0.11032862 0.19689307 0.08161239 0.12982428 0.07515951 0.12962762 0.03218451
00000000: 5ded 323e 786c 083f e21b 2b3c 3735 543e
00000010: e752 e93d 1525 903d fc58 ef3c 428a 833d
00000020: 6298 bc3d 6e39 743d fc3a e23d e76d e43d
00000030: c229 b63d 0348 ef3d 220d 02bd f7ac cc3d
00000040: 3ed9 8c3d fbac c53d de59 5b3e cd84 6d3e
00000050: 64a2 a13d 7faf a33d 331a 6b3c 53ee 243e
00000060: 1c87 b3bc 052f 42bc 1fb8 71bb 65dc b63d
00000070: 72fa f63d b2bf bb3d 30d5 aa3d 0206 943d
00000080: d983 b43d 1f66 ae3d 8af7 743f 6d40 a23e
00000090: ca1d f83d 4f9f 433d a5e8 d63d d18c 50bd
000000a0: f10e cc3d abc5 54bc 9ceb fbbb 6480 dc3c
000000b0: 3ca3 1d3d f8e9 ee3c 1f30 873e 076f 933d
000000c0: 883b 113e 23f1 e13d 7d94 063e f6a8 f43c
000000d0: 24a7 f43d ce14 d9bc aaed 8f3c 4469 d33d
000000e0: b60d 4a3e 3ac3 0a3d 7575 483e aaa4 f83d
000000f0: a847 083e 4bad 5d3e b68c 383e 98c1 82bc
00000100: ce6f 803e 037d 5b3e 2996 f83d 7e4a 5a3e
00000110: bf97 1e3e a144 4e3e 8bfc a83d 0a90 613e
00000120: 0a97 183e d22f 043e d208 ec3d 373d 2c3e
00000130: 5ab6 d03d 368a 353e 61e5 f73d c893 e93c
00000140: 5e75 8dbc 05c2 973e aca0 613e 5bab c83d
00000150: bb53 663e e391 d13c d966 1c3e 5934 003e
00000160: 8d81 c43d 304f 243e 3515 553e 52a6 173e
00000170: f838 693d 9552 f33e 9f0c 4e3e 23b9 af3d
00000180: 1296 233e e35b 32bb 834a 993d 84e1 e93d
00000190: 67a3 883d bfab c63d 5c60 b33d 3ea3 d53c
000001a0: e2ac 043e a4cd 6f3e 8106 003e 99c5 a33c
000001b0: 533f f03d e38b 033c 11b7 893e 332a 9a3d
000001c0: f933 343d 21f2 fe3d 7361 ac3d f786 bf3d
000001d0: 15d1 923d 09d7 3a3d f498 aa3e 861e fb3d
000001e0: ec8a 7d3e 434a e5bc c0ed 923e 900d ea3d
000001f0: 9167 4a3d f7cd c43d 4201 f93d 5382 553d
00000200: 65da bd3b 8c9a 5c3e 4156 143e baa3 2d3e
00000210: 7b11 443e 7ca8 353c b921 f63c fcc2 333d
00000220: ced5 c23c b4e3 a03d 59eb 43bc 584f 203e
00000230: f890 a83d 1835 0b3e 26f9 1b3e e6c6 373e
00000240: 85d4 283e 4777 893c ca8b b53d 5b96 293e
00000250: 4c8a b53d 2758 073e 58b1 3e3e 0fec 2b3c
00000260: 65e6 e5bc 46a1 2e3e eca3 0b3e 8cfc cb3c
00000270: 9b60 a63d ebf4 cd3c b432 0d3e cdfa e23d
00000280: 2867 0e3e 2223 073e 5de3 6c3c 10de 473b
00000290: 3862 033d 8347 923d fec6 d43d 66f4 663b
000002a0: a4c3 403e e18f b13c d2a3 173e 1e56 cd3c
000002b0: 2513 acbd b20e 273d 2b54 a13e c03d cfbc
000002c0: 8201 73bc 41ee 4fbc 91fc 093d f486 8e3d
000002d0: b926 0a3e 03e7 3e3e d466 ed3d 008b a23d
000002e0: 43bf b93d d476 ef3c a8c6 173e cfb9 d33d
000002f0: ca9c 3b3d 4fb4 a33e bd4a 013e b846 c0ba
00000300: 33c7 eb3d 1d3a e73d 9878 9dba 0c68 783e
00000310: 934f 0a3e 0e77 773d 1f3d 083e e450 3a3e
00000320: 9a2d 0e3e 638c 083e 5593 623d 4fc7 ad3e
00000330: 1713 5e3e f005 f53d d4bf 0a3d 6a19 283c
00000340: 3354 813f 407b 183e 9635 b73d 6cf2 a4bd
00000350: 1033 9f3c c1f4 553e 09aa 8b3d 50b6 193e
00000360: 7ee4 873d fbe6 c0bd c338 1e3e 9814 933d
00000370: 4102 f23a 4322 143e 5a4a bf3d 5d39 f33d
00000380: 4b55 4a3e 50da a33d 5b9a 0f3e 1464 ed3d
00000390: a163 9d3d 408c ab3d 013f fa3d b7e7 453e
000003a0: a44f 0a3d 196b 033e c647 2cbb f1cf d03d
000003b0: 2e28 44bd 5d85 203e 14b2 2d3e 0762 1fbc
000003c0: ec2f 133d 2c49 8a3e aebb a33c 0d9d a23c
000003d0: 12cb 4a3d 5ebd 5b3d b488 203e 8090 ee3d
000003e0: e6fb 003e f9f3 e13d 569e 493e 6624 a73d
000003f0: a8f0 043e 3bed 993d 1abd 043e e8d3 033d

trunk.network.4.weight f4 [256]
0.598184 0.18618113 1.1033974 0.6310548 0.86191076 1.1106927 1.2044183 0.71927947
0.8688088 1.457836 1.1735197 0.8140578 1.1264158 0.6769793 1.1811954 0.9347797
1.3734236 1.375741 0.823116 0.5557239 1.0088975 0.8714601 1.2496707 1.1412898
1.0943416 1.3665975 1.3165952 1.4992423 1.2582892 0.7583822 1.4160956 0.91408134
1.0659093 0.7981826 0.10357769 0.65129673 0.8157686 1.1078777 0.7090919 1.3622013
1.10368 1.1610945 1.1253171 1.0675998 0.86766624 1.2851238 0.9042105 0.7587714
1.279813 0.74426967 1.3972421 1.1886725 1.108175 1.1228305 0.88354445 0.8490594
0.89209163 1.5112239 0.8685064 1.2167014 1.3622836 1.4008718 0.88946885 1.3717643
0.9455096 0.63472027 1.0647967 0.77461123 0.9260142 0.81050086 1.0738616 0.9943814
0.79851013 0.88231677 0.94657344 0.97646 0.9389826 0.36327857 1.049529 1.2330062
1.2313818 0.28083125 0.6780641 0.6821578 1.3240365 1.4921005 1.3409724 1.0442275
1.1079932 0.8018738 1.149222 1.2149415 0.9905036 0.23105238 0.64431417 1.1610196
1.0070395 0.9482775 1.4360908 0.7106767 1.0345442 1.132178 1.4400711 1.383955
0.7553842 0.8143533 1.0876548 1.0254366 0.6984333 0.9038781 0.79139715 0.8164987
1.2278842 1.0670469 1.3089967 0.82060707 1.0451174 1.413185 0.39393207 0.9416098
0.60992014 1.1471226 0.672814 0.92392665 0.8135671 1.0612918 0.6965968 0.6764983
1.2235035 1.2874308 0.759097 0.8987129 1.0217942 1.4065524 1.7605294 1.4264089
1.069744 1.289552 0.6092323 0.7554734 1.1457152 1.1612979 0.5852117 1.342254
0.8196194 0.9454353 0.6926918 0.846667 0.807181 1.1152203 0.99593735 1.0155687
1.0075737 0.57917213 1.2871168 1.1680149 1.3769344 1.3847536 0.6734149 0.9867062
1.0261557 0.8624954 0.9445852 1.1842852 0.9022549 0.84818256 0.7204054 1.1767318
1.2085655 1.5292449 1.2904311 1.221756 1.493154 1.1636341 0.42651042 1.0921006
1.1203799 1.3975058 1.0225877 0.82098204 0.613735 1.0819451 1.3856926 1.225801
1.0752157 1.3971562 0.943436 0.8011944 1.0984191 0.5951679 1.0000705 1.1390853
0.75782955 1.6631784 1.0938199 0.6805889 1.1497328 1.3468034 0.9033718 0.93367255
0.91720796 0.9544911 1.0719408 0.48752657 1.1438607 1.0263139 1.0512742 1.427948
0.09591733 1.0548259 1.2249571 1.377496 1.3859458 0.48173368 0.86868805 1.0079492
1.440668 1.529252 0.9907713 1.3921466 0.97670853 1.0574476 1.3595213 0.7873872
1.0763056 1.0604837 1.2060919 0.665492 0.9683901 1.147851 0.5364033 0.9488069
1.5849472 1.2205749 1.3032452 0.87027746 0.9474717 0.8217201 0.85294944 0.8792472
0.94179714 0.42985642 1.021147 1.2979672 0.90028614 0.78250563 0.78901505 1.154594
0.6382618 1.2406046 0.83683217 0.6263461 0.85507673 0.9566922 1.0547012 1.2686093
00000000: 9622 193f 44a6 3e3e 203c 8d3f cf8c 213f
00000010: 2fa6 5c3f 2e2b 8e3f 612a 9a3f b322 383f
00000020: 416a 5e3f 5f9a ba3f e535 963f 1866 503f
00000030: 652e 903f 844e 2d3f 6931 973f b94d 6f3f
00000040: 58cc af3f 4818 b03f bbb7 523f ec43 0e3f
00000050: 8e23 813f 0218 5f3f 36f5 9f3f c915 923f
00000060: 6313 8c3f abec ae3f 3186 a83f 2ce7 bf3f
00000070: 9f0f a13f 5625 423f 9f42 b53f 3c01 6a3f
00000080: b76f 883f b255 4c3f 8a20 d43d 62bb 263f
00000090: 36d6 503f f0ce 8d3f 0c87 353f 9d5c ae3f
000000a0: 6345 8d3f bf9e 943f 640a 903f 1ca7 883f
000000b0: 601f 5e3f f07e a43f 577a 673f d83e 423f
000000c0: ead0 a33f 7588 3e3f d4d8 b23f 6c26 983f
000000d0: aed8 8d3f e9b8 8f3f f82f 623f f55b 593f
000000e0: 1e60 643f c96f c13f 6f56 5e3f dfbc 9b3f
000000f0: 4f5f ae3f c44f b33f 3bb4 633f f995 af3f
00000100: eb0c 723f 077d 223f 424b 883f ec4c 463f
00000110: 440f 6d3f fc7c 4f3f 4c74 893f c88f 7e3f
00000120: 296b 4c3f 83df 613f a352 723f 48f9 793f
00000130: 2a61 703f a6ff b93e f756 863f 26d3 9d3f
00000140: eb9d 9d3f 1dc9 8f3e 9c95 2d3f e5a1 2e3f
00000150: 077a a93f 26fd be3f fca4 ab3f 3fa9 853f
00000160: b9d2 8d3f 9a47 4d3f b519 933f 3483 9b3f
00000170: a591 7d3f ff98 6c3e c6f1 243f 4a9c 943f
00000180: ace6 803f 50c2 723f d3d1 b73f e9ee 353f
00000190: f26b 843f 35eb 903f 4054 b83f 7025 b13f
000001a0: dc60 413f 7579 503f 4638 8b3f 8241 833f
000001b0: 86cc 323f 8e64 673f 0199 4a3f 0f06 513f
000001c0: 4f2b 9d3f fe94 883f 348d a73f 4e13 523f
000001d0: 68c6 853f 3fe3 b43f 77b1 c93e 570d 713f
000001e0: ba23 1c3f ead4 923f 8a3d 2c3f 7586 6c3f
000001f0: ef45 503f 69d8 873f 2b54 323f fe2e 2d3f
00000200: c39b 9c3f 88ca a43f 2e54 423f 0c12 663f
00000210: 27ca 823f e909 b43f 0759 e13f 9194 b63f
00000220: 5fed 883f 0a10 a53f a6f6 1b3f b466 413f
00000230: cca6 923f 69a5 943f 6fd0 153f fbce ab3f
00000240: 94d2 513f 0c08 723f 4054 313f 2bbf 583f
00000250: 6aa3 4e3f 8abf 8e3f c0f5 7e3f 28fe 813f
00000260: 2df8 803f a044 143f 3ec0 a43f 8381 953f
00000270: 633f b03f 9b3f b13f eb64 2c3f c798 7c3f
00000280: 1259 833f 80cc 5c3f 56d0 713f a896 973f
00000290: 2dfa 663f 7e22 593f 7d6c 383f 269f 963f
000002a0: 46b2 9a3f 4cbe c33f d92c a53f 8062 9c3f
000002b0: ac1f bf3f f6f1 943f 935f da3e f4c9 8b3f
000002c0: 9c68 8f3f 78e1 b23f 27e4 823f e12b 523f
000002d0: bd1d 1d3f 2d7d 8a3f 605e b13f 0ce7 9c3f
000002e0: aba0 893f 04d6 b23f 0685 713f 141b 4d3f
000002f0: ff98 8c3f ec5c 183f 4f02 803f 8ccd 913f
00000300: 1e01 423f 08e3 d43f 4a02 8c3f 133b 2e3f
00000310: 722a 933f 0e64 ac3f 6043 673f 2a05 6f3f
00000320: 24ce 6a3f 8759 743f 5b35 893f 159d f93e
00000330: 076a 923f 415e 833f 2790 863f 00c7 b63f
00000340: 4e70 c43d 8904 873f 65cb 9c3f ca51 b03f
00000350: ac66 b13f cca5 f63e 5762 5e3f 7b04 813f
00000360: cf67 b83f 88be c33f 30a3 7d3f dc31 b23f
00000370: 9209 7a3f 715a 873f cb04 ae3f 3592 493f
00000380: 62c4 893f eebd 873f 3861 9a3f af5d 2a3f
00000390: 6ae8 773f c8ec 923f ba51 093f 02e5 723f
000003a0: 8ddf ca3f cc3b 9c3f bdd0 a63f 81ca 5e3f
000003b0: 818d 723f 405c 523f e55a 5a3f 5816 613f
000003c0: 9e19 713f 2416 dc3e f2b4 823f ca23 a63f
000003d0: 2779 663f 4a52 483f e4fc 493f bcc9 933f
000003e0: 2065 233f 22cc 9e3f a23a 563f 3858 203f
000003f0: 4fe6 5a3f c8e9 743f 7300 873f ca61 a23f

trunk.network.4.bias f4 [256]
-0.6046427 -0.8689355 -0.347481 -0.47180435 -0.3685444 -0.27015147 -0.40368783 -0.5232646
-0.37143138 -0.24895792 -0.23760696 -0.41491514 -0.36980397 -0.54284894 -0.3307093 -0.33896515
-0.323872 -0.11387851 -0.4100201 -0.4930831 -0.46869418 -0.38180608 -0.34890848 -0.25903955
-0.35826388 -0.2835524 -0.31953815 -0.26311633 -0.13467616 -0.5273852 -0.14652388 -0.360772
-0.31184414 -0.47432354 -0.919706 -0.45743972 -0.47877422 -0.44036448 -0.50225073 -0.19812079
-0.22820736 -0.29319188 -0.4186501 -0.34632286 -0.4608319 -0.3014453 -0.3307115 -0.40257314
-0.3713224 -0.53618133 -0.23553665 -0.220662 -0.311975 -0.5603212 -0.48065722 -0.457387
-0.39640877 -0.30728874 -0.38940927 -0.2346418 -0.39115304 -0.32470644 -0.33139613 -0.3102781
-0.31458148 -0.4027877 -0.34224197 -0.520071 -0.44993123 -0.39899933 -0.37755132 -0.2898449
-0.5491612 -0.4985737 -0.47082585 -0.33138773 -0.30860788 -0.68490297 -0.37237608 -0.3326172
-0.3612471 -0.75787544 -0.460794 -0.484728 -0.25860292 -0.14687966 -0.3438572 -0.29157218
-0.35707125 -0.4006711 -0.39347613 -0.18873718 -0.2923561 -0.8191274 -0.44277343 -0.30878633
-0.33246997 -0.4230361 -0.25373864 -0.5266207 -0.38364902 -0.31335142 -0.19708902 -0.15042397
-0.51042104 -0.5523741 -0.2917633 -0.4605192 -0.6045884 -0.50173664 -0.40575835 -0.5010895
-0.584874 -0.20673192 -0.12086282 -0.3822434 -0.29720867 -0.2983613 -0.7046385 -0.2785606
-0.54960775 -0.25908214 -0.53056204 -0.3922395 -0.5635013 -0.29491457 -0.530024 -0.5373826
-0.18942817 -0.19056077 -0.43112674 -0.5522061 -0.43216547 -0.34033793 -0.13771233 -0.2544944
-0.44925043 -0.2326467 -0.54657775 -0.44897458 -0.37624162 -0.30595452 -0.56111467 -0.24053812
-0.544623 -0.4144501 -0.6120253 -0.34173873 -0.49095097 -0.33871213 -0.40266138 -0.44239852
-0.34977344 -0.5992516 -0.23133886 -0.2289617 -0.3180999 -0.2535572 -0.4463093 -0.43646562
-0.34710953 -0.39180994 -0.47056064 -0.30548623 -0.43056288 -0.4252136 -0.5270414 -0.22097072
-0.24307212 -0.30404204 -0.1408899 -0.32362625 -0.25885212 -0.3369002 -0.6088602 -0.36600953
-0.45473412 -0.29640135 -0.40620235 -0.38406533 -0.57406443 -0.31100175 -0.30995834 -0.39044353
-0.19524658 -0.24118784 -0.35203353 -0.3519627 -0.24310878 -0.5463685 -0.33987 -0.267006
-0.5739027 -0.26586938 -0.27208444 -0.5709659 -0.3383198 -0.23261239 -0.35583296 -0.30493936
-0.41301948 -0.27664912 -0.48490217 -0.5815107 -0.50073206 -0.32987788 -0.31439227 -0.339197
-0.87695533 -0.47394356 -0.22314253 -0.31471938 -0.22728632 -0.54388994 -0.456374 -0.40719876
-0.15676592 -0.2852671 -0.38534868 -0.20951167 -0.42543015 -0.31998858 -0.17263491 -0.56965464
-0.38082102 -0.22760987 -0.23643826 -0.5471683 -0.35290205 -0.33166352 -0.61939937 -0.29400277
-0.2248697 -0.30152842 -0.3222114 -0.40019518 -0.5309271 -0.37712765 -0.43511152 -0.41760632
-0.5045017 -0.59676456 -0.20676538 -0.2692989 -0.4301265 -0.33445734 -0.4987709 -0.34485087
-0.6125585 -0.16685702 -0.5893554 -0.60404694 -0.3385306 -0.30364814 -0.38469437 -0.2959047
00000000: ddc9 1abf 8f72 5ebf 08e9 b1be 5790 f1be
00000010: dab1 bcbe 4b51 8abe 2cb0 cebe abf4 05bf
00000020: 412c bebe d3ee 7ebe 3d4f 73be c26f d4be
00000030: f256 bdbe 26f8 0abf bb52 a9be d78c adbe
00000040: 8dd2 a5be 2339 e9bd 28ee d1be 6375 fcbe
00000050: aff8 efbe 167c c3be 22a4 b2be d5a0 84be
00000060: 5d6e b7be c82d 91be 819a a3be 2fb7 86be
00000070: 8ce8 09be b702 07bf 5b0a 16be 1cb7 b8be
00000080: 09aa 9fbe 89da f2be da71 6bbf 8a35 eabe
00000090: e521 f5be 7477 e1be 8193 00bf 2de0 4abe
000000a0: 31af 69be 3f1d 96be 4e59 d6be 3b51 b1be
000000b0: 29f2 ebbe 0a57 9abe 0553 a9be 111e cebe
000000c0: f81d bebe 2e43 09bf 8530 71be 38f5 61be
000000d0: 30bb 9fbe 3671 0fbf b418 f6be a12e eabe
000000e0: 17f6 cabe f354 9dbe a760 c7be f145 70be
000000f0: 3645 c8be ec3f a6be c1ac a9be c5dc 9ebe
00000100: d310 a1be 303a cebe 573a afbe 6023 05bf
00000110: 635d e6be a449 ccbe 684e c1be 8d66 94be
00000120: d495 0cbf 0d45 ffbe 1610 f1be a7ab a9be
00000130: da01 9ebe cd55 2fbf 14a8 bebe cd4c aabe
00000140: 61f5 b8be 2004 42bf 31ed ebbe 452e f8be
00000150: 9a67 84be 9f67 16be 0d0e b0be f348 95be
00000160: 0bd2 b6be c324 cdbe b475 c9be 5244 41be
00000170: b3af 95be 55b2 51bf 33b3 e2be 3e19 9ebe
00000180: 8139 aabe 3098 d8be 08ea 81be 9dd0 06bf
00000190: a56d c4be 996f a0be b4d1 49be be08 1abe
000001a0: f4aa 02bf 6468 0dbf 0062 95be 2cc9 ebbe
000001b0: 4ec6 1abf d071 00bf 8fbf cfbe 6747 00bf
000001c0: 4dba 15bf 88b1 53be ed86 f7bd 68b5 c3be
000001d0: bc2b 98be d0c2 98be 3063 34bf 7f9f 8ebe
000001e0: 18b3 0cbf 6aa6 84be ead2 07bf 9ed3 c8be
000001f0: 9f41 10bf 0bff 96be a7af 07bf e891 09bf
00000200: 75f9 41be 5d22 43be a5bc dcbe 615d 0dbf
00000210: cb44 ddbe c640 aebe 7604 0dbe 174d 82be
00000220: 2704 e6be f03a 6ebe 85ec 0bbf ffdf e5be
00000230: bea2 c0be 12a6 9cbe 36a5 0fbf a04f 76be
00000240: 6a6c 0bbf ce32 d4be b1ad 1cbf 61f8 aebe
00000250: ed5d fbbe ad6b adbe a229 cebe 0f82 e2be
00000260: 8115 b3be 8e68 19bf 18e4 6cbe f074 6abe
00000270: fddd a2be 40d2 81be a782 e4be 6c78 dfbe
00000280: 57b8 b1be 509b c8be 53ed f0be b168 9cbe
00000290: bd72 dcbe 99b5 d9be 2fec 06bf 2646 62be
000002a0: e6e7 78be 66ab 9bbe 7145 10be 57b2 a5be
000002b0: 4488 84be 2f7e acbe 43de 1bbf 9a65 bbbe
000002c0: e9d2 e8be ebc1 97be c1f9 cfbe 36a4 c4be
000002d0: e3f5 12bf 9f3b 9fbe dcb2 9ebe 37e8 c7be
000002e0: b8ee 47be f2f9 76be bd3d b4be 7434 b4be
000002f0: 82f1 78be cede 0bbf 7103 aebe 03b5 88be
00000300: 4aeb 12bf 0820 88be a74e 8bbe d22a 12bf
00000310: 4138 adbe f131 6ebe bd2f b6be 0321 9cbe
00000320: 4a77 d3be f4a4 8dbe 1945 f8be e3dd 14bf
00000330: fa2f 00bf c1e5 a8be 06f8 a0be 3bab adbe
00000340: 2580 60bf bba8 f2be 7a7f 64be e622 a1be
00000350: bfbd 68be 5f3c 0bbf daa9 e9be 5b7c d0be
00000360: 3f87 20be 880e 92be 6c4c c5be 3a8a 56be
00000370: fbd1 d9be 8bd5 a3be 35c7 30be e3d4 11bf
00000380: f9fa c2be 9012 69be df1c 72be 3913 0cbf
00000390: 94af b4be cdcf a9be f590 1ebf 8887 96be
000003a0: 3e44 66be ef61 9abe e5f8 a4be 62e6 ccbe
000003b0: d7ea 07bf e016 c1be f0c6 debe 7fd0 d5be
000003c0: 0627 01bf 90c5 18bf 4eba 53be 8ce1 89be
000003d0: 8a39 dcbe fe3d abbe e65e ffbe 4b90 b0be
000003e0: a2d0 1cbf 91dc 2abe ffdf 16bf d2a2 1abf
000003f0: e253 adbe c577 9bbe a9f6 c4be d280 97be
