canonical_models/4to8actor.pt (torch, 552353 bytes, 14 tensors)

trunk.network.0.weight f4 [256, 9]
0.069672324 -0.2667114 0.05877959 0.4928749 -0.057590283 0.34113473 0.26567912 0.2560801
-0.48583668 0.2575334 0.06717348 0.23699273 0.58029616 0.07800262 0.4630534 0.36919156
0.27785832 0.43982783 0.63947135 0.028783461 -0.2900808 -0.14753525 -0.3212266 -0.34246424
0.11709065 0.40439835 0.18165109 -0.15364075 0.061309766 0.20188794 0.75249255 -0.31401917
0.4799245 -0.2541318 0.083710626 0.27813146 0.22706924 -0.013517585 0.021420704 0.42898637
0.17388532 0.42010978 -0.78253406 0.1468262 0.35813156 -0.52464825 -0.20159929 -0.10215303
0.48428681 0.09688463 -0.3496834 0.18639289 -0.21096765 0.24534388 -0.3541339 0.34975433
-0.11839478 0.7807379 -0.24523447 0.2885309 0.27165952 0.24511984 -0.08708038 -0.03967326
-0.31032702 -0.014465891 -0.67608386 0.1654989 0.28838617 0.24121732 0.26087722 0.10970652
-0.11728507 0.11627527 -0.13153395 0.18906634 0.16637023 0.32962143 -0.9415327 -0.23609082
0.4431264 -0.45119876 0.088774 0.042792857 -0.25681064 -0.7691239 -0.38342962 0.19847125
0.37286827 0.013575213 -0.1840756 0.003440101 -0.052093595 0.7868963 -0.7686301 0.30019614
-0.0686001 0.2565226 0.3954534 -0.16191888 0.1549249 -0.00011379676 0.61939913 0.60260457
-0.04518204 0.32694757 0.17848212 0.3972644 -0.10350062 0.20271759 -0.1718527 -0.49349728
0.3539724 -0.18660626 -0.04411908 0.18605988 0.4444671 -0.1642576 -0.21374924 -0.033668887
0.5390603 -0.3691208 0.2612487 0.23924899 -0.3914538 -0.10314797 -0.3862126 0.3100408
-0.20150407 0.15422632 -0.24891849 -0.26789442 -0.072887644 0.14722362 0.32038152 -0.07775912
0.26862076 0.0820289 0.22289805 0.37956956 0.29368487 0.15979506 0.46769688 0.084592104
-0.28510535 -0.3112582 -0.114895746 0.04597321 0.44447613 -0.2637394 0.20908248 -0.10882893
-0.07600213 -0.28409046 -0.23955597 -0.045036264 0.4188354 0.45894286 0.5096069 0.5064716
0.5078076 0.25989595 0.051269904 -0.2153396 -0.077740446 0.48266646 0.98702717 0.14576404
-0.0418815 0.10808258 0.22123407 -0.27582118 0.10094668 -0.062677436 -0.2024318 0.4305452
0.4262802 0.46458268 0.018295929 0.2907394 0.15347023 -0.18015386 -0.0030573215 0.27095652
-0.68306345 0.28993088 -0.17533529 0.26316646 -0.3204539 -0.34674117 -0.14591263 -0.10892024
-0.40477958 0.7333486 0.20095278 0.26664743 0.103216894 -0.07182337 -0.53899604 -0.29767781
-0.07443305 0.04447304 0.24017791 0.43526918 0.38301814 0.40377125 0.5930835 -0.121372
-0.2828445 -0.062638745 0.34236625 -0.060021363 -0.3808482 -0.48789755 0.22078054 0.20742215
0.16157115 0.026950788 -0.16473858 -0.17382395 0.63267547 0.23471181 0.029765496 0.32701057
0.3189149 -0.288626 0.21453261 -0.035985816 -0.382821 0.7962911 0.00043623813 0.27897036
0.365422 0.16383126 -0.54117846 0.16283092 -0.120005496 0.39266452 0.1545013 0.03499294
0.301072 0.19215852 0.046888947 0.19974165 -0.1320788 -0.11572051 0.8839783 -0.34099543
0.11545007 -0.5730607 0.28050166 -0.010833705 -0.24978617 -0.21756835 0.013399563 -0.3573329
00000000: 5db0 8e3d 668e 88be dec2 703d 195a fc3e
00000010: cae3 6bbd 36a9 ae3e 1807 883e ee1c 833e
00000020: 96bf f8be 6bdb 833e 4092 893d 39ae 723e
00000030: 4a8e 143f d6bf 9f3d 5615 ed3e ad06 bd3e
00000040: 7243 8e3e 1d31 e13e 65b4 233f 4bcb eb3c
00000050: 7885 94be 7b13 17be d077 a4be 7957 afbe
00000060: 39cd ef3d 4d0d cf3e be02 3a3e 0054 1dbe
00000070: f31f 7b3d b6bb 4e3e 5aa3 403f 1fc7 a0be
00000080: aab8 f53e 901d 82be 7a70 ab3d 3f67 8e3e
00000090: d784 683e dc78 5dbc 797a af3c 1aa4 db3e
000000a0: fe0e 323e a118 d73e 2754 48bf 9b59 163e
000000b0: 055d b73e 594f 06bf 0b70 4ebe 9c35 d1bd
000000c0: 71f4 f73e 736b c63d b409 b3be c7dd 3e3e
000000d0: e707 58be 6d3b 7b3e 0a51 b5be 0013 b33e
000000e0: f678 f2bd 70de 473f bf1e 7bbe 52ba 933e
000000f0: f516 8b3e b200 7b3e 3357 b2bd 6e80 22bd
00000100: 2fe3 9ebe 5802 6dbc d513 2dbf 8b78 293e
00000110: 5aa7 933e ac01 773e b391 853e d0ad e03d
00000120: 2833 f0bd bb21 ee3d d6b0 06be 9b9a 413e
00000130: f55c 2a3e 24c4 a83e 4908 71bf cbc1 71be
00000140: 77e1 e23e 8603 e7be 25cf b53d 9047 2f3d
00000150: af7c 83be 4ee5 44bf e350 c4be 0c3c 4b3e
00000160: 97e8 be3e 926a 5e3c 507e 3cbe 5173 613b
00000170: 1860 55bd 0972 493f f1c4 44bf 4fb3 993e
00000180: 367e 8cbd ee56 833e de78 ca3e 10ce 25be
00000190: a2a4 1e3e 2ca6 eeb8 f190 1e3f 4b44 1a3f
000001a0: ce10 39bd ac65 a73e 04c4 363e 3d66 cb3e
000001b0: 22f8 d3bd 3395 4f3e 27fa 2fbe adab fcbe
000001c0: df3b b53e b615 3fbe 35b6 34bd 7b86 3e3e
000001d0: 3191 e33e 2533 28be 15e1 5abe 63e8 09bd
000001e0: dbff 093f 67fd bcbe 64c2 853e b0fd 743e
000001f0: a26c c8be 3e3f d3bd a8bd c5be abbd 9e3e
00000200: 1557 4ebe 81ed 1d3e 7de4 7ebe 7529 89be
00000210: 1e46 95bd cac1 163e 0c09 a43e 2c40 9fbd
00000220: a988 893e c5fe a73d 633f 643e f156 c23e
00000230: dd5d 963e 51a1 233e f775 ef3e a03e ad3d
00000240: 54f9 91be 3c5d 9fbe 764e ebbd 684e 3c3d
00000250: 6092 e33e da08 87be b819 563e b4e1 debd
00000260: 01a7 9bbd 4e74 91be 294e 75be f277 38bd
00000270: 9871 d63e 8ffa ea3e 9975 023f 1fa8 013f
00000280: aeff 013f 1511 853e 6400 523d fc81 5cbe
00000290: 6236 9fbd 0f20 f73e d0ad 7c3f 2b43 153e
000002a0: f08b 2bbd 665a dd3d 2f8b 623e 6f38 8dbe
000002b0: 22bd ce3d 075d 80bd 484a 4fbe 6c70 dc3e
000002c0: 6641 da3e c8dd ed3e 58e1 953c cbdb 943e
000002d0: 4d27 1d3e 417a 38be 585d 48bb d0ba 8a3e
000002e0: 3fdd 2ebf d271 943e 188b 33be c1bd 863e
000002f0: 8912 a4be 0f88 b1be 1f6a 15be 9311 dfbd
00000300: 453f cfbe bcbc 3b3f 91c6 4d3e 0386 883e
00000310: 6163 d33d 2218 93bd a5fb 09bf 3a69 98be
00000320: 5b70 98bd 5d29 363d 33f1 753e 9adb de3e
00000330: f41a c43e 1bbb ce3e 52d4 173f e291 f8bd
00000340: ffd0 90be be48 80bd a14a af3e f6d8 75bd
00000350: 89fe c2be b5cd f9be 4b14 623e 7966 543e
00000360: e872 253e e6c7 dc3c 3bb1 28be e8fe 31be
00000370: 05f7 213f 4b58 703e c5d6 f33c ee6d a73e
00000380: d048 a33e c9c6 93be 70ae 5b3e dd65 13bd
00000390: 1d01 c4be bcd9 4b3f e4b6 e439 34d5 8e3e
000003a0: 9818 bb3e 62c3 273e ac8a 0abf 26bd 263e
000003b0: 71c5 f5bd 530b c93e 9735 1e3e c254 0f3d
000003c0: 1c26 9a3e 34c5 443e a00e 403d 1389 4c3e
000003d0: aa3f 07be e0fe ecbd 674c 623f f496 aebe
000003e0: 1671 ec3d 1bb4 12bf ea9d 8f3e da7f 31bc
000003f0: f2c7 7fbe 3dca 5ebe d789 5b3c 56f4 b6be

trunk.network.0.bias f4 [256]
-0.048616815 -0.037031084 0.100007534 0.071866184 0.44533896 0.25081244 0.19741009 -0.0110631455
0.07301598 0.3684246 -0.22952412 0.45465848 0.28429967 -0.15880218 0.088967405 0.15100418
0.21350588 0.5335684 0.17259848 -0.19721597 0.35514125 0.21277295 0.5218787 0.16288708
-0.30924007 0.5221099 0.117088445 0.24489048 0.5025814 -0.13739108 0.3057474 0.53214365
0.048972774 0.14593741 0.32059205 0.40439484 0.019842094 0.66588056 -0.29444298 -0.02311256
-0.065374844 0.2841815 0.10784197 0.36319804 0.53159463 0.026926145 -0.01597797 0.20767643
0.07156698 0.19678207 0.1786946 0.28097224 0.10731699 -0.41418135 0.071282096 0.1348511
-0.22113527 0.4837163 0.39878717 0.07463931 0.36794007 0.29798374 -0.07191405 0.3470101
0.44968504 0.52147025 -0.057391733 0.48066413 -0.21736667 0.2479475 -0.13820593 0.39273992
-0.11045079 0.60412455 0.49531576 0.6178414 0.31311092 -0.10978628 -0.18394382 -0.23988298
0.48886132 -0.14195484 0.46064755 -0.039656345 0.4444195 -0.025309727 0.23645014 0.5642577
0.636023 0.2819566 -0.095972694 0.6216053 0.119599424 0.35132214 0.20836872 -0.2850048
0.41568503 0.32085818 0.25388542 0.26738718 0.28465664 0.53557867 0.2808717 -0.2666817
0.65917563 0.4097616 0.11623754 0.123733886 0.48095235 0.041873552 0.49214974 -0.07845546
0.11626082 0.028841611 -0.16979241 0.35216817 0.23953922 0.17704828 0.42497405 0.45572332
0.081930324 0.09372925 -0.19842407 0.18130699 -0.21941511 -0.22314489 0.0035485984 -0.13393828
0.13415761 0.35496938 -0.34400898 -0.08346832 -0.16137624 0.40061256 -0.2500081 0.042988267
0.106048584 0.38457078 0.36128762 0.62233585 0.04034912 0.22241254 -0.20673893 0.028502682
-0.18766813 0.24516562 0.28053275 -0.14288239 0.23571569 0.47441962 0.05807174 0.39031702
-0.22306494 -0.28276432 0.22526245 -0.25571802 0.546585 0.35406795 0.24961348 -0.39919305
0.32011303 0.2946765 -0.19664186 0.11266587 -0.12677324 -0.14464058 -0.101567365 0.061764248
0.012657061 -0.20486298 -0.0890679 0.2842778 0.28059205 0.14812423 0.11673955 0.5767971
0.5917511 0.28052926 -0.25507376 -0.26342165 0.13739789 -0.16030957 0.0778869 0.32554376
0.1861064 0.18551151 0.21621974 0.6287623 0.22761898 -0.061391972 0.4027514 -0.05716316
0.37845895 0.19246337 -0.049061935 -0.21587427 -0.15814437 -0.14183716 -0.12348422 0.10157614
0.4602046 -0.30386946 0.024725053 0.35828903 0.08736351 0.006340014 0.29257822 0.37558088
-0.23456042 0.09140118 -0.15792769 -0.2748721 -0.3055425 0.36164728 0.53918195 0.029220114
-0.10047399 0.24945049 -0.08859598 0.06138471 -0.17935818 0.23818178 0.45863777 0.2306287
-0.20398392 0.30579445 0.121290624 0.2981168 -0.1137264 0.3660877 -0.23632777 0.47882742
-0.04174793 0.13917992 -0.0924712 -0.018224005 0.19893056 0.51420486 -0.17794102 0.46031788
-0.3278535 0.27628744 0.41436225 -0.07507581 0.17485903 -0.014292585 0.34129828 -0.08835506
0.16412656 0.26566634 0.20983888 0.04771781 -0.1501333 0.1024689 -0.041055676 0.51285803
00000000: 6d22 47bd e8ad 17bd c0d0 cc3d 942e 933d
00000010: 7803 e43e 7d6a 803e df25 4a3e 3242 35bc
00000020: 6789 953d 26a2 bc3e 5f08 6bbe ffc8 e83e
00000030: ba8f 913e 0a9d 22be 8b34 b63d d7a0 1a3e
00000040: 49a1 5a3e f097 083f a8bd 303e fcf2 49be
00000050: 13d5 b53e 27e1 593e d899 053f dfcb 263e
00000060: b754 9ebe ffa8 053f 11cc ef3d 92c4 7a3e
00000070: 2da9 003f 3fb0 0cbe ec8a 9c3e 913a 083f
00000080: ad97 483d 9e70 153e a424 a43e d70c cf3e
00000090: e38b a23c 2677 2a3f 3bc1 96be 8d56 bdbc
000000a0: 3fe3 85bd 3d80 913e 40dc dc3d 18f5 b93e
000000b0: 9616 083f 3894 dc3c 3be4 82bc 21a9 543e
000000c0: b591 923d 3d81 493e b8fb 363e 98db 8f3e
000000d0: 03c9 db3d 940f d4be 59fc 913d 6816 0a3e
000000e0: 4971 62be aaa9 f73e d52d cc3e 7fdc 983d
000000f0: a462 bc3e 5391 983e ac47 93bd 4fab b13e
00000100: 1e3d e63e 137f 053f 9813 6bbd 9c19 f63e
00000110: 5e95 5ebe f3e5 7d3e db85 0dbe 3515 c93e
00000120: 0634 e2bd e8a7 1a3f 079a fd3e db2a 1e3f
00000130: 1350 a03e a1d7 e0bd c55b 3cbe e2a3 75be
00000140: 084c fa3e 9c5c 11be ffd9 eb3e b16e 22bd
00000150: f48a e33e 5856 cfbc fc1f 723e 3173 103f
00000160: 67d2 223f 9e5c 903e 558d c4bd 8621 1f3f
00000170: 8bf0 f43d 7fe0 b33e 9c5e 553e 26ec 91be
00000180: abd4 d43e 8647 a43e 45fd 813e f9e6 883e
00000190: 84be 913e af1b 093f 6ace 8f3e 818a 88be
000001a0: bcbf 283f 46cc d13e f30d ee3d 3168 fd3d
000001b0: 633f f63e 9a83 2b3d 0dfb fb3e 42ad a0bd
000001c0: 271a ee3d 3e45 ec3c 10de 2dbe 634f b43e
000001d0: c549 753e 254c 353e 3396 d93e 9154 e93e
000001e0: 16cb a73d 1ff5 bf3d ae2f 4bbe 8aa8 393e
000001f0: 5bae 60be 1880 64be 9a8f 683b 1e27 09be
00000200: 9d60 093e 8cbe b53e f221 b0be 70f1 aabd
00000210: d03f 25be 171d cd3e 1001 80be 7714 303d
00000220: 0030 d93d 76e6 c43e b1fa b83e 6751 1f3f
00000230: 1e45 253d 1dc0 633e 5fb3 53be 757e e93c
00000240: 132c 40be b20c 7b3e fda1 8f3e c34f 12be
00000250: 745f 713e 21e7 f23e a2dc 6d3d a2d7 c73e
00000260: 236b 64be 7cc6 90be 33ab 663e 79ed 82be
00000270: ffec 0b3f 6548 b53e ad9a 7f3e 0863 ccbe
00000280: dbe5 a33e d7df 963e 7c5c 49be 5dbd e63d
00000290: d8d0 01be a91c 14be 8d02 d0bd 82fc 7c3d
000002a0: 905f 4f3c 9ac7 51be 3b69 b6bd dc8c 913e
000002b0: c3a9 8f3e e1ad 173e 2515 ef3d faa8 133f
000002c0: 007d 173f 88a1 8f3e 0799 82be 34df 86be
000002d0: 08b2 0c3e 3128 24be 2b83 9f3d acad a63e
000002e0: ad92 3e3e bbf6 3d3e b568 5d3e 91f6 203f
000002f0: f314 693e 2676 7bbd 6e35 ce3e eb23 6abd
00000300: 5fc5 c13e 1e15 453e 2bf5 48bd 250e 5dbe
00000310: 99f0 21be c33d 11be 4be5 fcbd 2707 d03d
00000320: f09f eb3e c794 9bbe 328c ca3c a971 b73e
00000330: a4eb b23d e4bf cf3b d0cc 953e 234c c03e
00000340: 9b30 70be 8b30 bb3d ccb7 21be 09bc 8cbe
00000350: 1170 9cbe d529 b93e d407 0a3f 055f ef3c
00000360: 4fc5 cdbd f36f 7f3e cf71 b5bd 896e 7b3d
00000370: aca9 37be ede5 733e 92d2 ea3e ee29 6c3e
00000380: 29e1 50be 1791 9c3e 3867 f83d c4a2 983e
00000390: 63e9 e8bd d96f bb3e e8ff 71be de28 f53e
000003a0: e1ff 2abd 2e85 0e3e 8a61 bdbd 824a 95bc
000003b0: 74b4 4b3e eea2 033f 2c36 36be c9ae eb3e
000003c0: 6adc a7be 8c75 8d3e 4a27 d43e 59c1 99bd
000003d0: 3f0e 333e 722b 6abc a6be ae3e 7ff3 b4bd
000003e0: cb10 283e 6b05 883e 01e0 563e c073 433d
000003f0: 8bbc 19be 37db d13d ff29 28bd aa4a 033f

trunk.network.1.weight f4 [256]
1.2868034 1.6165489 1.9963226 1.9592036 1.7670561 1.0903748 1.4710273 0.85474914
1.9135115 1.6638365 1.2920127 0.93730605 1.4201623 1.2492589 1.4328542 1.3905833
1.2738999 0.19956376 0.6796107 0.9304147 1.2597164 0.56098634 0.21272708 1.4033413
1.2654765 1.1210147 1.1235455 1.9202036 1.2581693 0.87662673 1.6149685 0.6984458
1.4765514 1.6441659 1.6658024 1.0393414 2.7802057 1.0533103 0.75918305 0.64975935
1.8809927 1.4506795 1.6726317 0.57558954 1.0046521 1.166112 0.44220737 0.8406198
1.1152805 1.8531141 1.8625493 0.35513625 1.262495 0.95550114 0.98001677 0.83591527
1.2862669 0.20353103 1.1563214 0.98104775 0.6897077 1.7422565 1.044308 0.84581083
0.7001902 0.34962437 1.3917396 1.3280114 1.6503837 2.179574 0.7994441 1.1390669
1.8013369 1.4296815 1.8394798 1.3582582 0.7767923 2.1198378 1.2789097 1.0787799
1.2058756 1.2176338 0.71528023 2.1188304 1.1031375 1.5206296 0.69303554 1.0814421
0.2986436 1.9376036 1.1231767 0.6185096 0.5536094 1.944767 0.8011867 0.96554625
0.50767875 0.62310946 0.6153481 1.1654309 2.159277 0.6364919 1.6305227 0.8590582
0.87721395 0.34210896 1.4630888 0.7769533 0.39569256 0.41794303 1.5099328 1.7283037
0.83163655 1.2929918 1.1958734 2.5202234 0.34289825 1.27584 1.8570212 0.30735487
1.2478758 1.0789144 1.320514 1.3364644 1.075968 1.3156679 1.6523932 0.6700779
2.5020454 0.78692627 1.3474959 0.7179517 1.9875801 1.257018 1.1367582 0.9075101
0.8675788 1.4420791 0.5657336 1.0392232 1.2195503 1.3296939 0.83157784 1.435996
1.3233742 1.2046665 1.6353667 1.950568 0.74889964 0.30632663 0.40109098 1.3234793
2.0848322 1.3659239 1.5866033 0.8755564 1.164377 0.44091728 1.2100973 1.2131639
1.538982 0.9495673 0.5984928 1.1539979 1.3958149 1.5895505 1.3672599 1.1076486
1.3957285 1.6202271 1.7504305 0.9937051 2.0384738 1.9364778 1.7275623 0.9162178
0.8530867 1.8130602 0.8501944 0.8916528 2.307106 1.7179089 1.734711 0.95925456
1.0867693 0.7521554 0.6731994 0.6186035 0.80089444 0.9896578 1.0120802 1.7997841
1.9360768 1.4311694 0.89223653 0.8663048 1.2801273 1.1034138 0.92730665 1.0561539
0.96806055 1.5513848 0.5932629 0.8555646 1.0362922 1.1446397 0.6486703 1.0599775
1.9160868 2.0866818 1.0518067 1.1862621 1.6238512 0.7384347 1.6062146 1.3092681
1.5501988 1.1506338 1.3329874 1.6198298 0.8493072 0.6306564 0.88773674 1.4689101
1.4780236 1.298965 0.949898 1.230655 0.75189185 0.9480589 1.3086934 0.6567034
1.1638639 1.7416614 1.1630883 1.4172282 1.0582035 0.87334263 1.6071576 1.0514445
0.6413946 2.0303817 0.39511183 1.409416 1.4617674 1.3020105 0.5063976 0.9608642
1.6165451 1.1164871 0.6815022 1.3352157 1.1356574 1.2136288 1.346348 0.9013961
00000000: f9b5 a43f 13eb ce3f 8087 ff3f 2fc7 fa3f
00000010: e52e e23f 6791 8b3f 9f4a bc3f d7d0 5a3f
00000020: f2ed f43f 98f8 d43f ac60 a53f 4af3 6f3f
00000030: e1c7 b53f b7e7 9f3f c467 b73f a2fe b13f
00000040: 270f a33f 715a 4c3e f8fa 2d3f a82f 6e3f
00000050: 633e a13f cd9c 0f3f 21d5 593e b0a0 b33f
00000060: 22fb a13f 697d 8f3f 57d0 8f3f 3bc9 f53f
00000070: b10b a13f 9c6a 603f 4ab7 ce3f 58cd 323f
00000080: a3ff bc3f 0774 d23f 0339 d53f 2409 853f
00000090: e4ee 3140 dfd2 863f d259 423f a156 263f
000000a0: 5ec4 f03f deaf b93f cc18 d63f d659 133f
000000b0: 7198 803f 2843 953f 0169 e23e dc32 573f
000000c0: 83c1 8e3f d832 ed3f 0468 ee3f 6bd4 b53e
000000d0: 7099 a13f b99b 743f 61e2 7a3f 8bfe 553f
000000e0: 65a4 a43f 706a 503e 5702 943f f225 7b3f
000000f0: af90 303f 4302 df3f e2ab 853f 0f87 583f
00000100: aa3f 333f f701 b33e 8624 b23f 47fc a93f
00000110: c63f d33f 247e 0b40 5ea8 4c3f f2cc 913f
00000120: 3592 e63f ceff b63f 1374 eb3f 68db ad3f
00000130: dcdb 463f 6cab 0740 50b3 a33f 7615 8a3f
00000140: 225a 9a3f 6ddb 9b3f 9b1c 373f eb9a 0740
00000150: 9c33 8d3f fea3 c23f c76a 313f b26c 8a3f
00000160: d0e7 983e 6503 f83f 41c4 8f3f a556 1e3f
00000170: 58b9 0d3f 20ee f83f 921a 4d3f 0a2e 773f
00000180: 3cf7 013f 1a84 1f3f 7487 1d3f d72c 953f
00000190: 9831 0a40 22f1 223f f8b4 d03f 3deb 5b3f
000001a0: 1891 603f e828 af3e 7e46 bb3f 69e6 463f
000001b0: 3798 ca3e a1fc d53e 7a45 c13f 0e39 dd3f
000001c0: 22e6 543f c180 a53f 6112 993f 574b 2140
000001d0: 5c90 af3e ba4e a33f dfb2 ed3f 9e5d 9d3e
000001e0: 65ba 9f3f de19 8a3f 9a06 a93f 4411 ab3f
000001f0: 52b9 893f ce67 a83f 9f81 d33f 3a8a 2b3f
00000200: 8321 2040 0074 493f bf7a ac3f afcb 373f
00000210: 0669 fe3f f7e5 a03f 4b81 913f 9552 683f
00000220: a519 5e3f 0c96 b83f ebd3 103f 4405 853f
00000230: 391a 9c3f 6933 aa3f 49e2 543f b8ce b73f
00000240: 5364 a93f 8332 9a3f b253 d13f 36ac f93f
00000250: e3b7 3f3f d8d6 9c3e cc5b cd3e c567 a93f
00000260: e46d 0540 98d6 ae3f d115 cb3f 7724 603f
00000270: 4e0a 953f e9bf e13e 78e4 9a3f f448 9b3f
00000280: 5dfd c43f d816 733f d336 193f 34b6 933f
00000290: 10aa b23f 6476 cb3f 5f02 af3f 6ec7 8d3f
000002a0: 3ba7 b23f 9a63 cf3f 1b0e e03f 7563 7e3f
000002b0: 5b76 0240 81de f73f c320 dd3f 408d 6a3f
000002c0: e463 5a3f 5b12 e83f 57a6 593f 5c43 643f
000002d0: a0a7 1340 70e4 db3f 030b de3f b591 753f
000002e0: 421b 8b3f 428d 403f cc56 2c3f cd5c 1e3f
000002f0: 6b07 4d3f 375a 7d3f d88b 813f 535f e63f
00000300: 5dd1 f73f 8f30 b73f 9d69 643f 27c6 5d3f
00000310: 36db a33f aa3c 8d3f f863 6d3f 0d30 873f
00000320: d1d2 773f c793 c63f 14e0 173f 4806 5b3f
00000330: 39a5 843f 8e83 923f 420f 263f 58ad 873f
00000340: 5542 f53f 328c 0540 9aa1 863f 70d7 973f
00000350: 5bda cf3f 0e0a 3d3f 7198 cd3f 1996 a73f
00000360: ea6c c63f f847 933f 559f aa3f 9556 cf3f
00000370: 326c 593f b372 213f b742 633f 3f05 bc3f
00000380: e12f bd3f 7c44 a63f 842c 733f 1a86 9d3f
00000390: fc7b 403f fdb3 723f 4483 a73f b71d 283f
000003a0: 7ef9 943f c3ee de3f 14e0 943f bc67 b53f
000003b0: 3673 873f 6293 5f3f 57b7 cd3f bc95 863f
000003c0: 7032 243f c6f1 0140 194c ca3e be67 b43f
000003d0: 321b bb3f 48a8 a63f 46a3 013f 32fb 753f
000003e0: f3ea ce3f 0de9 8e3f ee76 2e3f 59e8 aa3f
000003f0: 395d 913f 3058 9b3f 2255 ac3f e5c1 663f

trunk.network.1.bias f4 [256]
-0.1929516 -0.028329218 0.015239267 0.022545524 -0.15688433 -0.50472254 -0.27362695 -0.31963634
-0.10135127 -0.14712055 -0.188524 -0.34468338 -0.16361919 -0.16228743 -0.25040147 -0.081619054
-0.30123517 -0.7844339 -0.49572515 -0.33838475 -0.33289 -0.68962115 -0.84199935 -0.1686355
-0.329855 -0.34683213 -0.22103871 0.027817687 -0.36909932 -0.38708076 -0.15383516 -0.51110345
-0.1741757 -0.07599753 -0.10198627 -0.40483406 0.15457731 -0.21452245 -0.46852317 -0.5054847
-0.021839904 -0.1852312 -0.11180261 -0.6261059 -0.50316477 -0.20817378 -0.7077177 -0.38845167
-0.36683458 -0.12075499 -0.080052786 -0.7119084 -0.25105873 -0.30704814 -0.31791073 -0.52078515
-0.3144116 -0.8020777 -0.18597314 -0.2844929 -0.5678965 -0.08422685 -0.352662 -0.45763716
-0.42627752 -0.7476666 -0.146541 -0.25353566 -0.17088038 0.07021366 -0.64011717 -0.2984617
-0.01900689 -0.3737965 -0.0278425 -0.22853293 -0.43797013 0.041328244 -0.14060916 -0.26332116
-0.24356921 -0.17439653 -0.46676445 0.0008250924 -0.34918153 -0.14374153 -0.62629783 -0.34019208
-0.75353783 -0.06902563 -0.25625548 -0.48834884 -0.51097625 0.040684007 -0.46136358 -0.31606618
-0.5806571 -0.51859206 -0.60646397 -0.13603029 0.049449097 -0.5483365 0.039376747 -0.4000176
-0.43262917 -0.7446016 -0.13789736 -0.58758754 -0.64907265 -0.6422185 -0.15003785 -0.117018156
-0.5387838 -0.12921458 -0.33695504 0.019233787 -0.66797173 -0.17989445 -0.066437 -0.76746553
-0.32958385 -0.35321358 -0.17912655 -0.20447637 -0.32744712 -0.32200244 -0.104013205 -0.51829493
0.17607169 -0.5316262 -0.21052681 -0.47410402 -0.023229977 -0.25305375 -0.45334136 -0.2704797
-0.37804055 -0.2301001 -0.6468069 -0.024201058 -0.24628748 -0.26124546 -0.3622222 -0.1996763
-0.21435632 -0.24148458 0.013053935 -0.2418631 -0.5381865 -0.74783635 -0.76601315 -0.14737608
-0.05487063 -0.20411846 -0.1577972 -0.49075735 -0.2652193 -0.63219845 -0.17673357 -0.34768543
-0.10765481 -0.44167525 -0.5137594 -0.21518663 -0.14912403 -0.02675886 -0.14985232 -0.43509412
-0.3144066 -0.052659784 0.049152322 -0.3334637 -0.054147143 0.025334185 -0.21074985 -0.32666662
-0.35949913 -0.08066207 -0.44094783 -0.460749 0.21196331 -0.20803374 -0.19805312 -0.35948935
-0.27167198 -0.4520317 -0.5161106 -0.49487665 -0.3883592 -0.4860047 -0.23431854 -0.06427321
-0.01771299 -0.101891235 -0.39163882 -0.46641976 -0.23851581 -0.16557972 -0.39257082 -0.28698757
-0.29276004 -0.1663515 -0.45927843 -0.5411501 -0.30862328 -0.40006247 -0.5267927 -0.4600683
0.010551013 -0.016272217 -0.29840344 -0.23447987 -0.15251777 -0.4315608 -0.13433276 -0.23912778
0.031105533 -0.27026942 -0.35383314 -0.12656163 -0.34258467 -0.50049084 -0.44972798 -0.07125329
-0.25460857 -0.277808 -0.40807903 -0.16190813 -0.38868645 -0.21577096 -0.23460679 -0.61069846
-0.21187872 -0.15045996 -0.21463814 -0.26162973 -0.3718253 -0.2985418 -0.060539514 -0.38626838
-0.5164484 0.13681617 -0.7614044 -0.30903304 -0.34123927 -0.28943726 -0.62613595 -0.26830807
0.10793764 -0.44371575 -0.46907973 -0.15130538 -0.2870763 -0.3909669 -0.27391434 -0.36974177
00000000: 1b95 45be ad12 e8bc 1eae 793c 64b1 b83c
00000010: 49a6 20be 7f35 01bf d518 8cbe 60a7 a3be
00000020: 4191 cfbd c5a6 16be 6f0c 41be 577a b0be
00000030: ca8b 27be ad2e 26be 9f34 80be e427 a7bd
00000040: 7f3b 9abe a9d0 48bf b0cf fdbe c440 adbe
00000050: 8f70 aabe 038b 30bf 458d 57bf c9ae 2cbe
00000060: c1e2 a8be fb93 b1be f957 62be ebe1 e33c
00000070: 96fa bcbe 732f c6be f786 1dbe add7 02bf
00000080: 1d5b 32be 98a4 9bbd 2dde d0bd 6946 cfbe
00000090: 8449 1e3e c6ab 5bbe 45e2 efbe 7267 01bf
000000a0: 99e9 b2bc 3fad 3dbe c4f8 e4bd 7a48 20bf
000000b0: 68cf 00bf 822b 55be fd2c 35bf 23e3 c6be
000000c0: bed1 bbbe 644e f7bd b7f2 a3bd a13f 36bf
000000d0: c58a 80be 6a35 9dbe 32c5 a2be 2d52 05bf
000000e0: 8ffa a0be f754 4dbf be6f 3ebe 0ea9 91be
000000f0: aa61 11bf 207f acbd 1d90 b4be 6b4f eabe
00000100: 0c41 dabe 1467 3fbf d80e 16be 6dcf 81be
00000110: 44fb 2ebe 2ecc 8f3d b8de 23bf f9cf 98be
00000120: 56b4 9bbc 4162 bfbe f415 e4bc 8904 6abe
00000130: 9f3d e0be ce47 293d d9fb 0fbe 08d2 86be
00000140: 356a 79be 0195 32be c0fb eebe 034b 583a
00000150: ecc7 b2be fb30 13be 0e55 20bf a82d aebe
00000160: dbe7 40bf 4f5d 8dbd eb33 83be dc08 fabe
00000170: 57cf 02bf 46a4 263d d937 ecbe 6dd3 a1be
00000180: f2a5 14bf 73c2 04bf 3941 1bbf 864b 0bbe
00000190: 238b 4a3d c85f 0cbf 8349 213d 1bcf ccbe
000001a0: 9281 ddbe 369e 3ebf f734 0dbe 236c 16bf
000001b0: a029 26bf 6e68 24bf 86a3 19be 37a7 efbd
000001c0: bced 09bf d450 04be 5f85 acbe 2d90 9d3c
000001d0: 3200 2bbf 4036 38be 1f10 88bd 9f78 44bf
000001e0: 37bf a8be 69d8 b4be f36c 37be 4162 51be
000001f0: 26a7 a7be 81dd a4be e004 d5bd faae 04bf
00000200: 234c 343e a818 08bf 5794 57be c3bd f2be
00000210: cb4c bebc 4390 81be 5c1c e8be 517c 8abe
00000220: 888e c1be 5c9f 6bbe 2395 25bf 4c41 c6bc
00000230: c932 7cbe f7c1 85be 3075 b9be f277 4cbe
00000240: 3980 5bbe bc47 77be 2ce0 553c f6aa 77be
00000250: 97c6 09bf 3472 3fbf 7019 44bf c1e9 16be
00000260: 07c0 60bd 6e04 51be 9795 21be 8c44 fbbe
00000270: d3ca 87be c2d7 21bf a5f9 34be d303 b2be
00000280: 207a dcbd 4223 e2be bc85 03bf e259 5cbe
00000290: f8b3 18be 6635 dbbc e372 19be a8c4 debe
000002a0: e7f9 a0be c9b1 57bd f253 493d c1bb aabe
000002b0: 65c9 5dbd a389 cf3c cfce 57be d940 a7be
000002c0: 4510 b8be 2832 a5bd eac3 e1be 4be7 ebbe
000002d0: e90c 593e cc06 55be 70ce 4abe fd0e b8be
000002e0: 9718 8bbe b370 e7be d31f 04bf 7960 fdbe
000002f0: 04d7 c6be 9cd5 f8be 33f1 6fbe aca1 83bd
00000300: d51a 91bc 5aac d0bd e284 c8be 92ce eebe
00000310: 7d3d 74be bb8d 29be 0bff c8be 09f0 92be
00000320: a5e4 95be 0c58 2abe 8b26 ebbe d088 0abf
00000330: df03 9ebe fdd4 ccbe e3db 06bf 128e ebbe
00000340: 28de 2c3c 504d 85bc 56c8 98be 7e1b 70be
00000350: 9e2d 1cbe 8af5 dcbe 878e 09be eadd 74be
00000360: 08d1 fe3c c160 8abe 9e29 b5be 5f99 01be
00000370: 4267 afbe 2b20 00bf bf42 e6be 3fed 91bd
00000380: 0e5c 82be da3c 8ebe bcef d0be 3fcb 25be
00000390: e901 c7be 10f3 5cbe c33c 70be bc56 1cbf
000003a0: bcf6 58be 2d12 1abe 1aca 5bbe 55f4 85be
000003b0: e35f bebe 79da 98be 48f8 77bd f8c4 c5be
000003c0: f635 04bf 8a19 0c3e 66eb 42bf 9439 9ebe
000003d0: eab6 aebe 1f31 94be 724a 20bf ad5f 89be
000003e0: 690e dd3d b62e e3be 382b f0be ccef 1abe
000003f0: aafb 92be d02c c8be 803e 8cbe cb4e bdbe

trunk.network.3.weight f4 [256, 256]
0.17537306 -0.17570238 -0.1011854 0.04315794 0.115290046 -0.008229798 0.13803758 0.34033364
-0.31434608 0.22948593 0.16332325 0.3884738 -0.19642386 -0.3333898 0.10939184 0.061769776
0.6548248 0.1571178 -0.10111773 0.09754228 0.08114535 -0.014199702 0.3494942 -0.06223208
0.09014979 0.030680465 0.40911657 0.15000847 0.498013 -0.2283038 0.29264218 0.20501085
0.025423853 0.07256133 0.12160197 0.31711802 0.325583 0.26074508 0.028198102 -0.17778152
-0.17863636 0.2530709 0.06879894 0.019573051 -0.12758912 0.00452213 0.46590585 0.19137506
-0.175576 0.40676486 -0.16157688 0.3095845 -0.5443807 0.2685326 0.26612306 0.26066375
0.07438992 0.052020874 -0.1316351 0.033332493 0.44811258 -0.041044377 0.23100954 -0.0033416762
0.28877193 0.13646908 0.25802484 0.36393782 -0.058931466 0.0759003 0.2855901 0.2631806
0.35928056 -0.51069194 0.42010134 -0.12451888 0.40530017 0.47263655 0.17088889 0.38450333
-0.061216645 0.2508768 -0.21494529 0.4150449 -0.124850385 0.3976995 0.1304319 -0.3295872
0.4114466 0.020455604 0.057947174 0.205755 0.54092264 0.15842411 -0.07902901 0.144873
0.1998035 0.11413198 0.11016668 -0.2948161 0.3653941 -0.06739976 -0.03967215 0.047738496
0.3223107 0.3783571 -0.11483799 0.24268012 0.34152564 0.25913557 0.16782887 0.4967325
0.0072562005 -0.21974497 -0.08880075 0.29504454 0.2621767 0.17765918 0.2695314 -0.0650368
-0.15764166 0.10011339 0.029631857 0.24380359 0.4484839 0.15821828 0.070511594 0.30160537
0.91786677 -0.18767996 0.40912396 0.4124861 0.2176118 0.16399297 0.26104525 0.21494094
-0.0825728 0.2406264 0.31820455 0.34691152 0.3028742 0.34867516 0.03545417 0.74789935
0.31992435 -0.0600604 -0.10533152 0.09512916 0.01583029 0.19755165 -0.02248936 0.18152799
0.2872958 -0.28814733 0.00064880383 0.20499884 0.57348096 0.0454964 0.102065526 0.38161975
0.067069836 -0.039427634 0.25574464 0.30898377 0.020822862 0.30144703 -0.20677002 0.47829735
0.5591558 -0.19370088 -0.38089326 0.14341043 0.13849615 0.3403324 0.65419275 0.13054527
0.3455285 0.1961887 0.22359563 0.32408407 -0.30782422 0.66322577 0.31533098 0.27934268
0.262602 0.047408205 0.22088742 0.3520731 0.5165851 0.17296626 0.430481 0.30704728
-0.25365674 -0.12152546 0.30345422 0.059271254 -0.025758222 0.18191317 0.57700276 0.31265423
0.2475906 0.12895085 0.21738966 -0.10834092 -0.014174183 0.47965378 0.28816086 0.25834486
-0.19312225 -0.55454427 0.056621116 0.5493049 0.111197226 0.26255444 0.15344876 -0.38422278
0.036396515 0.003628859 0.31575885 -0.25326717 0.12726513 0.36499116 0.35493737 0.4065297
0.24747147 0.14533116 0.15550457 0.22649127 0.20956875 0.25640747 -0.13036647 0.24141085
0.15936014 0.017791983 0.13287872 0.32933372 -0.60290337 0.10124315 0.20662901 0.2940579
0.43809003 0.052347023 0.17555915 -0.023559825 -0.26513875 0.48325643 0.3735338 0.08814563
-0.06875096 0.14396252 0.2509762 0.038430985 0.30672398 -0.28087136 0.26194218 -0.09728968
00000000: ff94 333e 53eb 33be 4a3a cfbd 61c6 303d
00000010: 301d ec3d 46d6 06bc b959 0d3e 3640 ae3e
00000020: f8f1 a0be 5cfe 6a3e 363e 273e 0ae6 c63e
00000030: 5623 49be 11b2 aabe d408 e03d 4e02 7d3d
00000040: 99a2 273f 7de3 203e d016 cfbd 3fc4 c73d
00000050: 892f a63d dea5 68bc e7f0 b23e 11e7 7ebd
00000060: 74a0 b83d 9955 fb3c ba77 d13e d29b 193e
00000070: 8ffb fe3e 79c8 69be 32d5 953e 5dee 513e
00000080: af45 d03c 099b 943d 740a f93d 4b5d a23e
00000090: d1b2 a63e 6180 853e b5ff e63c 5c0c 36be
000000a0: 73ec 36be 8292 813e 75e6 8c3d aa57 a03c
000000b0: b9a6 02be 602e 943b 368b ee3e d3f7 433e
000000c0: 32ca 33be 7c43 d03e 6974 25be dc81 9e3e
000000d0: 895c 0bbf 1b7d 893e 4841 883e b875 853e
000000e0: be59 983d d713 553d 5acb 06be a787 083d
000000f0: 036f e53e 261e 28bd c48d 6c3e 0600 5bbb
00000100: ead9 933e 8dbe 0b3e d51b 843e 0f56 ba3e
00000110: 1f62 71bd 9e71 9b3d de38 923e 9cbf 863e
00000120: 9ff3 b73e b5bc 02bf 8617 d73e c103 ffbd
00000130: 8183 cf3e 6bfd f13e 7ffd 2e3e 9fdd c43e
00000140: 4ebe 7abd ed72 803e 9e1a 5cbe c480 d43e
00000150: 8fb1 ffbd 459f cb3e f18f 053e a7bf a8be
00000160: 21a9 d23e 8392 a73c 045a 6d3d 70b1 523e
00000170: e879 0a3f ee39 223e f6d9 a1bd 9659 143e
00000180: 4a99 4c3e 07be e93d 119f e13d 23f2 96be
00000190: ef14 bb3e e308 8abd 447f 22bd 7189 433d
000001a0: e805 a53e 06b8 c13e 2e30 ebbd 2381 783e
000001b0: 73dc ae3e 6bad 843e 55db 2b3e b953 fe3e
000001c0: 6cc5 ed3b d304 61be 2bdd b5bd 1410 973e
000001d0: 063c 863e 4aec 353e 0500 8a3e 0432 85bd
000001e0: d16c 21be 4008 cd3d 82be f23c a6a7 793e
000001f0: af9f e53e f903 223e 6268 903d 056c 9a3e
00000200: 51f9 6a3f 2d2f 40be b278 d13e 6131 d33e
00000210: a1d5 5e3e c6ed 273e b9a7 853e 7a19 5c3e
00000220: ee1b a9bd c466 763e b5eb a23e 639e b13e
00000230: 5412 9b3e 8d85 b23e 6438 113d 5576 3f3f
00000240: 20cd a33e e501 76bd 0db8 d7bd 14d3 c23d
00000250: 86ae 813c fb4a 4a3e 9b3b b8bc 79e2 393e
00000260: 6f18 933e 0c88 93be 7d14 2a3a 37eb 513e
00000270: a6cf 123f 6f5a 3a3d bb07 d13d aa63 c33e
00000280: e95b 893d df7e 21bd f6f0 823e 1f33 9e3e
00000290: b594 aa3c 4457 9a3e 85bb 53be 64e3 f43e
000002a0: d624 0f3f 8659 46be 7104 c3be 2fda 123e
000002b0: efd1 0d3e 0c40 ae3e 2d79 273f a9ad 053e
000002c0: 1de9 b03e b1e5 483e 41f6 643e 59ee a53e
000002d0: 239b 9dbe 2ac9 293f 1073 a13e 0106 8f3e
000002e0: c573 863e 1b2f 423d 5030 623e ed42 b43e
000002f0: ec3e 043f 111e 313e 0168 dc3e 4d35 9d3e
00000300: 4cdf 81be 57e2 f8bd 5a5e 9b3e 6ac6 723d
00000310: e802 d3bc 7247 3a3e 74b6 133f 3714 a03e
00000320: 6488 7d3e b10b 043e 659b 5e3e d8e1 ddbd
00000330: d53a 68bc 2e95 f53e d289 933e c745 843e
00000340: d7c1 45be 9df6 0dbf 8beb 673d 3f9f 0c3f
00000350: 5fbb e33d 896d 863e ac21 1d3e d9b8 c4be
00000360: 8314 153d 27d2 6d3b 25ab a13e 3cac 81be
00000370: ca51 023e 1fe0 ba3e 5aba b53e a924 d03e
00000380: 2969 7d3e b1d1 143e 973c 1f3e 54ed 673e
00000390: 3199 563e d747 833e ca7e 05be 6834 773e
000003a0: 4e2f 233e 7ec0 913c 5c11 083e 6e9e a83e
000003b0: e057 1abf 9258 cf3d 8e96 533e c28e 963e
000003c0: 564d e03e d569 563d c7c5 333e 8900 c1bc
000003d0: 44c0 87be 636d f73e d23f bf3e b285 b43d
000003e0: 4ecd 8cbd e96a 133e f47f 803e cf69 1d3d
000003f0: ed0a 9d3e 5fce 8fbe 491d 863e d03f c7bd

trunk.network.3.bias f4 [256]
0.2968185 0.553903 0.11247779 0.179469 0.14635184 0.08862944 0.12040632 0.06659164
0.20563172 -0.019824686 0.047678895 0.109491006 0.04671431 0.19873087 -0.11777294 0.08993913
0.24293683 0.14688876 0.26260847 0.25427708 0.15955721 0.013219142 0.028137485 0.06929529
-0.014006289 0.025136892 0.037767235 -0.047948387 -0.107694246 0.12039808 0.0066939974 0.1247597
0.07791407 0.11849519 1.1294525 0.33798417 0.19086711 0.036431845 0.15703131 -0.060837485
0.05329922 -0.025377722 -0.049776424 0.04153013 0.1446367 0.010415668 0.21231127 0.14621903
0.09741978 0.22921504 0.18202196 0.0815349 0.14611647 -0.052612577 0.11797091 0.07721293
0.1780866 0.0068288324 0.2867755 0.1507063 0.0034224547 0.20020685 0.14578639 -0.10454578
0.16732745 0.2676524 0.2304395 0.1766297 0.24523976 0.2386259 0.105022624 0.21449566
0.16863245 0.23769532 0.13270552 0.14739259 0.12164247 0.2391733 0.100229524 0.08695937
0.0760743 0.47414035 0.28536454 0.16002788 0.18222545 -0.11214056 0.100902416 -0.03277982
0.10952951 0.15334985 0.191119 0.23602991 0.029209107 0.8193914 0.30634198 0.011696211
0.07980986 0.13590328 0.038382024 0.20692165 0.015837584 -0.07656523 -0.07752554 0.030615015
0.117177896 0.23181085 0.100752056 0.016771507 0.13715869 0.038255785 0.267346 -0.03458571
0.1359621 0.016142227 0.06798947 0.06741626 0.019180326 0.101006895 0.56306106 0.11862178
0.29243734 0.033709 0.3836643 0.261409 0.08415124 0.10750433 0.012645779 0.14742734
-0.014673698 0.063834354 0.1512952 0.18648578 0.1437693 0.07175925 -0.05233704 0.12590246
0.1405713 0.16773643 -0.0153481765 0.14548767 0.114284664 0.049901787 0.21306033 0.137375
0.14525717 0.054376606 0.086912535 0.16175789 0.12172728 0.18150891 0.28742942 0.010908093
0.0873485 0.34332126 0.21468922 0.19228357 0.054577872 -0.027764233 0.21167648 0.07805072
0.10166142 0.12593888 0.08058039 0.03074921 -0.020935362 -0.008934425 0.21897714 0.038493514
0.118760474 0.09729769 -0.0049534743 0.10566384 -0.08567304 0.032143198 0.22721174 -0.044751715
0.028049765 0.012101643 0.05960742 0.07590297 0.16313715 0.11772905 -0.0031390071 0.1324365
0.08451667 -0.0055904565 0.23914029 0.13058287 0.051988203 0.37873238 0.0792276 0.07082595
0.1871563 0.15398751 -0.024179263 0.15933232 0.05331533 0.12536234 0.050266262 0.2693671
0.18770789 0.16403365 0.075018466 0.44872308 0.2420265 0.25307673 0.123604566 0.0070592808
1.1935312 0.24736628 0.055273134 -0.0251512 -0.044730235 0.30073804 0.07694544 0.16273661
-0.0010190902 -0.16696586 0.1893935 0.15795273 0.065905236 0.13044155 -0.14804716 0.26265222
0.17620432 0.11812571 0.14746162 0.05813832 0.17134272 0.10542759 0.17438053 0.121260025
0.10308041 0.14936696 0.26678127 0.10134661 -0.08111897 0.16916619 0.05509568 -0.05399823
0.079142556 0.35849446 0.021335503 0.16032197 0.022590863 -0.016062059 0.21935292 0.055937942
0.25871885 0.04253157 0.1800829 0.028145306 0.10510091 0.13561831 0.1814609 0.008662685
00000000: 98f8 973e 96cc 0d3f c15a e63d b9c6 373e
00000010: 42dd 153e 5a83 b53d 9797 f63d 3361 883d
00000020: 1f91 523e 6167 a2bc f24a 433d d23c e03d
00000030: 8157 3f3d 1b80 4b3e f032 f1bd 0232 b83d
00000040: 6fc4 783e 026a 163e 9e74 863e 9b30 823e
00000050: f762 233e 1a95 583c 9580 e63c b0ea 8d3d
00000060: a27a 65bc e2eb cd3c d1b1 1a3d 8765 44bd
00000070: cd8e dcbd 4593 f63d 5259 db3b 0382 ff3d
00000080: 6991 9f3d 9bad f23d e691 903f 430c ad3e
00000090: ab72 433e 8f39 153d d1cc 203e ba30 79bd
000000a0: 4850 5a3d f1e4 cfbc 5de2 4bbd 7f1b 2a3d
000000b0: a51b 143e 7aa6 2a3c 2068 593e 71ba 153e
000000c0: 0684 c73d 59b7 6a3e f763 3a3e c5fb a63d
000000d0: 8e9f 153e 4980 57bd bc9a f13d d021 9e3d
000000e0: 555c 363e 66c4 df3b 3dd4 923e c152 1a3e
000000f0: 434b 603b 0603 4d3e 0749 153e 191c d6bd
00000100: e357 2b3e bc09 893e 55f8 6b3e 6bde 343e
00000110: 2220 7b3e 595a 743e 1a16 d73d c0a4 5b3e
00000120: fcad 2c3e 6766 733e f5e3 073e 15ee 163e
00000130: b01f f93d d8e9 743e 2345 cd3d c117 b23d
00000140: d8cc 9b3d 86c2 f23e 4d1b 923e 59de 233e
00000150: 4f99 3a3e f3a9 e5bd eda5 ce3d 2244 06bd
00000160: 0251 e03d be07 1d3e b3b4 433e d3b1 713e
00000170: f047 ef3c a3c3 513f dbd8 9c3e 77a1 3f3c
00000180: 5a73 a33d 3b2a 0b3e 7836 1d3d 45e3 533e
00000190: d2bd 813c 3bce 9cbd b6c5 9ebd 57cc fa3c
000001a0: f7fa ef3d d35f 6d3e 1857 ce3d 6664 893c
000001b0: 5473 0c3e 19b2 1c3d 93e1 883e bfa9 0dbd
000001c0: a639 0b3e b43c 843c 103e 8b3d 8911 8a3d
000001d0: 0f20 9d3c b4dc ce3d c524 103f faef f23d
000001e0: 59ba 953e 7312 0a3d a66f c43e 67d7 853e
000001f0: 7c57 ac3d 3b2b dc3d 3e30 4f3c 31f7 163e
00000200: f369 70bc 96bb 823d 21ed 1a3e 21f6 3e3e
00000210: 4238 133e 83f6 923d 5d5f 56bd 93ec 003e
00000220: ecf1 0f3e 19c3 2b3e eb76 7bbc b8fa 143e
00000230: 140e ea3d d165 4c3d 7d2c 5a3e 08ac 0c3e
00000240: 4cbe 143e 01ba 5e3d 33ff b13d dca3 253e
00000250: 274c f93d 79dd 393e f329 933e dcb7 323c
00000260: c5e3 b23d cec7 af3e 7ed7 5b3e fce5 443e
00000270: 0c8d 5f3d d171 e3bc b8c1 583e 0ed9 9f3d
00000280: dd33 d03d 1ff6 003e 5507 a53d c4e5 fb3c
00000290: a380 abbc b261 12bc 8b3b 603e 60ab 1d3d
000002a0: b138 f33d 0344 c73d c150 a2bb 4966 d83d
000002b0: 5975 afbd 96a8 033d 32aa 683e 934d 37bd
000002c0: 9fc8 e53c f845 463c e926 743d 0473 9b3d
000002d0: 6d0d 273e ee1b f13d cdb7 4dbb 6f9d 073e
000002e0: 1317 ad3d 2630 b7bb 31e1 743e 84b7 053e
000002f0: 95f1 543d 36e9 c13e 1442 a23d 320d 913d
00000300: e7a5 3f3e e7ae 1d3e 9713 c6bc 0328 233e
00000310: 2d61 5a3d fc5e 003e ffe3 4d3d 7cea 893e
00000320: 7f36 403e 70f8 273e 48a3 993d 08bf e53e
00000330: cbd5 773e 4693 813e 6424 fd3d 8a51 e73b
00000340: a1c5 983f 964d 7d3e 1566 623d e409 cebc
00000350: 0d37 37bd 56fa 993e 9295 9d3d 6da4 263e
00000360: fe92 85ba 19f9 2abe 5ff0 413e 5cbe 213e
00000370: 53f9 863d 7892 053e ad99 17be 5a7a 863e
00000380: e86e 343e e4eb f13d 2e00 173e 7222 6e3d
00000390: 7774 2f3e 6cea d73d cf90 323e 2d57 f83d
000003a0: d21b d33d a7f3 183e 8e97 883e d08e cf3d
000003b0: b421 a6bd e739 2d3e 02ac 613d 3f2d 5dbd
000003c0: 7e15 a23d 968c b73e cbc7 ae3c 712b 243e
000003d0: 7910 b93c 9494 83bc 0d9e 603e 2f1f 653d
000003e0: cc76 843e 9535 2e3d a767 383e fc90 e63c
000003f0: 253f d73d 87df 0a3e e3d0 393e efed 0d3c

trunk.network.4.weight f4 [256]
0.61795205 0.2523925 1.0674453 0.6461546 1.056856 1.0311456 1.0771434 0.8830189
0.77013904 1.6818928 1.1678809 0.7385107 1.2500998 0.7138901 1.2265233 1.053692
1.0825242 1.2730424 0.8602878 0.6745685 1.1006308 1.0432453 1.3074453 1.1156508
1.0639546 1.2968645 1.4076324 1.447469 1.6428447 0.79692346 1.4875532 1.0629793
1.0890745 0.8477157 0.11286931 0.6338559 0.9047215 1.1585476 0.7234777 1.4384499
1.5094756 1.2227783 1.3866949 1.2672907 0.90556556 1.152044 1.049432 0.9011887
1.4017934 0.80506545 1.4682875 1.2656559 1.2481536 1.161761 0.8495209 0.9506731
0.86787975 1.2680137 0.9470915 1.3063278 1.4810064 1.168193 0.98419505 1.4476157
1.1880397 0.793737 1.0771968 0.6607204 0.9585537 1.0079116 1.1839072 1.2926613
0.82909274 1.20355 0.9769747 0.91212136 0.9519833 0.48094705 1.0690372 1.4292182
1.4076887 0.26312697 0.78015304 0.6703889 1.2286799 1.4940493 1.2925348 1.242557
1.0544547 0.79146415 1.1951371 1.1502621 1.0459464 0.13195081 0.80339336 1.2763364
1.138708 0.8982842 1.2423619 0.7393531 1.0858388 1.0710514 1.5791452 1.2916118
0.73096234 0.9152817 1.134348 1.0327716 0.73808765 0.79527634 0.8170161 0.8424581
1.2554966 1.1446129 1.4513123 1.0016017 1.0139505 1.2096455 0.26626736 1.0875776
0.74176604 1.1739225 0.71491724 1.0538547 0.9283564 1.2199266 0.7672852 0.70714027
1.5480667 1.3971257 0.86922437 0.9082153 1.03763 1.347024 1.3827487 1.415141
1.3050665 1.1855986 0.6490572 0.8626697 1.1394295 1.136851 0.53174245 1.4249477
1.03421 1.061325 0.6787158 0.94123656 0.7855465 1.1288781 0.8681071 0.9998261
0.9952751 0.5582618 1.2670275 1.3743354 1.4059343 1.4968785 0.7767675 1.0400349
0.987742 1.0213367 1.1954799 1.21742 0.9982651 0.9565873 0.8157902 1.3623884
1.2595137 1.612611 1.2671728 1.0928025 1.4133424 0.9850119 0.66088045 1.3998855
0.97360945 1.340257 0.9884683 0.89425707 0.626404 1.1646795 1.3183346 1.0096233
1.4578692 1.2351768 1.0945677 0.98463696 1.1951469 0.5648396 1.13576 1.4869884
0.85186315 1.5031209 1.3945333 0.65196794 1.0769719 1.2694533 0.99314696 1.0503098
0.95028067 1.0739982 1.250902 0.4773973 0.85738564 1.2705576 1.1823014 1.4248874
0.09591733 1.0989784 1.3472493 1.3079667 1.2580494 0.4856725 0.8740295 0.9500973
1.2664089 1.5927224 1.0992337 1.4971058 1.0496923 1.2791147 1.4448701 0.8378002
1.0292028 1.023017 1.1250687 0.69284123 0.91251695 1.1985091 0.5647368 0.99941456
1.5324993 0.9728129 0.9714315 1.0325117 0.9750291 0.8232886 0.9146965 0.86857337
0.956227 0.41176414 1.3127527 1.1245526 0.9253182 0.85119855 0.7053005 1.1538161
0.65396804 1.1713583 0.854286 0.7186144 0.85568297 0.9120734 1.09013 1.1410275
00000000: 1b32 1e3f 9739 813e 0ca2 883f 636a 253f
00000010: 0f47 873f 94fc 833f d6df 893f 870d 623f
00000020: d527 453f 4348 d73f 1f7d 953f 0a0f 3d3f
00000030: 4503 a03f 80c1 363f b7fe 9c3f 61df 863f
00000040: 2790 8a3f 0ef3 a23f d23b 5c3f 85b0 2c3f
00000050: 78e1 8c3f 1089 853f 5e5a a73f a5cd 8e3f
00000060: aa2f 883f a8ff a53f 4c2d b43f aa46 b93f
00000070: bc48 d23f 2d03 4c3f 2568 be3f b50f 883f
00000080: cb66 8b3f e503 593f 0628 e73d 6144 223f
00000090: d49b 673f 4a4b 943f d635 393f 201f b83f
000000a0: 7f36 c13f 0084 9c3f 387f b13f 9536 a23f
000000b0: 25d3 673f 2e76 933f ca53 863f 4db4 663f
000000c0: f76d b33f c518 4e3f d8f0 bb3f 0301 a23f
000000d0: 7fc3 9f3f 96b4 943f 347a 593f 505f 733f
000000e0: 5e2d 5e3f 464e a23f 9774 723f c035 a73f
000000f0: 9e91 bd3f 5987 953f 35f4 7b3f 794b b93f
00000100: af11 983f 5932 4b3f 96e1 893f f924 293f
00000110: c663 753f 3f03 813f 458a 973f ed75 a53f
00000120: 6c3f 543f ed0d 9a3f 041b 7a3f c980 693f
00000130: 2db5 733f b13e f63e 36d6 883f 9ff0 b63f
00000140: 252f b43f 94b8 863e 1cb8 473f 9b9e 2b3f
00000150: 6245 9d3f 023d bf3f c871 a53f 1c0c 9f3f
00000160: 5ff8 863f 659d 4a3f 41fa 983f ca3b 933f
00000170: 92e1 853f 1d1e 073e 30ab 4d3f fe5e a33f
00000180: 2fc1 913f f4f5 653f b705 9f3f 3f46 3d3f
00000190: c4fc 8a3f 3618 893f 6e21 ca3f 8953 a53f
000001a0: 5920 3b3f e74f 6a3f 5132 913f dc31 843f
000001b0: 50f3 3c3f 3b97 4b3f f827 513f 56ab 573f
000001c0: 1db4 a03f ad82 923f 9ac4 b93f 7c34 803f
000001d0: 21c9 813f aad5 9a3f 3254 883e be35 8b3f
000001e0: 61e4 3d3f 1843 963f d104 373f b6e4 863f
000001f0: c4a8 6d3f 8e26 9c3f ce6c 443f 2507 353f
00000200: 0d27 c63f 04d5 b23f 7d85 5e3f cc80 683f
00000210: 0fd1 843f 486b ac3f e9fd b03f 5723 b53f
00000220: 6b0c a73f b2c1 973f 9d28 263f ecd7 5c3f
00000230: d3d8 913f 5584 913f 4620 083f b064 b63f
00000240: fe60 843f 7fd9 873f 52c0 2d3f e1f4 703f
00000250: 9319 493f 147f 903f 443c 5e3f 9af4 7f3f
00000260: 59ca 7e3f 3fea 0e3f f52d a23f 39ea af3f
00000270: a8f5 b33f b799 bf3f 3cda 463f dd1f 853f
00000280: a9dc 7c3f 29bb 823f 7c05 993f 6bd4 9b3f
00000290: 4d8e 7f3f e8e2 743f a0d7 503f be62 ae3f
000002a0: bf37 a13f 0a6a ce3f b832 a23f f4e0 8b3f
000002b0: 67e8 b43f bd29 7c3f 762f 293f 732f b33f
000002c0: 783e 793f 8b8d ab3f 420c 7d3f 08ee 643f
000002d0: 035c 203f 3814 953f 30bf a83f 563b 813f
000002e0: 759b ba3f 461a 9e3f cb1a 8c3f 2b11 7c3f
000002f0: 93fa 983f 5499 103f 9560 913f a355 be3f
00000300: b413 5a3f 4466 c03f 1180 b23f 5fe7 263f
00000310: 37da 893f 727d a23f e13e 7e3f 8d70 863f
00000320: 9845 733f c678 893f 8f1d a03f 6b6d f43e
00000330: a07d 5b3f a2a1 a23f a755 973f b662 b63f
00000340: 4e70 c43d 53ab 8c3f aa72 ac3f 746b a73f
00000350: c307 a13f 11aa f83e 66c0 5f3f 9439 733f
00000360: b019 a23f 54de cb3f b1b3 8c3f 2aa1 bf3f
00000370: 515c 863f 08ba a33f 81f1 b83f 137a 563f
00000380: ebbc 833f 39f2 823f 4002 903f 0b5e 313f
00000390: b69a 693f bf68 993f 9792 103f a2d9 7f3f
000003a0: f028 c43f 440a 793f bcaf 783f 5829 843f
000003b0: 829b 793f 0bc3 523f 8d29 6a3f d35a 5e3f
000003c0: 4bcb 743f c0d2 d23e 4808 a83f 57f1 8f3f
000003d0: a7e1 6c3f 26e8 593f 938e 343f 3fb0 933f
000003e0: 736a 273f 12ef 953f 7db2 5a3f 1df7 373f
000003f0: 0a0e 5b3f a47d 693f 6189 8b3f 300d 923f

trunk.network.4.bias f4 [256]
-0.5894764 -0.86140954 -0.3324864 -0.60835505 -0.38186666 -0.30017284 -0.34408095 -0.4569719
-0.3411026 -0.28332785 -0.37501195 -0.43312392 -0.45862198 -0.54565054 -0.41184667 -0.378587
-0.2506912 -0.16014133 -0.4741316 -0.45937553 -0.4931959 -0.4013357 -0.3410454 -0.33768713
-0.38188967 -0.21630605 -0.31452164 -0.42333516 -0.23013821 -0.46776053 -0.22108327 -0.31441355
-0.32610154 -0.5390158 -0.9102298 -0.6142511 -0.35622114 -0.4227775 -0.577288 -0.2872073
-0.25429478 -0.3015943 -0.34970072 -0.32441887 -0.41088483 -0.27955964 -0.39374688 -0.38494492
-0.39867482 -0.47470292 -0.27453107 -0.25517887 -0.25314772 -0.58080477 -0.4202866 -0.47423458
-0.501844 -0.25182933 -0.37549552 -0.25099787 -0.28445312 -0.5189357 -0.38645795 -0.2437306
-0.37374306 -0.32448626 -0.47282913 -0.576341 -0.4029162 -0.47316608 -0.31530884 -0.24596933
-0.56701034 -0.45616588 -0.5122172 -0.51109034 -0.27990162 -0.65007836 -0.38221136 -0.33133566
-0.4383317 -0.79188865 -0.47486192 -0.5493465 -0.3941013 -0.17308848 -0.32235497 -0.2793326
-0.24468106 -0.5389144 -0.3983714 -0.32983515 -0.35048085 -0.8886111 -0.48462072 -0.37218413
-0.3960053 -0.3717328 -0.37748381 -0.5679145 -0.31935412 -0.48556936 -0.29407895 -0.07798342
-0.65625185 -0.54998535 -0.3164601 -0.47245157 -0.60185766 -0.52943313 -0.48443007 -0.494572
-0.27775934 -0.20535603 -0.13105643 -0.4845733 -0.40153113 -0.40765467 -0.8181712 -0.33477128
-0.5294089 -0.22954477 -0.55575 -0.43729043 -0.46887323 -0.37202072 -0.56040186 -0.4796436
-0.22714801 -0.4256635 -0.458335 -0.5589152 -0.4608112 -0.287644 -0.3190156 -0.30243617
-0.36618626 -0.23918346 -0.5947341 -0.44395363 -0.41981435 -0.3222002 -0.6450262 -0.26507345
-0.4488061 -0.3267689 -0.6579823 -0.40098134 -0.5140049 -0.32738513 -0.4328878 -0.40129972
-0.24249513 -0.6621899 -0.3605521 -0.138993 -0.35493982 -0.26188827 -0.43075675 -0.4599402
-0.3791551 -0.3179683 -0.34862262 -0.26956886 -0.4795895 -0.4455285 -0.49739435 -0.1974976
-0.2947679 -0.2558308 -0.18838423 -0.27193102 -0.20790398 -0.3545072 -0.57501394 -0.40018624
-0.39997903 -0.27741826 -0.34879586 -0.36489847 -0.6805981 -0.41635564 -0.37295496 -0.33943772
-0.3062119 -0.4929427 -0.31452206 -0.4580793 -0.2449912 -0.6616043 -0.43232518 -0.26703402
-0.4976881 -0.2851035 -0.27932206 -0.6723459 -0.40050566 -0.12597394 -0.24728842 -0.3319568
-0.42808533 -0.3376345 -0.45213926 -0.72577775 -0.6967698 -0.28436765 -0.25116435 -0.36123568
-0.87695533 -0.3158318 -0.24811094 -0.24123728 -0.23075336 -0.673377 -0.5343604 -0.4498896
-0.24528433 -0.3025599 -0.34548232 -0.22881205 -0.44538677 -0.32834175 -0.28108743 -0.5638326
-0.38428053 -0.20433939 -0.34702912 -0.4954468 -0.3474941 -0.47197983 -0.6408075 -0.4282763
-0.22115271 -0.2966688 -0.21953073 -0.47058493 -0.53199893 -0.50705194 -0.46159148 -0.43406573
-0.5053915 -0.66351855 -0.21207494 -0.22925001 -0.60923386 -0.43263242 -0.60974807 -0.46980134
-0.5781426 -0.23212653 -0.67534167 -0.63596165 -0.27535775 -0.41402254 -0.33206567 -0.30827785
00000000: ede7 16bf 5685 5cbf a83b aabe 28bd 1bbf
00000010: 0784 c3be 41b0 99be 612b b0be 39f8 e9be
00000020: 00a5 aebe 5910 91be 9101 c0be 6bc2 ddbe
00000030: 80d0 eabe c1af 0bbf 91dd d2be 28d6 c1be
00000040: 995a 80be 17fc 23be 61c1 f2be 4533 ebbe
00000050: 2c84 fcbe df7b cdbe 819d aebe 54e5 acbe
00000060: 0b87 c3be 557f 5dbe fb08 a1be 63bf d8be
00000070: 5aa9 6bbe 4f7e efbe a763 62be d0fa a0be
00000080: c8f6 a6be f1fc 09bf d204 69bf 8f3f 1dbf
00000090: 9e62 b6be 4b76 d8be 25c9 13bf d60c 93be
000000a0: ed32 82be 916a 9abe f90b b3be 3b1a a6be
000000b0: 7f5f d2be 7122 8fbe 3199 c9be 8017 c5be
000000c0: 1b1f ccbe 430c f3be 568f 8cbe cea6 82be
000000d0: 949c 81be 9faf 14bf ce2f d7be e0ce f2be
000000e0: d978 00bf c6ef 80be f340 c0be cb82 80be
000000f0: d7a3 91be f8d8 04bf d1dd c5be 8494 79be
00000100: 405b bfbe 1023 a6be a916 f2be 158b 13bf
00000110: 084b cebe d342 f2be 2970 a1be 62df 7bbe
00000120: 9727 11bf 938e e9be ab20 03bf d1d6 02bf
00000130: 444f 8fbe 896b 26bf 35b1 c3be d4a4 a9be
00000140: 036d e0be 37b9 4abf 1a21 f3be f9a1 0cbf
00000150: a5c7 c9be 1b3e 31be b60b a5be af04 8fbe
00000160: ac8d 7abe 4bf6 09bf 56f7 cbbe 27e0 a8be
00000170: 3a72 b3be 047c 63bf 3520 f8be eb8e bebe
00000180: 35c1 cabe c353 bebe 8f45 c1be d862 11bf
00000190: 6282 a3be 8c9c f8be 8491 96be c5b5 9fbd
000001a0: 1f00 28bf d7cb 0cbf 0f07 a2be 2ce5 f1be
000001b0: 5813 1abf ee88 07bf 3807 f8be 8b38 fdbe
000001c0: 7936 8ebe da48 52be a833 06be fe19 f8be
000001d0: 7d95 cdbe 1db8 d0be ab73 51bf 2467 abbe
000001e0: 5787 07bf c90d 6bbe a245 0ebf 88e4 dfbe
000001f0: 2710 f0be 8079 bebe 7f76 0fbf d993 f5be
00000200: 7d99 68be 91f0 d9be e3aa eabe 1115 0fbf
00000210: 72ef ebbe 1346 93be 0356 a3be ead8 9abe
00000220: c47c bbbe 82ec 74be 7e40 18bf e44d e3be
00000230: e8f1 d6be 6df7 a4be 7020 25bf b5b7 87be
00000240: eac9 e5be 414e a7be 8771 28bf 6d4d cdbe
00000250: d395 03bf 069f a7be 78a3 ddbe 2877 cdbe
00000260: a550 78be 4785 29bf 499a b8be 2e54 0ebe
00000270: acba b5be 3816 86be 268c dcbe 487d ebbe
00000280: 9e20 c2be becc a2be aa7e b2be ee04 8abe
00000290: c18c f5be 501c e4be 79aa febe d03c 4abe
000002a0: d1eb 96be 41fc 82be cce7 40be 8b3a 8bbe
000002b0: c8e4 54be f881 b5be 1d34 13bf 36e5 ccbe
000002c0: 0dca ccbe c409 8ebe 5f95 b2be f9d3 babe
000002d0: ad3b 2ebf 912c d5be f4f3 bebe c8ca adbe
000002e0: cec7 9cbe fc62 fcbe 0909 a1be 5f89 eabe
000002f0: f9de 7abe e65e 29bf ba59 ddbe afb8 88be
00000300: fad0 febe 16f9 91be 4d03 8fbe dc1e 2cbf
00000310: 140f cdbe 50ff 00be 2d39 7dbe 3ef6 a9be
00000320: 002e dbbe 6ede acbe cc7e e7be 92cc 39bf
00000330: 815f 32bf a398 91be 9d98 80be e2f3 b8be
00000340: 2580 60bf b5b4 a1be cb10 7ebe e806 77be
00000350: 9c4a 6cbe 6f62 2cbf d8cb 08bf ee57 e6be
00000360: d12b 7bbe 22e9 9abe 0fe3 b0be b54d 6abe
00000370: bc09 e4be 691c a8be b1ea 8fbe 5557 10bf
00000380: 6bc0 c4be 583e 51be cdad b1be 34ab fdbe
00000390: bfea b1be 57a7 f1be f60b 24bf 0847 dbbe
000003a0: db75 62be f9e4 97be aacc 60be 82f0 f0be
000003b0: 1531 08bf 28ce 01bf b855 ecbe dd3d debe
000003c0: 5661 01bf 5adc 29bf 2c2a 59be 84c0 6abe
000003d0: c0f6 1bbf ff81 ddbe 7318 1cbf cd89 f0be
000003e0: 2701 14bf 94b2 6dbe 31e3 2cbf 62ce 22bf
000003f0: b1fb 8cbe c3fa d3be 8304 aabe 98d6 9dbe
