canonical_models/4to8actor-5k.pt (torch, 552353 bytes, 14 tensors)

trunk.network.0.weight f4 [256, 9]
00000000: fc9d 0c3e 373c 37be 6f28 a13d e67c be3e
00000010: a30e c4bb d42e 373e 1d9f 723e 17a7 0c3e
00000020: a8b1 46be 86f7 c23e a3fe 5b3e 02eb d93d
00000030: 7ce0 083e 02d0 69be 3fb0 f13d 8012 ae3d
00000040: b3d8 853d 1d62 6f3e caad c23e d8b7 e03d
00000050: 95d1 9abe 3edc 843e 1952 dd3d 4167 aabe
00000060: dfa6 f53d 4e77 933e 5ce0 913e 69c9 c73c
00000070: bebd 653e 6a82 a23d e1bd b73e ee82 bcbe
00000080: 7168 4b3e 569b efbd 9ae0 20be 11ea 4f3d
00000090: a779 983e febc a03d b329 943c fae4 b83e
000000a0: ec65 783e dbcf 563e e169 80be 99dc b93d
000000b0: 8d99 1c3e 4761 ccbe 3d92 10be c711 62be
000000c0: 0143 7b3e bbd5 203e f316 c5bd 5556 9c3d
000000d0: dafa 97bd b1fc f33d 3ef3 24be bc40 683e
000000e0: 9489 85bd d8ab 563e e733 71be 94e0 c43d
000000f0: de32 47be 0b20 7d3d b841 f3bd fbb8 bf3d
00000100: 7c86 67be f2f6 6cbc 46c6 cbbe 53d2 733d
00000110: 286f 5e3e d342 253e 5252 303e 579b 293e
00000120: e8b9 61be 5924 2e3e 30d0 31be 045b d0bc
00000130: 0030 a9bc 8715 223e 0837 54be 718a 65be
00000140: b239 2d3e 3b04 8cbe 8f1d 453e 7b53 833c
00000150: d32e 4d3d 02ee bdbe b35c 7dbe 70c7 683d
00000160: 4d6a ad3d 349d 83ba e38a 06be df8f debc
00000170: 6715 463d c5e5 df3e bc74 21bf c861 0e3e
00000180: a199 d2bc 094b f23d 0fe6 773e 05e4 47bd
00000190: 4241 8d3e a23d bd3d ffd7 023e ec96 033e
000001a0: 46c2 ecbd c14c 763d c33e 7f3c 5a1a fc3d
000001b0: 921e 8bbd d73a a53e 9b81 b3bc 3dd5 23be
000001c0: 6b0d 933e a21f 57be f69e 22be 1d82 633c
000001d0: 1ecf 773e 716a 2dbe f096 5cbe c6f9 b33d
000001e0: beab 5c3e ad5d bebe 7bad 513e f93d 613e
000001f0: 3bcd dabd c3fc a4bd db89 5ebe 077b 903e
00000200: 551a 16bd 1b28 983e 8ddf 46be a0d2 113b
00000210: 886d 0cbe cdd9 683b 50fd f43d bce3 bd3d
00000220: 6b94 bf3e d186 f63d 8faf 953d b593 f73d
00000230: 7abb 153c 01f1 053e 7993 c53d 105b 23be
00000240: eb45 84be b7c7 97be d607 9e3d b756 0cbe
00000250: 3d23 ca3e 76cb f5bc 3c3e 8e3e 5751 5a3d
00000260: 8e58 11be fe15 a1bd 3663 c03d 31ed 3e3d
00000270: 7a1d 34bd 40d0 c8bc 3e2d 9b3d ceef ec3d
00000280: 851d 103e 264a 10bd 6bd3 743d ac55 22be
00000290: d5f3 2bbe 7002 e23d 9624 073f 9f80 f73d
000002a0: 9829 bd3d a243 ab3d ee34 303e 0d52 2ebe
000002b0: 62bf c53d 7612 26bc 9c5e 93be 92be 773e
000002c0: 1b60 b93d 510a 633e ded6 f13b 4c74 0d3e
000002d0: a4d4 033e 9c32 57bd 4fc0 71bd 5f2d 7c3e
000002e0: 9069 04bf 1e0b 2a3e 20a3 60be 5833 113e
000002f0: 5a90 afbd b1c3 53be 9059 c2bd 2601 adbd
00000300: 5511 09be 10f2 bd3e fec1 333d 0d32 3a3e
00000310: a8dc 963d d188 0abd 7fa9 30be 2502 7f3d
00000320: ccbf 993d aaf4 9dbd 442d 023d 5f42 773d
00000330: 4c5f 9f3d c436 3f3e 8701 3a3e ce82 81be
00000340: 242e a1be b398 0a3d d904 d63e e56f e63d
00000350: 185c 3ebe 30e6 51be bfc5 4b3e 9013 493e
00000360: eeee d73d e44f 93bd 6926 41be 3e71 37be
00000370: b9e1 d23e 552a 673e 7ff6 6c3d 6e0e 6a3e
00000380: 61b7 013e 41e4 babd b4d6 963e e568 57bc
00000390: 1a21 dfbd fc0c d13e 86cf 2dbe 2686 113d
000003a0: 33fc bc3d 413a 13be f689 40be a5e7 873e
000003b0: f4f7 4b3d e42e 503e 5a1b edbc 9c58 19be
000003c0: 9673 b43d 77df c73c 25b9 5f3d d9cd f93d
000003d0: 461d 8a3b 3518 ebbc d2d0 263f e5ca b2be
000003e0: 3569 163e 6d67 8bbe 9a17 353e a0f1 8b3d
000003f0: 5b14 43be efab 19be aaa0 b63d 9be3 a6be
0.13732141 -0.17894064 0.0786904 0.37204665 -0.00598319 0.17888957 0.2369351 0.13735615
-0.19403708 0.3807947 0.21483855 0.10640527 0.13366884 -0.22833255 0.118011944 0.08499622
0.06535473 0.23377271 0.38023216 0.109725654 -0.30238023 0.2594928 0.108066745 -0.332819
0.11994719 0.2880196 0.28491485 0.024388032 0.22435662 0.07935031 0.35887054 -0.3681864
0.1986406 -0.1169955 -0.15710679 0.050760332 0.29780313 0.078485474 0.01808629 0.36112195
0.2425763 0.20977728 -0.2508078 0.09075279 0.1529295 -0.39917967 -0.14118285 -0.22077094
0.24537279 0.15706532 -0.09623518 0.07633654 -0.07420893 0.119134314 -0.16108415 0.22680944
-0.065203816 0.2096399 -0.23554955 0.096131474 -0.19452998 0.061798137 -0.11877769 0.09361454
-0.22609895 -0.014463173 -0.39799708 0.059526753 0.2172209 0.16138773 0.17218903 0.16563164
-0.22043574 0.17006053 -0.17364573 -0.025434025 -0.020652771 0.15828525 -0.20724118 -0.22416092
0.1691654 -0.27346978 0.19249557 0.016031018 0.050093483 -0.37095648 -0.24742393 0.056830823
0.08467541 -0.0010041357 -0.13138919 -0.027168212 0.048360255 0.43729988 -0.6306875 0.13904488
-0.025708022 0.11830718 0.24208854 -0.04880144 0.2758885 0.09240271 0.12777708 0.12850541
-0.11560492 0.060131792 0.015578928 0.12309714 -0.0679294 0.32271454 -0.021912387 -0.15999313
0.28721175 -0.2100816 -0.15880951 0.013886002 0.24200103 -0.16935135 -0.21541953 0.08787875
0.2154989 -0.37180844 0.20476334 0.21996297 -0.10683676 -0.08056023 -0.21732275 0.28218862
-0.036646206 0.29718098 -0.19421215 0.0022250786 -0.13713658 0.003553021 0.11962378 0.092719525
0.3741792 0.12037433 0.07308876 0.1208872 0.009138936 0.13080217 0.09647269 -0.15952706
-0.25834593 -0.29644558 0.07716338 -0.13704954 0.3948001 -0.030004244 0.27781856 0.053300228
-0.14193937 -0.07865523 0.09393923 0.046612922 -0.043973424 -0.024513364 0.07576989 0.115691766
0.14073761 -0.035226963 0.059771936 -0.15852994 -0.16792233 0.11035621 0.527902 0.120850794
0.09236449 0.08362509 0.17207691 -0.17023487 0.09655644 -0.010136237 -0.2878312 0.2419379
0.09051534 0.22171904 0.0073803505 0.13813895 0.12874085 -0.0525385 -0.05902129 0.24626683
-0.51723576 0.16605803 -0.21937227 0.14179742 -0.08572455 -0.20680119 -0.09489739 -0.08447485
-0.13385518 0.37098742 0.043886177 0.18183155 0.073663056 -0.033821885 -0.17252158 0.062257905
0.075072855 -0.077126816 0.03178145 0.06036603 0.07781848 0.18673235 0.18164645 -0.2529511
-0.31480515 0.03383703 0.41800573 0.11251811 -0.18589818 -0.20497966 0.19899653 0.19636369
0.10543619 -0.07192972 -0.18862309 -0.17914292 0.41187838 0.22574742 0.057852264 0.22857067
0.1266761 -0.09125567 0.2946068 -0.013147567 -0.108949855 0.4083022 -0.16973695 0.035528325
0.09227791 -0.14377691 -0.18802628 0.26543918 0.049797013 0.20330387 -0.028943706 -0.14975208
0.08811109 0.024398549 0.054619927 0.121974654 0.0042149154 -0.028698066 0.65162385 -0.3492042
0.14688571 -0.27227345 0.17684785 0.06833196 -0.19050734 -0.15006994 0.08917363 -0.32595524

trunk.network.0.bias f4 [256]
00000000: 9763 03be 2643 7fbe 8299 a63d 6c32 0dbe
00000010: 2853 863e 81e8 923e 9325 843c 2165 0bbb
00000020: f1ce ab3d e17f 853e 6427 1bbe 5022 923e
00000030: 6697 343e 6b6f 71bd a7a9 d83d 205e 98bc
00000040: eab0 5a3e a357 3a3e ccb6 e43d c9fb 53be
00000050: 712c 303e 40f9 db3d e1ce 283e 40c2 323e
00000060: 37b7 2ebe 1de3 8a3e f9c3 f9bb 5cac fe3d
00000070: 76b4 d93e 6632 15be 5582 823e 30c9 c33e
00000080: 2b7b c1bd 68f9 dc3d 2c79 973e 75c3 863e
00000090: e4b9 3abe e3c7 c03e c29b 37be 8d86 c1bd
000000a0: cce0 21be 46c2 963e 338b 9a3c bc96 383e
000000b0: 8015 c03e 02da c6bd 53e2 3fbe 382b 1f3d
000000c0: 944c 733d bda0 1cbd 5cfa d43d 968c 933d
000000d0: d50e b9bd 44bc 86be 165f 243d e68e 023e
000000e0: 3de9 71be 12c7 613d af1b 2d3e 5287 883d
000000f0: 4947 b23e 9351 4e3e d158 a7bd ea3d ff3d
00000100: ea6a 8d3e f784 9f3e d022 87bd 0588 773e
00000110: b588 40be f811 c03c eaef 8ebc df6c 433e
00000120: 7e9a c1bd b2bb c53e c004 8b3e d2c8 9a3e
00000130: 5613 953e 4f51 cabd 1d04 d1bd ad16 56be
00000140: 1450 7c3e d3ff 12be 115f 733e b7ea a5bd
00000150: 8bc8 9f3e b4e6 dabd 1e14 883e 1c4f c33e
00000160: 4f91 c43e c817 053e 688f b2bd ef8a c33e
00000170: 95f7 34bc d26b 8e3e 594b 9e3d 6f3a 91be
00000180: f457 5c3e 767c 113e 1acd 623e dc32 c33d
00000190: 4aad 073e 3228 8e3e fc6a 003e 2df2 50be
000001a0: 4c36 d33e 2d16 893d 7eda b5bd 6263 cf3d
000001b0: eed5 833e 9285 eabd b8e5 ef3e 7a84 f2bd
000001c0: e607 5fbd 8a69 cebb 27d5 f4bd bbf4 523e
000001d0: 2f93 3c3e e7a8 913c 063d a23e 824a 423e
000001e0: 1c34 34bd c04a b03d ec2f b5bd 978b 1a3d
000001f0: 8001 c0bd ebef 2cbe 10b8 acb7 1f74 eabd
00000200: f2af 8c3c ccd6 953e 4691 8bbe b86b 78bd
00000210: 1201 85be 018e 873e 19c3 71be 59b0 b9bd
00000220: b7eb fcbc 23cd 8d3e 680a 3d3e 07d2 dc3e
00000230: e04f de3c ad97 0b3e 852a 43be 6b1e 3fbd
00000240: 2eca f9bd bda7 b33d b1a3 3e3e 12ad 4fbe
00000250: b563 7e3e 452b 423e 7283 9abd 5a25 813e
00000260: 867e 7dbe 386f 90be 745f 213e 2ca5 19be
00000270: 714b 7b3e f382 9c3e f558 a73d f41d 88be
00000280: 198b 833e da94 b53d fd2e d3bd 2f29 d53d
00000290: 9ffa 51be c915 4fbe 6876 e2bd 85e2 6ebd
000002a0: 7bcf 2cbd 1e43 3bbe 6e18 acbd 4b6f 0e3e
000002b0: b1c3 3c3e b2cd 923d 8d7d cc3c 1df3 bf3e
000002c0: 554f c63e 3d80 fe3d f71d 33be d3d1 8dbe
000002d0: 8aed 1a3c ec23 48bd 4418 2f3e 2ede 7f3e
000002e0: 32df 293d 6355 b23d 428d 2b3e cfa1 dc3e
000002f0: 5d06 db3d 0500 0bbd 3233 b03e 22da 11bd
00000300: e17f 8a3e f3d4 cd3d 5533 adbd 4089 e4bd
00000310: e915 1ebe 5629 19be 9abb 09be 1a83 03bc
00000320: a32d c73e d4cf b2be aa59 3739 4a53 533e
00000330: 4d6b 223d 9904 213d adbe 473e 9784 ad3e
00000340: 0559 8fbe 40ce b4ba ed0b 61be fd47 b8be
00000350: 1d02 65be 0a43 983e 5cd3 c73e 6c33 28bd
00000360: 5bb5 32be 09a7 153e 85d0 60be be3d fbbd
00000370: 7f3e 8fbd 1598 0f3e e45b ba3e 13a5 6b3d
00000380: 72c7 40be 0e6b 723e ec33 113d fb15 423e
00000390: 4adf 2dbe f10e 143e 900c 15be 6303 b13e
000003a0: b76d 94bd 2928 cb3d 08fe 07be ec28 93bd
000003b0: aef8 9b3d 965e be3e b70e 47be 553c a43e
000003c0: 01e9 12be a9d0 5f3e c5a5 103e b39f d6bb
000003d0: d3e7 633e a55c d7bd 803a a83e 0d8c 23bd
000003e0: ae5d 3e3d 80e9 633e ff40 243d ddfb 503c
000003f0: 2590 01be b6ea 253b 7ee0 3bbe 263d a83e
-0.1283096 -0.24927959 0.08134748 -0.13788766 0.26235318 0.2869301 0.016131198 -0.0021269994
0.0838908 0.26074126 -0.15151745 0.28541803 0.17635879 -0.058944147 0.105792336 -0.01859957
0.2135655 0.18197493 0.11167678 -0.20701517 0.17204453 0.107409 0.16485168 0.17456913
-0.17062078 0.271264 -0.0076222387 0.12435219 0.42520493 -0.14570007 0.2549006 0.3823943
-0.094473206 0.10789758 0.29584634 0.26320997 -0.18234974 0.376525 -0.1793051 -0.09449492
-0.1580841 0.29445094 0.018865203 0.1802625 0.37516403 -0.097095504 -0.1873868 0.038859576
0.059399202 -0.03823923 0.10399315 0.07204549 -0.09036032 -0.2631551 0.040129744 0.12749824
-0.2362413 0.05512149 0.16905092 0.06666435 0.3482001 0.20148306 -0.08171237 0.12462981
0.2762063 0.31156132 -0.06598437 0.24172981 -0.1880215 0.023446068 -0.017448384 0.190845
-0.09453295 0.38619763 0.2715206 0.3023134 0.29116315 -0.0987879 -0.10205863 -0.20907088
0.24639922 -0.14355402 0.23766734 -0.08101409 0.3120769 -0.106885344 0.26577848 0.38146293
0.38392112 0.12997353 -0.08718759 0.38191935 -0.011045356 0.27816635 0.07729215 -0.28364894
0.21517926 0.14207634 0.22148553 0.09531185 0.13249698 0.27765042 0.12540811 -0.20404883
0.41252363 0.06693683 -0.08879565 0.10126378 0.25749153 -0.11451258 0.4685495 -0.11841674
-0.054450892 -0.0062992023 -0.11954718 0.2060117 0.18415521 0.017780734 0.31687182 0.18973735
-0.043995008 0.086080074 -0.08847031 0.03773078 -0.09375286 -0.16888396 -2.0589709e-05 -0.114479296
0.017173741 0.2926544 -0.27259272 -0.060649604 -0.2597738 0.26475528 -0.2360958 -0.09066839
-0.030874116 0.2769557 0.18461001 0.43128988 0.027137697 0.13632078 -0.19059189 -0.04665987
-0.12196766 0.08772228 0.18617131 -0.20280865 0.24842723 0.18961819 -0.075446025 0.2522381
-0.24755296 -0.28209853 0.15759069 -0.15004414 0.24540497 0.30568656 0.08171264 -0.26585352
0.2569206 0.08866282 -0.10311697 0.10408246 -0.2050576 -0.20223154 -0.110577404 -0.058321495
-0.042190056 -0.18287322 -0.08403097 0.13909642 0.18434025 0.071681395 0.024962211 0.37490168
0.387324 0.12426803 -0.174919 -0.27699146 0.009456048 -0.048862383 0.170991 0.24987099
0.04147262 0.087076925 0.16753104 0.430922 0.10694573 -0.033935566 0.3441406 -0.03560842
0.2705069 0.100503825 -0.084570564 -0.11158991 -0.15438046 -0.14957175 -0.1345047 -0.0080268625
0.38902006 -0.34924185 0.00017485642 0.20637241 0.03965311 0.039311025 0.19506331 0.3389022
-0.27997604 -0.0013794377 -0.21977206 -0.35992423 -0.22364087 0.29738647 0.39028442 -0.041064665
-0.17451994 0.146145 -0.21954544 -0.12267636 -0.06994342 0.14022858 0.36398232 0.057530474
-0.18826082 0.2367365 0.035449907 0.18953697 -0.1697971 0.14458825 -0.14555573 0.34572896
-0.07247489 0.09919769 -0.13280499 -0.071855396 0.07615791 0.37181538 -0.19439207 0.3207728
-0.14346696 0.21856941 0.14125736 -0.0065497993 0.22256403 -0.105157174 0.32857132 -0.039928485
0.04647606 0.22257042 0.040101048 0.012755361 -0.12652643 0.00253169 -0.18347356 0.32859153

trunk.network.1.weight f4 [256]
00000000: 5f94 9b3f 6638 ab3f 4e29 e03f 35a1 c33f
00000010: bf0e a63f 137d 8e3f c9c4 6f3f b4fc 713f
00000020: ae42 9e3f 3833 893f eeb6 8f3f 0766 4c3f
00000030: 2707 9a3f 3e6d a53f 8bd0 663f ceb1 933f
00000040: bd09 a93f f13e bb3e ff98 533f 3d12 4a3f
00000050: 6dc1 7c3f 119e 2f3f 7161 b83e f88b b63f
00000060: f11f 943f 953b 5a3f e673 8a3f e98f d23f
00000070: 914e 8c3f 76d3 593f ab2a 963f 69d0 4a3f
00000080: dfe2 873f c126 db3f 6166 bf3f ee7d 643f
00000090: d46a b03f 2a8f 5d3f 3244 503f a992 3a3f
000000a0: 5a2d bf3f 4af8 bf3f 8ea5 a23f 067f 0e3f
000000b0: 38fb 823f 0785 893f b5c5 1a3f e99e 563f
000000c0: 10b1 813f 6137 9c3f ae68 c53f 6cf6 e73e
000000d0: a7a0 813f e8f8 923f 44fe 933f 164e 643f
000000e0: c901 9b3f e94c f73e 9e8b 723f 7327 6a3f
000000f0: 302f 543f b686 b53f 97af 813f 6f23 1d3f
00000100: f195 303f 54e9 e33e 3e0c be3f e7c0 883f
00000110: 9f9f ba3f ac97 dc3f ea71 4a3f f987 6d3f
00000120: a4f9 d13f d182 733f 2f10 b83f 8b23 7b3f
00000130: 9200 453f 716a bf3f a099 d23f e778 a13f
00000140: de21 903f f155 973f 9ad4 4f3f fa39 b03f
00000150: 9659 843f fb87 ae3f 0498 453f 0ff2 553f
00000160: d887 d53e 8197 b23f 6fb3 943f e93a 153f
00000170: 7d04 103f 1d28 d03f f0c2 3c3f 7986 6a3f
00000180: 139d 003f edc2 203f 4747 453f a2a3 753f
00000190: 6cae aa3f cba5 413f fbe7 b23f 2670 533f
000001a0: 824b 473f 79ec 323f 24e6 973f b788 623f
000001b0: ad3d ea3e d239 093f b44c b93f c131 8b3f
000001c0: 6f97 523f 8646 9d3f 7933 873f 1b48 af3f
000001d0: 14a8 0e3f b5d3 8b3f 4310 923f 5ed6 f93e
000001e0: 9a90 983f 18d9 843f 9a1d b13f 670b 9a3f
000001f0: 1be4 a03f 5507 a33f 71dc ac3f a253 193f
00000200: db59 df3f f624 3a3f 467e a33f 309d 6d3f
00000210: 99ea b13f 76d4 923f ed21 7c3f 2d33 413f
00000220: 03ee 3d3f fc32 b73f ce16 133f d7f8 923f
00000230: aac6 953f 7d7a 9d3f 3f9a 683f 8d18 913f
00000240: b732 a53f ab8a 6e3f a47c b83f 027b be3f
00000250: d69c 3e3f 0b74 db3e 9c75 fe3e baa2 8a3f
00000260: 25f3 873f f54a 873f fcbb 7d3f c44d 803f
00000270: d745 6a3f 60b6 203f af09 5b3f 025d 9c3f
00000280: 6048 cc3f 84a1 313f 9e86 3d3f 2df3 873f
00000290: 4e3d 7d3f 06d8 b33f 492e a43f 6829 933f
000002a0: 3fdc 833f 565f cc3f 804f c73f eb61 823f
000002b0: ef34 b83f 3718 a93f 26a7 c13f cbb7 573f
000002c0: f47f 343f e8f0 ad3f 3351 873f 467c 453f
000002d0: 5fad de3f 7436 f23f 1b95 dd3f 5483 713f
000002e0: 7c1e 873f 0909 513f f990 383f e683 423f
000002f0: c361 5a3f ba81 853f 8420 8c3f 045c fe3f
00000300: 2757 ba3f 6029 933f d5b7 823f 5f5a 5a3f
00000310: a1b8 9d3f 35a4 a93f 93b6 4e3f 5798 6e3f
00000320: d5e3 6f3f 4f39 b13f 86a6 2d3f df2c 363f
00000330: d4e3 933f 5af0 943f fe69 453f 701b 533f
00000340: 413e c63f f151 c43f d040 6a3f 5b24 843f
00000350: a29f 9b3f 3f8e 3f3f a982 b23f eeca ac3f
00000360: 298e 973f b08c 703f ebd1 843f 0cef 953f
00000370: 1f8f 803f 8247 0d3f ba48 343f 662b 7a3f
00000380: 02a7 8f3f bf1a 913f 35fe 503f d7a1 b53f
00000390: 419b 303f c4a6 6c3f debc ac3f 6ca2 213f
000003a0: 05bb 823f f9d7 c03f 01b9 8a3f 61fe 983f
000003b0: 0e16 4b3f 84f0 4b3f d7d6 ad3f a040 823f
000003c0: e737 503f eae8 d23f 844c 1c3f ab32 b63f
000003d0: c786 913f fc4d 8d3f 7fce 1f3f e3ac 933f
000003e0: a14f b93f 77a7 7a3f 0d8f 223f 2bbb 793f
000003f0: b66f 973f ed4b 943f 0ab9 813f 7fd1 563f
1.2154654 1.3376586 1.7512605 1.5283571 1.297325 1.113192 0.93659645 0.9452622
1.2364099 1.0718756 1.1227701 0.7984318 1.2033433 1.2923963 0.9016196 1.1538637
1.3206097 0.36571458 0.8265533 0.7893408 0.98732644 0.68600565 0.36011842 1.4261465
1.1572248 0.85247165 1.0816619 1.6450168 1.0961477 0.8508829 1.1731771 0.7922426
1.061611 1.7121202 1.4953119 0.89254653 1.3782601 0.86546576 0.8135406 0.72880036
1.4935715 1.4997647 1.2706773 0.5566257 1.0232916 1.0743722 0.60457927 0.8383623
1.013216 1.22044 1.5422571 0.45305192 1.0127152 1.148221 1.1561971 0.8918165
1.210992 0.48300865 0.9474429 0.91466445 0.828845 1.4181736 1.0131711 0.6138219
0.6897879 0.44513953 1.4847486 1.0683869 1.4579962 1.7233787 0.7908007 0.927856
1.6404309 0.95121485 1.4379939 0.9810111 0.76953995 1.4954358 1.6453133 1.2615021
1.1260335 1.1823102 0.8118378 1.3767693 1.033984 1.3635248 0.7718508 0.8357248
0.41705203 1.3952485 1.1617259 0.58293015 0.5625685 1.6262242 0.7373495 0.9161144
0.50239676 0.62797433 0.77061886 0.9595281 1.3334479 0.75643605 1.3977045 0.82593
0.7784959 0.6989208 1.1867108 0.8848986 0.4575018 0.5360385 1.4476533 1.0874559
0.8226232 1.2287147 1.0562583 1.369388 0.55725217 1.0923983 1.1411213 0.48796362
1.1919129 1.0378752 1.3837159 1.203473 1.2569612 1.2736613 1.3504773 0.5989324
1.7449297 0.7271265 1.277291 0.92817974 1.3899719 1.1471088 0.98489267 0.75468713
0.741913 1.4312434 0.5745667 1.148219 1.1701252 1.2303005 0.9086036 1.1335617
1.2906102 0.9318034 1.4413037 1.4881289 0.7445806 0.4286197 0.49699104 1.083091
1.0621077 1.056975 0.99114966 1.0023732 0.9151282 0.6277828 0.8556165 1.2215884
1.5959587 0.6938708 0.74033535 1.0621086 0.9892167 1.40503 1.2826625 1.1497011
1.0301589 1.5966594 1.5571136 1.0186132 1.4391154 1.3210515 1.5129135 0.8426482
0.7050774 1.3589144 1.0571655 0.7714275 1.7396659 1.8922868 1.7311128 0.94341016
1.0556178 0.8165441 0.7209621 0.7598251 0.8530542 1.0430214 1.0947423 1.9871831
1.4557847 1.1497002 1.0212351 0.85294145 1.2321969 1.3253237 0.80747336 0.932012
0.9370702 1.3845614 0.6783222 0.7116222 1.1553903 1.163585 0.77114856 0.8246374
1.5487748 1.5337507 0.91505146 1.0323595 1.2158091 0.74826425 1.3946124 1.3499429
1.1840259 0.9396467 1.0376562 1.1713576 1.0043677 0.5518724 0.7042347 0.9772247
1.1222842 1.1336287 0.8163789 1.4190015 0.689869 0.92441964 1.3495138 0.6313846
1.0213324 1.506591 1.0837709 1.195263 0.7933053 0.7966387 1.3581189 1.0175972
0.813353 1.647733 0.61054254 1.4234213 1.1369256 1.1039424 0.62424463 1.1537136
1.4477426 0.9791178 0.6349953 0.9755122 1.1830966 1.1585671 1.0134594 0.83913416

trunk.network.1.bias f4 [256]
00000000: 98ba 0fbe 6a33 eebd 5f9b e43c 2f09 31bd
00000010: c135 7fbe 52cc bebe c28a 9fbe d6c7 8dbe
00000020: 7538 06be c39e 55be 575d 2cbe 8b88 a0be
00000030: aeba 5ebe 025d a3bd a57e a9be da8b 21be
00000040: b1b6 5fbe 20c3 12bf 038b 9abe d319 adbe
00000050: 992e a4be dd77 eabe 4144 27bf c1af abbd
00000060: 8f55 29be 8b8b 99be 32ea 45be 3907 513c
00000070: d73a 95be e9bf 97be 1e3b 49be 8466 c8be
00000080: f02b 92be bfc4 97bd 9e42 9dbd 5ea2 aabe
00000090: d6bb 89bd fa06 a8be 8cd6 83be 1b85 aebe
000000a0: 97ca fc3b 4399 e5bd 3c89 b7bd 30cc 07bf
000000b0: 6a0e abbe 2451 70be f22c e9be 1404 99be
000000c0: 3ccd a5be 28f1 6abe e002 b1bd eda0 15bf
000000d0: 96b9 77be 503c 25be d986 5cbe 4a4c b9be
000000e0: a556 93be b9b5 f9be fbc5 2abe c485 80be
000000f0: d94b bebe e57a c0bc 9cca 8ebe bc07 fabe
00000100: 3154 c2be 0c08 13bf ac18 cabd 877c 4dbe
00000110: c3b1 04be 9358 35bc bd7a e6be 17c0 b8be
00000120: c6f2 9fbb 2a3c a0be ea3c f0bd 6065 83be
00000130: cdc0 bdbe 39ac 283c 65d6 b2bc acf9 09be
00000140: 7a0a 42be 641f 40be 8470 a6be e607 b6bd
00000150: 9034 9dbe db56 0fbe e47c dfbe 0d7c a2be
00000160: cb73 17bf 688f 41bd 0b6a 5ebe 2691 e4be
00000170: 56b1 d2be 56dd c3bc 26c7 d2be 9f62 68be
00000180: 162a 05bf 3551 e7be 69f1 debe 0b62 9dbe
00000190: 96da f3bd 115e b1be 3b59 88bd 5af0 9ebe
000001a0: d2b3 bbbe 330d c4be a6d5 86be 0231 cfbe
000001b0: 3953 0abf 601b ecbe c410 aebd 4510 22be
000001c0: 841f d0be d9dc 07be 9686 abbe f6aa a9bc
000001d0: 04ca e8be b8f7 4abe 6cf4 5bbe 24d7 fcbe
000001e0: 4ad2 f6bd 2cdc 2ebe 35a4 5dbd 6c83 66be
000001f0: f26d 22be bdb8 35be 920d 2fbe c473 dfbe
00000200: 9f42 f03d 4ed8 dcbe 8960 21be e5a3 a4be
00000210: 8942 c3bd 91e7 78be bd51 d2be 6f1d 8fbe
00000220: 1bcf bdbe 883f 37be 8977 f2be de70 91bd
00000230: c9ea 7abe 27c8 1bbe b403 47be 897d 2ebd
00000240: d1d7 4fbe c69d bbbe 1ea5 a5bd c16f 8abe
00000250: 53d7 ccbe 50c6 12bf caad 16bf d52a f2bd
00000260: 41f3 5bbe 046d 46be 352f 49be 32b3 a6be
00000270: 62c0 82be 9e6e debe a2fc 90be f025 56be
00000280: f32c 9ebd 252a bfbe a7ca acbe ffe9 1dbe
00000290: 28fa 46be f94f c8bd 19d6 02be ca5e 88be
000002a0: b532 78be 0663 64bc caaf 523d 793d 88be
000002b0: e1e0 e7bd 12e4 38bd 9990 31be 1892 89be
000002c0: 1b42 b9be d30e c3bd d2c0 91be c064 c3be
000002d0: e344 ee3d 63db a3bd 1ed7 b8bd 7834 abbe
000002e0: 3a5b debd 65be acbe 9a2c b6be 5948 9cbe
000002f0: eeb0 a0be 4948 bfbe 2724 22be fd3a 17bd
00000300: fd31 b8bd ecff 1cbe e7b4 8ebe 1ffa a1be
00000310: 55c0 0ebe 8023 febd fba2 a4be 2ef1 90be
00000320: 1080 87be c4c2 44be bad1 b2be d91a dfbe
00000330: 4e0f 64be 40a0 a0be 6730 cdbe 2abd babe
00000340: 647a 34bd 0915 c8bd 411e 5ebe e93c 41be
00000350: b7dc 19be d7a1 a6be 56b5 8bbd d5f2 58be
00000360: 7b6d 0cbe 8cef 7fbe 53df 96be a737 13be
00000370: ab46 63be 376c 0abf 047a e4be b492 fcbd
00000380: 1c1b 51be c54a 5abe 68e4 a6be 8c11 25be
00000390: 8900 b6be b982 73be 2468 10be 1009 04bf
000003a0: 2508 45be d37d dabd 11dd 3abe e3c3 61be
000003b0: e69b b8be c70b 89be 8c9e 52bd dce7 b1be
000003c0: 8568 97be 8f0e cb3d 4166 03bf d9e8 82be
000003d0: 79fa 6ebe e69f 5ebe 6015 c8be 699c 33be
000003e0: 7fa3 603d 22bc adbe 6c20 eebe 634c 49be
000003f0: e8cc 3dbe 5666 b1be 319a 85be 6aeb 99be
-0.14036024 -0.116309 0.027906118 -0.04322165 -0.24922849 -0.3726526 -0.3116055 -0.27691525
-0.13107474 -0.20861344 -0.16832481 -0.31354174 -0.217509 -0.07976724 -0.33104435 -0.15776005
-0.21847035 -0.5732899 -0.30184183 -0.33808765 -0.320668 -0.45794573 -0.6533852 -0.08383132
-0.16536544 -0.29989275 -0.1932762 0.01275807 -0.29146454 -0.29638603 -0.19651458 -0.39140713
-0.28549147 -0.07410573 -0.07678722 -0.33327 -0.0672528 -0.32817823 -0.25749624 -0.34085926
0.0077145803 -0.11210873 -0.08961722 -0.5304594 -0.33409435 -0.23468453 -0.45542103 -0.29885924
-0.32383144 -0.22943556 -0.086431265 -0.5844868 -0.24191889 -0.16136289 -0.21535815 -0.36191016
-0.28777042 -0.48771456 -0.16677086 -0.25102055 -0.37167242 -0.0234961 -0.27888954 -0.48834026
-0.37954858 -0.57434154 -0.09867987 -0.20067035 -0.12958436 -0.011068481 -0.45015517 -0.36084053
-0.004881236 -0.31295902 -0.117303684 -0.2566328 -0.37061158 0.010294967 -0.021830747 -0.13474149
-0.18949309 -0.18761975 -0.32507718 -0.08888225 -0.30704165 -0.13997976 -0.4364997 -0.31735268
-0.5916106 -0.047255903 -0.2172014 -0.4464199 -0.41150922 -0.023909252 -0.41167563 -0.22693871
-0.52017343 -0.45179144 -0.43543556 -0.30738863 -0.11906926 -0.3464208 -0.06657644 -0.3104275
-0.3666063 -0.3829132 -0.26334876 -0.40467077 -0.5403324 -0.46114635 -0.084992915 -0.15826519
-0.40649045 -0.1326784 -0.33501118 -0.020711403 -0.45466626 -0.1982106 -0.21479958 -0.4938289
-0.12051828 -0.17076176 -0.05411168 -0.22511071 -0.15862253 -0.17746253 -0.1709502 -0.4364301
0.11731457 -0.43133777 -0.15759481 -0.32156292 -0.09534175 -0.24307086 -0.41077986 -0.27952144
-0.3707207 -0.17895329 -0.47356823 -0.07101606 -0.24503626 -0.15213071 -0.19435006 -0.04260019
-0.20297171 -0.3664381 -0.08088134 -0.27038386 -0.4000803 -0.5733385 -0.5885893 -0.11824576
-0.21479513 -0.19377524 -0.19646914 -0.3255859 -0.255374 -0.4344377 -0.28317744 -0.2091291
-0.07723417 -0.3733684 -0.3374836 -0.15421294 -0.19431365 -0.097808786 -0.12776984 -0.26634818
-0.24238093 -0.013939625 0.051437177 -0.266094 -0.11322189 -0.04513938 -0.17340316 -0.26869273
-0.36183247 -0.09524312 -0.28467423 -0.38162804 0.11634233 -0.08000829 -0.09025405 -0.33438468
-0.10857244 -0.3373901 -0.35580903 -0.30523947 -0.31384987 -0.37359837 -0.15834104 -0.03692149
-0.089939095 -0.15332001 -0.27872393 -0.3163614 -0.13940556 -0.12409115 -0.32155594 -0.28309005
-0.2646489 -0.19214922 -0.34925634 -0.4357517 -0.22271463 -0.3137226 -0.4007599 -0.36472446
-0.044062033 -0.09769637 -0.21691228 -0.18870892 -0.15025602 -0.3254535 -0.068216965 -0.21186383
-0.13713638 -0.24993724 -0.29467258 -0.14376698 -0.22194926 -0.5407137 -0.4462434 -0.12332669
-0.20420498 -0.21317585 -0.32596135 -0.16119975 -0.35547283 -0.23780335 -0.14102226 -0.5157633
-0.19241388 -0.1066853 -0.18248393 -0.22047381 -0.3605644 -0.26766798 -0.051420733 -0.34747207
-0.2957193 0.09914886 -0.513279 -0.25568274 -0.23337735 -0.21740684 -0.39078808 -0.17540134
0.054843422 -0.33932596 -0.4650911 -0.19658045 -0.18535197 -0.3464839 -0.260942 -0.3006242

trunk.network.3.weight f4 [256, 256]
00000000: 68d7 fb3c 76cc 84be 4c73 c1bd 4db0 f23d
00000010: 54e2 573e caf9 2c3b a887 afbc be3b 0e3e
00000020: 7fa8 4b3d b66a 703c 5d96 a6bd c824 963e
00000030: bcfd 00be 90ba 643d e46a 1b3d efa9 e23d
00000040: 1a15 bc3e b4a4 8bbd 8b1a 8e3d c99a 593e
00000050: 0c60 853d cb4c e7bd 4da3 073e 041b a33d
00000060: 23e0 8b3e db0e 4b3d c1bc 5e3e 4fc1 043d
00000070: d96a 343e a4ba 943d c1ad d0bc 176b cbbd
00000080: f143 1c3e f1df 4dbd cd96 dc3d 099b da3d
00000090: d8f3 0abd 2897 2c3e 68fa 48be 201a e3bd
000000a0: 59f0 1fbe 4796 dd3d e3f8 873e 3cc0 933d
000000b0: e48d 1f3e 4f22 93bd 7de8 e73d 7dfb dd3d
000000c0: 8fc8 c6bd 7f4e 5b3c f050 9cbe 4d55 243e
000000d0: bc22 253d c202 0a3c 2713 a13e 41f8 643e
000000e0: 4ac2 443d 5834 a33c a421 c33d ed92 583e
000000f0: 2f3d 123e e6ea 113e 2dac 3d3e d37a abbd
00000100: 387d 8e3e abbc 9e3d baa8 b53d 3743 423e
00000110: aefe bb3d 7967 95bd 6d9b 46bd 1317 0d3e
00000120: bc85 933d cc07 1bbe fbc7 143e 3258 c13d
00000130: f9ad 503e 6c7d 71bc 9e63 09be 700e d03d
00000140: 56d5 e33d 223e d73d 8c9a 80bb ed9a 713e
00000150: b0a7 a03d d49e ab3d fe1c 9a3c dede 573e
00000160: 4921 923c 5616 c93c c3e9 023d 5dad bbbd
00000170: df8a 963d c71e b93d fa0e a33d be70 c73d
00000180: b61e fc3d 422d dbbd 833c cb3d c919 0c3e
00000190: 5748 67be a47f 8abd a634 30bd 5863 2f3e
000001a0: 9d71 393e b530 443e 39c9 923d b570 343d
000001b0: 45e2 933d b871 0a3e 39cd 933d c240 d93d
000001c0: f573 143d 6d40 573d b9d9 9ebd f353 f3bc
000001d0: 596c ab3d be31 243e 3dd3 443e 84fb 54be
000001e0: 59df 6a3e 8586 a73d 27db b23d 1100 203e
000001f0: 5608 ed3d a869 b8bd b6de 24be 0c4f 173e
00000200: c505 823e c531 adbd f4f0 d33c 8a59 1a3e
00000210: 4901 633e f71b 3c3d 2011 28bd 1be7 96bd
00000220: 87cb 113e 2731 ba3d e327 ab3d 34cb beba
00000230: cda1 a83d b6cf 66bd 2ca9 de3c a1cd b43e
00000240: 474d 7b3d 6d67 bb3c e5c7 2d3e 3d3c 19be
00000250: 86a9 623d 66d3 aa3d 76eb b53d 0601 193e
00000260: 4168 a53e 3285 89bd c3a7 9f3d 2672 46bc
00000270: 0e5b a53e f3ee b93c 3ab9 8d3d 950a 893d
00000280: 6c18 5dbd 42ca 283d b220 3b3d da78 143e
00000290: ca14 c23d 44bb 083d d080 96bd 0757 813e
000002a0: 5014 503e bc30 96be 667e 9bbe c8b5 f6bd
000002b0: cfb9 4cbd 27f5 933e 98ca 523e 9554 dc3d
000002c0: 2b89 0e3e 0422 1b3e 3102 353d c33b 803e
000002d0: 1fd9 71bb 9897 9b3e d6ef 9ebd 1701 263e
000002e0: eb37 f23e 4f2f 90bc ebda 653e 43e6 973d
000002f0: 624a 663e fbf2 b1bd 727a 2a3e 8a30 dc3c
00000300: 2655 8a3c 7ea5 943d 84a9 863e 9248 20be
00000310: 8456 653d f88d dbbd 947c c33d fd90 f93d
00000320: 2332 053e 9834 073e e1f5 823c 9fd5 47bd
00000330: 5dea a53c c55d 953d 36a1 a73d aba7 0c3d
00000340: 26a0 123e e7d5 3bbd 1955 d43d 46e2 bf3d
00000350: e003 2cbe 5163 e6b9 80f7 ab3d d1ab bcbe
00000360: 9beb b73d adc6 a03c c53d 3c3e 854e 9d3c
00000370: b92e 51be f2b1 823b b237 ca3d 8836 2a3e
00000380: 0eed 8d3d 2dd7 0b3e 890b 77bc 4c58 db3d
00000390: d9f9 f33c d774 803d 9512 98be d089 3e3e
000003a0: 3b5d 9e3d c620 babd b45b 883d 5c70 cf3e
000003b0: 719d 25be 8c9b 903d 0997 ad3d 3978 df3d
000003c0: b7c8 bb3d 30f4 cf3d b6e5 163e 6dc4 693c
000003d0: 43d5 73be 78af ba3e 850a 8f3d 993b f7bd
000003e0: a14d ac3d 40a4 60bd 80fd 7b3d 5b76 553c
000003f0: 82a6 623e 2b4a d7be 9864 613e 4c2b 003e
0.030742362 -0.2593724 -0.09445819 0.11850033 0.21082431 0.0026394003 -0.02142699 0.13889977
0.049721237 0.014673879 -0.08134148 0.29324937 -0.12596792 0.055841982 0.037943736 0.110675685
0.3673485 -0.06818524 0.069386564 0.21250452 0.0651246 -0.11293944 0.13245888 0.07964137
0.2731944 0.049574714 0.21751691 0.032410916 0.17618884 0.072621614 -0.025473477 -0.09932535
0.15260293 -0.050262395 0.107709505 0.10674102 -0.033923954 0.16854537 -0.19626772 -0.11088967
-0.15619029 0.10819679 0.26557073 0.072144 0.1558147 -0.07184278 0.113236405 0.10838983
-0.09706222 0.013385414 -0.305305 0.16048165 0.04031633 0.008423509 0.31459925 0.22360326
0.04803685 0.01992242 0.09527901 0.21149798 0.14281152 0.14249763 0.18522711 -0.08373036
0.2782991 0.07750829 0.08870073 0.18970953 0.09179436 -0.072951265 -0.04848807 0.13778333
0.07203242 -0.15139693 0.14529411 0.0944065 0.20378865 -0.014739376 -0.13416907 0.10159004
0.11124675 0.10509898 -0.0039246734 0.23594256 0.07844484 0.083799034 0.018812653 0.21081111
0.017838137 0.024546783 0.031961214 -0.09163926 0.07350706 0.090390734 0.07961841 0.09738301
0.12310545 -0.107019916 0.09923651 0.13681711 -0.22586189 -0.06762627 -0.04301896 0.1712774
0.18109746 0.19159205 0.071672864 0.0440528 0.07220892 0.13519943 0.072168775 0.10608055
0.036243398 0.052551676 -0.07756371 -0.029703116 0.08370275 0.160346 0.19221206 -0.2079907
0.22936763 0.081799544 0.08733206 0.15625025 0.115738556 -0.09004527 -0.16100582 0.14776248
0.25395027 -0.084567584 0.025871731 0.15073219 0.22168459 0.045925107 -0.041031957 -0.073682986
0.14237796 0.09091406 0.08357217 -0.0014556409 0.08233986 -0.056350432 0.027180277 0.35313132
0.061352994 0.022876466 0.16970785 -0.14964385 0.05533745 0.08341102 0.08882801 0.14941797
0.32306102 -0.06714858 0.0779567 -0.012112176 0.32296032 0.022696948 0.06920095 0.066914715
-0.05397837 0.041208513 0.045685478 0.14499226 0.094766214 0.033381715 -0.07348788 0.2526171
0.20320249 -0.29334056 -0.30369872 -0.12046391 -0.04998189 0.28897974 0.20585096 0.1075832
0.13919513 0.15149695 0.044191543 0.25045595 -0.0036903096 0.30389094 -0.07760589 0.16211353
0.47308287 -0.017600683 0.22446792 0.07416966 0.22489312 -0.08688923 0.16648272 0.026878614
0.016886305 0.07258128 0.26301205 -0.15652683 0.05599071 -0.10720438 0.09545246 0.121858574
0.13007407 0.13203657 0.015986385 -0.04878771 0.020253355 0.07293276 0.081850454 0.034339588
0.14318904 -0.04585829 0.103677936 0.0936933 -0.16798353 -0.00043943015 0.08396816 -0.36849836
0.08980485 0.019625986 0.18382938 0.01920248 -0.2042798 0.003988498 0.09873904 0.16622365
0.0692998 0.13656302 -0.015078434 0.10710201 0.029782223 0.062722854 -0.29701677 0.18607259
0.07732626 -0.09088282 0.06658116 0.4051541 -0.1617334 0.07060918 0.08476073 0.109116025
0.09169143 0.10153997 0.14736065 0.014268023 -0.23811822 0.36461997 0.06984428 -0.12071914
0.08413244 -0.05484414 0.061521053 0.013028706 0.2213383 -0.42048773 0.2201103 0.12516516

trunk.network.3.bias f4 [256]
00000000: b293 d83d 0953 783e e837 ce3a 0c54 ee3d
00000010: 2c60 1e3c e9e2 8d3c c22d c63c ec6f 023b
00000020: 2e89 623d 9831 503c 5cbe 6c3d 6f13 e53b
00000030: cfeb 8a3d 4011 ecba fdc3 7cbd ee3b f23d
00000040: e6ce 9b3d fa51 23bc 3052 8c3d 2993 0c3e
00000050: 9153 b33b ffbb e03b b641 cfbc 56ae fa3d
00000060: 49c7 cabc 2cd1 24bd cd0f 69bc d8ea 213d
00000070: e115 613d cb8a 0a3c 5929 643d 53a2 db3d
00000080: de84 433d 29c2 2e3d fd4c 073f 29f3 393e
00000090: b644 ce3d f5c1 10bd 443a 253d 4035 9ebd
000000a0: feee 4b3d 98ad a8bd e7cc 98bd a1d1 573d
000000b0: 422e 6ebc f80a 72bc ec16 2a3e cd32 193d
000000c0: e367 ca3d 05c5 07bc 8c9b 8f3d 4541 50bc
000000d0: fec5 943d 6686 5fbd 3075 7c3b 94e1 4d3d
000000e0: 8bd0 c03d a687 14bc ecb4 0e3e 4d63 df3d
000000f0: 6bd9 743c e9d0 1d3e 5b11 cf3d 3626 edbc
00000100: 8a74 343e 56b1 3c3e 58b4 063e d850 983d
00000110: f8e7 143e eef2 da3d 722e bb3c 71b8 ef3d
00000120: e9aa b73d 3b66 c43d 6586 813d 2403 0e3e
00000130: ff71 f13d 3754 a13d b0d4 ae3d 2a9f 90bc
00000140: 782c 5cbd 8e7f 403e 17b6 1d3e 2758 24bd
00000150: 8f94 be3d 3d97 a8bc c022 8f3d 1951 123d
00000160: 85e9 cf3d c696 bb3d e0b9 b83d c637 d43d
00000170: ccdb 18bc e46f 623e 4b8d 233e a44c 863c
00000180: 85b4 973d 9f13 15bd f82d 953b faa8 763d
00000190: 5dc4 25bc a9cb d9bb 8c12 543d 4923 303d
000001a0: c408 8a3d 8f28 303e f51e 6f3d 2701 913c
000001b0: daaf 913d c04d 5d3d 1352 d03d 0329 2fbc
000001c0: 9bc6 9ebb 0722 8e3d 491f 163c 995b 323d
000001d0: 7545 203d 4ad1 9b3d d43c 3c3e 6867 a13d
000001e0: a2ac 163e 8be0 33bd 7ad5 673e 29f8 d93c
000001f0: 0434 293d dc97 55ba ded0 2a3d 4f85 793d
00000200: 2121 64bd 4057 983d 9f47 913d 76e1 c13d
00000210: 4373 953d 4456 7cbc 9ada 8dbc a982 ac3c
00000220: 3dbf 6e3d 670a 283d abb4 a5bd db85 c93d
00000230: 9afb e23c 8797 b43d ecc1 833d ea84 853d
00000240: ca2e d73d e1e0 9f3c 1ae8 6f3c c9ce bf3d
00000250: 8bf4 aa3d 5e17 023e 8668 983d e5aa 093d
00000260: 0e61 b139 76a7 013e 105f b63d aaf1 8f3d
00000270: caa9 02ba ba1f 8fbc 4f11 a23d fc59 fe3c
00000280: 6da7 aa3d e96d 1e3d a0f7 0cbc 504d 02bd
00000290: 4bc3 a3bd 6b3d 013d d3fe 223d 373a 50bd
000002a0: 64f1 c13d 6224 2cbb 7b78 743d 30d8 963d
000002b0: 8b56 bfbd 5785 18bd 6e54 043e 2b38 d0bc
000002c0: b104 27bd 75e6 60bc e6d6 28bd 8daf 843d
000002d0: 5e5a cd3c 3116 003e b48b 503d 4c6b 173d
000002e0: a846 4a3d b4d3 1cbc 2cfe 053e 6893 ac3c
000002f0: b800 12bd f093 473e 4081 853d 3b6c 1d3c
00000300: 0e08 bd3d 5971 ee3d f700 3dbd 3fa5 183e
00000310: 0be1 8c3d 8e89 9b3d 68da b23d 3739 0e3e
00000320: 0ded ed3d dc7f a73d ca7a 78bc 7d2d 763e
00000330: c023 b93d 6017 c93d f7f0 5c3d 54ef dbbc
00000340: d86a 183f 696b a83d 15bc 9e3d b9af cfbd
00000350: b051 993c 4caa 983d 6dae 5b3d a129 9c3d
00000360: aea2 543d c664 97bd 8372 bb3d 3923 373d
00000370: 4719 17bc e3cb c23d 1dcf 8a3d f34d b83d
00000380: 252b f83d 8b75 123d cc0a 823d 90c0 3a3d
00000390: 7d8b e13d 4c93 8b3c f696 673d 1087 c13c
000003a0: e535 0cbd d93f 3b3d f5c0 823d ccc0 9a3d
000003b0: cb0e 3abd 373e c73d b031 dd3d e405 31bd
000003c0: 8e28 90bc 45fe 1e3e 6d0f 03bd 1037 d93c
000003d0: abd0 893c e60a 1bbd 87c1 eb3d 4c05 813d
000003e0: c797 093d 1ddf 933d db8a fd3d 0b20 333d
000003f0: dae6 873d b86d 863c 6bfb ea3d 2800 e8b8
0.10575046 0.24250425 0.0015733214 0.116371244 0.009666484 0.017320113 0.02419174 0.0019903136
0.055306606 0.012707137 0.05779873 0.006990842 0.06783258 -0.0018010512 -0.061710346 0.11827837
0.07607822 -0.009968275 0.068516135 0.13728012 0.0054726084 0.0068583484 -0.025299888 0.12240283
-0.02475323 -0.040238544 -0.014224959 0.039530605 0.054952506 0.008455942 0.055703495 0.1072432
0.047734134 0.042665634 0.5285185 0.18159164 0.10071699 -0.03534122 0.04033877 -0.077250004
0.049788468 -0.082362354 -0.07460957 0.052690152 -0.014537396 -0.014773123 0.16610307 0.037401963
0.09883096 -0.008286719 0.0701209 -0.012710874 0.072643265 -0.05457153 0.0038521998 0.050263956
0.094147764 -0.009065544 0.13936204 0.10907612 0.014944415 0.15411724 0.10110732 -0.028948884
0.17622581 0.18427023 0.13154733 0.07437295 0.14541614 0.106908664 0.022849295 0.11705101
0.089681454 0.095898114 0.06324462 0.13868386 0.11789321 0.07877391 0.08536661 -0.01765402
-0.053753346 0.18798658 0.15401493 -0.04012313 0.09305679 -0.020579929 0.0698905 0.035721872
0.10151962 0.09159617 0.09019828 0.103622004 -0.009329747 0.22112995 0.15971868 0.016393967
0.07407478 -0.036395665 0.004552599 0.060219742 -0.010117617 -0.0066465926 0.0517755 0.0430024
0.06739953 0.17202972 0.058379132 0.017700745 0.07113619 0.054029226 0.101719044 -0.01069093
-0.004845453 0.06940084 0.009162732 0.043544386 0.03912874 0.07608278 0.18382579 0.07881051
0.14714292 -0.043915313 0.22640029 0.02660759 0.04130937 -0.0008147934 0.041703098 0.06091815
-0.055695657 0.074385166 0.07093739 0.094668314 0.07297375 -0.015401427 -0.017316151 0.021058397
0.058287848 0.041025545 -0.080911 0.09839984 0.027707864 0.08817964 0.06433472 0.06519492
0.10506971 0.01951641 0.01464274 0.09365613 0.08347424 0.12704226 0.07441811 0.033610243
0.00033832382 0.12661538 0.089048505 0.07028516 -0.0004984407 -0.017471183 0.079134576 0.031048767
0.08332715 0.038679037 -0.00860396 -0.031812012 -0.079962336 0.031552713 0.0397938 -0.050836768
0.0946987 -0.0026266803 0.05968521 0.07365453 -0.09342679 -0.037236538 0.12922832 -0.025417408
-0.04077596 -0.01372682 -0.041220568 0.06478796 0.025067504 0.12508465 0.05091448 0.03696756
0.04938379 -0.009571958 0.1308524 0.021066383 -0.035645217 0.19490027 0.06518793 0.009608324
0.09230052 0.11642713 -0.0461435 0.14906786 0.06878861 0.07594596 0.08733064 0.13889013
0.116174795 0.08178684 -0.015165994 0.2404079 0.09040022 0.098189116 0.05394074 -0.026847519
0.5953803 0.08223612 0.077507176 -0.10140938 0.01871571 0.074543566 0.053633142 0.076251276
0.051912956 -0.07392268 0.09152701 0.044711325 -0.009222335 0.095115446 0.06777785 0.08999243
0.12117604 0.03575663 0.063497156 0.0455938 0.110129334 0.01703801 0.056540452 0.023623973
-0.034231085 0.045715187 0.0638446 0.07556304 -0.045424264 0.097286634 0.10800493 -0.04321851
-0.017597463 0.15526684 -0.031997133 0.026515514 0.016823133 -0.03785219 0.11511522 0.062998384
0.03359201 0.0722029 0.1238 0.04373173 0.06635828 0.01640974 0.114737354 -0.00011062651

trunk.network.4.weight f4 [256]
00000000: 7475 123f 27ab 7a3e 9463 8e3f 81cf 163f
00000010: 5725 5f3f d0c3 8d3f f16e 903f f235 3d3f
00000020: 36b4 4e3f b6d9 b03f d847 963f 6349 4a3f
00000030: 0ba6 8c3f ef25 233f e2f5 8d3f 2006 793f
00000040: 1e96 903f 5bad 903f 461b 513f 6d6c 133f
00000050: 8323 5b3f 01a1 4f3f 7b69 973f 6e54 7a3f
00000060: 6896 8a3f 01da a23f bf51 a73f e201 b13f
00000070: 2a0c 943f b9b9 333f eb1a 983f c75f 693f
00000080: 4e40 813f 7c7f 4d3f 0628 e73d 6049 173f
00000090: 7037 513f bc19 7d3f 9ac5 283f 6b79 af3f
000000a0: 3eb9 8b3f 6480 9b3f 1ca5 903f 4922 903f
000000b0: 2197 483f 5afb 993f cd83 493f 5c54 543f
000000c0: 0c67 8f3f c312 353f 35f6 a23f 0ad8 993f
000000d0: 4873 873f f83f 8a3f 8b24 5c3f 4117 4a3f
000000e0: b961 3b3f a43e ae3f b92b 523f 213e 9c3f
000000f0: 7188 aa3f 2702 9b3f 82b1 5d3f af7c 973f
00000100: ec82 653f 9865 2f3f 0ed4 863f 60ee 393f
00000110: 9faf 603f 9b9a 4c3f 1ec7 813f ddcb 6f3f
00000120: c576 413f 4d22 603f 6fc1 673f b9ff 783f
00000130: cd12 673f d6eb cb3e 34f4 813f 3589 953f
00000140: 75a7 953f 44d3 983e 35ed 273f caf1 213f
00000150: d4ab 943f 36a3 a53f 8b4c a33f 35c8 8e3f
00000160: 68ba 823f 82df 373f 0fb3 833f 39bb 7a3f
00000170: 10af 923f d3fb 643e 5787 163f d7ac 7f3f
00000180: a89c 883f 35eb 6f3f 28aa 893f 0b4d 343f
00000190: efbe 843f 58f0 763f 41fa b93f 7ee7 b03f
000001a0: a206 283f 0f5c 513f 8dca 823f 1383 6a3f
000001b0: 49d1 233f 6ba7 433f c066 2e3f d5a4 493f
000001c0: d6b6 913f 8b4a 913f 2b6e a53f 76f3 543f
000001d0: 4642 813f 4246 ad3f fe06 ba3e 992d 5a3f
000001e0: e9ae 153f 7b60 8b3f 6b53 323f 8205 643f
000001f0: ddd2 4d3f 2cf3 883f 6e44 363f 5895 2a3f
00000200: 99d6 9a3f d4d7 ae3f b22c 4c3f 6739 573f
00000210: f51d 6a3f dbc5 a93f 048b b63f 6407 af3f
00000220: 3e85 923f d2a5 8a3f a072 233f a184 2e3f
00000230: 270e 923f e504 813f d410 013f 404e 9d3f
00000240: e246 693f f6a9 763f d092 213f ea8f 503f
00000250: e267 533f eaa8 793f da5a 513f 759a 8d3f
00000260: 6a46 663f de74 053f 15d9 943f 1ecf 993f
00000270: ea66 a13f d363 b93f 337c 283f fedf 763f
00000280: f08e 813f fcd1 423f 3c7d 713f 0d14 8e3f
00000290: 261f 843f 2635 653f 4cf1 353f 2f4b 943f
000002a0: 0049 933f 0660 b13f 9e3a 913f d8c4 973f
000002b0: f99d c93f 1a10 863f a7fd ea3e f305 863f
000002c0: cc40 8b3f bbd7 983f b62d 783f ef89 5c3f
000002d0: c5bb 173f 1789 823f c4e9 883f ea17 943f
000002e0: fcf2 8b3f 698c b53f 9b17 713f a20f 563f
000002f0: 0cd5 913f a025 0f3f a86e 803f f01f 983f
00000300: e94f 463f f5f2 c33f ded5 933f a02a 2d3f
00000310: 9db8 873f aad2 a03f 8df2 6e3f a842 603f
00000320: b0eb 6b3f 884d 7d3f 06e6 873f cca4 e93e
00000330: 435a 873f 6b3c 8f3f 3d8c 883f bc01 af3f
00000340: 4e70 c43d 0915 843f f86a 873f 282f a83f
00000350: a64e a03f ffd9 ea3e 53a4 3e3f 2fae 623f
00000360: 8165 ad3f 1fbf b43f 96ee 663f f1ca b73f
00000370: 585b 683f 0c24 8e3f 0643 a63f 6c20 423f
00000380: 0787 803f 8483 7a3f 78c5 893f 90c1 383f
00000390: 75f8 623f 33dc 7f3f 2f02 0f3f baab 6d3f
000003a0: 21ca b93f 5431 963f ec00 843f cc9c 613f
000003b0: b807 593f d545 4b3f bf50 723f d7d0 593f
000003c0: 1695 5b3f 99fc cb3e a4ea 923f a025 973f
000003d0: 8621 693f a89e 493f 2260 2d3f e2fb 803f
000003e0: 1698 293f 0b12 a33f 3ac9 4c3f a587 293f
000003f0: cce8 553f fdef 5e3f a16d 733f b7a9 9e3f
0.5721047 0.24479352 1.1124139 0.58910376 0.8716635 1.1075382 1.1283857 0.7391044
0.8074373 1.381644 1.1740675 0.7901823 1.0988172 0.6372976 1.1090662 0.9727497
1.1295812 1.1302904 0.8168224 0.5758732 0.8560106 0.8110505 1.1829065 0.9778508
1.082715 1.272278 1.3071822 1.38287 1.1566212 0.70205265 1.1883215 0.9116177
1.0097749 0.8027265 0.11286931 0.59096336 0.81725216 0.9886739 0.65926516 1.3708929
1.0915906 1.2148557 1.1300387 1.1260463 0.78355604 1.2029831 0.7871674 0.8294122
1.1203322 0.70731753 1.2731386 1.2019055 1.0582056 1.0800772 0.8599326 0.7894173
0.7319599 1.3612866 0.82097965 1.220646 1.3322889 1.2110032 0.8659898 1.1834925
0.89652896 0.68514395 1.0533464 0.72629356 0.87767977 0.7992341 1.0138891 0.93670446
0.7557185 0.8755234 0.9052953 0.972652 0.9026306 0.39828366 1.015265 1.1682497
1.1691729 0.29848683 0.65596324 0.63259566 1.1614938 1.2940433 1.2757734 1.1154848
1.0213137 0.7182542 1.0289019 0.9794193 1.1459675 0.22361688 0.5880026 0.9987311
1.0672808 0.9371827 1.0755053 0.7043006 1.0370768 0.96460485 1.4529496 1.3820646
0.6563512 0.81781095 1.0218064 0.91606253 0.6399122 0.76427335 0.68125534 0.7876714
1.1383922 1.1350874 1.2924246 0.8318399 1.009835 1.3537066 0.3633346 0.85225827
0.58470017 1.0888819 0.69658536 0.89070904 0.80399877 1.069921 0.71198165 0.6663413
1.209674 1.3659616 0.797557 0.84071964 0.9145196 1.3263506 1.4261174 1.367413
1.1446912 1.0831854 0.6384678 0.68171126 1.1410569 1.0079619 0.504163 1.2289505
0.91123784 0.9635309 0.63114643 0.81469595 0.8258039 0.9752337 0.81779253 1.1062762
0.89951193 0.5213145 1.1628748 1.2016332 1.2609532 1.4483589 0.6581451 0.96435535
1.0121746 0.7610166 0.9433172 1.1099869 1.0322006 0.89534223 0.71071315 1.1585444
1.1506653 1.3857429 1.1346014 1.1856947 1.5751334 1.0473664 0.45896646 1.0470566
1.087915 1.1940836 0.9694475 0.8614797 0.5927089 1.0198087 1.069634 1.1569798
1.0933528 1.4183475 0.94176644 0.83617604 1.1393142 0.55916786 1.003377 1.1884747
0.77465683 1.530852 1.1549642 0.67643166 1.0603215 1.256429 0.93338853 0.8760171
0.92156506 0.9894643 1.0617073 0.45633543 1.0574421 1.1190313 1.0667797 1.3672404
0.09591733 1.031892 1.0579519 1.3139391 1.2524002 0.45869443 0.7446949 0.88547033
1.3546602 1.4120826 0.90207803 1.4358808 0.9076438 1.1104751 1.2989204 0.7583072
1.0041207 0.97856927 1.0763388 0.7217035 0.88660365 0.9994537 0.55862707 0.9284016
1.451481 1.1733804 1.0312781 0.8812988 0.847774 0.7940343 0.9465446 0.8508429
0.8577436 0.39841154 1.1477857 1.1808357 0.9106678 0.78757715 0.6772481 1.0076869
0.6624769 1.2739881 0.7999455 0.662226 0.83558345 0.87084943 0.95089155 1.2395543

trunk.network.4.bias f4 [256]
00000000: 50c9 15bf a4eb 49bf bb17 85be 815a 02bf
00000010: fc52 bfbe 7869 91be 48cb 92be 9a2f e0be
00000020: a47f b0be 9af9 61be 5486 80be 60f5 e3be
00000030: e6e6 bbbe 32f5 0fbf 8763 9cbe 1ffc 9abe
00000040: a468 8cbe 297d 1bbe 6446 d1be 81cf dcbe
00000050: 2dfd e1be 3b01 bdbe 93a6 9cbe b6b7 3fbe
00000060: 4371 b1be 6b24 63be 9d2d 86be 0d90 42be
00000070: 7487 06be ff87 03bf caf9 02be 0dcc 95be
00000080: ebc5 96be 7781 00bf d204 69bf 68f4 0fbf
00000090: 01f5 c7be 2c30 e9be 6a31 f1be ab55 51be
000000a0: 4850 40be 49c6 92be 0bb2 afbe e0dd 80be
000000b0: e570 f2be b817 90be fca8 a6be 326d ccbe
000000c0: 4f00 a8be 5ea9 01bf 3a31 64be d0fa 7abe
000000d0: b5e1 88be a6aa efbe 84c9 d0be 4648 e2be
000000e0: 4fa7 d2be 3ba2 5dbe 8efd bdbe bada 5dbe
000000f0: bd7c 8bbe d080 b3be 9cbe 9abe 877d 68be
00000100: d291 9dbe d9de 99be 0c63 92be f060 0dbf
00000110: 1bd0 c9be c582 cebe a451 abbe e691 83be
00000120: 105c fcbe 8b16 d5be 8de1 cdbe 46b2 a9be
00000130: ee2d 87be f7d4 25bf 54e4 babe 707f 98be
00000140: 0e52 bdbe 2eb7 31bf 0dff e5be 4ce5 01bf
00000150: de26 78be 8029 0fbe 0bf7 acbe e508 85be
00000160: 5ac9 62be ca54 d5be ae2d d0be 5e4c 76be
00000170: 1879 a2be 35ed 4cbf cb6a f0be 20c8 a6be
00000180: edcd b6be 8009 d6be 1058 90be c374 f8be
00000190: 63ac abbe e388 aebe 4de7 22be 953c 90bd
000001a0: 73f9 fcbe efd3 ecbe 3f98 98be 10a0 cbbe
000001b0: dfde 0ebf 53f3 dcbe 7bfc ecbe 3f68 e6be
000001c0: 7196 adbe 6280 50be 8be2 03be cff9 c6be
000001d0: e202 91be 4242 21be db1f 2cbf 903b 72be
000001e0: fd17 0abf dfb8 5ebe 6348 02bf 4a95 d0be
000001f0: 7e63 edbe bd0a b5be f64f f3be 7222 01bf
00000200: 7596 1cbe b8c3 7abe e0c0 dabe aba3 0abf
00000210: a546 eabe d589 83be 2824 3cbe 4d7b 3abe
00000220: 5154 9abe db88 50be cf37 01bf 7689 c4be
00000230: 51d2 c7be 8dcd 8ebe e6c3 14bf a923 5abe
00000240: b50d cfbe a78e 88be c3df 11bf f4c8 9cbe
00000250: 56a8 f1be 6eef abbe b04b c7be dc36 c8be
00000260: 94bc 99be 2fc4 13bf e025 82be 378a 2cbe
00000270: 20c5 90be 53e5 65be 3ea5 d2be 06cd cebe
00000280: e44e c0be 4902 a9be 8665 b2be ad89 89be
00000290: 3ad5 edbe 7b31 a1be 1677 02bf 8ca8 53be
000002a0: c356 53be 854c 84be d327 1fbe af2c 83be
000002b0: 0907 35be 51ba a6be f726 07bf 3cb4 acbe
000002c0: 3f4f cebe 1d76 7bbe 5a80 d9be 8062 bdbe
000002d0: 3272 13bf 1893 a0be 845e 9ebe 9660 aebe
000002e0: 7928 49be 6629 74be b164 a6be 66f6 c8be
000002f0: 311c 8abe 9302 0cbf 0fad bbbe 2165 4cbe
00000300: 55ea e5be 98cb 43be 1d45 47be 09ef 08bf
00000310: f27b 86be 05d4 19be 1e1f 94be 5dfb aabe
00000320: 2ae4 abbe adb6 9abe fe3f d3be 871d 1ebf
00000330: 00be ebbe fcda 97be fb14 6abe 4617 8ebe
00000340: 2580 60bf d925 d0be a78f 52be 9397 73be
00000350: c0af 19be 0b17 10bf 1328 fabe 8b04 d0be
00000360: 6bc8 c3bd 14e3 51be 2a1f b9be 677b 58be
00000370: 314a d3be cce3 8bbe 3cf0 28be aa0a 05bf
00000380: 96b9 aebe 6ca1 47be 82ca 8ebe 9dad e0be
00000390: bb3f a0be 5653 b0be a048 12bf a0e9 c8be
000003a0: 9596 55be c67b 96be f20b 7abe 912f c8be
000003b0: 5a34 e4be 47a8 babe 4c78 bcbe 3982 c7be
000003c0: 9825 03bf fdf6 19bf b1cc 6cbe 57f2 71be
000003d0: efec c6be b109 b5be b500 febe 4d6b c7be
000003e0: 7afe 0abf deea 29be fee1 0cbf 3693 02bf
000003f0: 54f3 9ebe a63f 9cbe db7f bfbe f924 8cbe
-0.58510303 -0.78875184 -0.25994667 -0.5091935 -0.37368 -0.2840078 -0.28670716 -0.43786317
-0.34472382 -0.22067872 -0.25102484 -0.44523144 -0.366996 -0.56233513 -0.30544683 -0.30270478
-0.27423584 -0.15184464 -0.40874016 -0.43127063 -0.4413847 -0.36915 -0.30595836 -0.18722424
-0.34656724 -0.22181861 -0.26206675 -0.19000264 -0.13137609 -0.5137939 -0.127906 -0.2925724
-0.29447874 -0.5019755 -0.9102298 -0.5623231 -0.3905411 -0.45544565 -0.47108012 -0.20442836
-0.18780625 -0.28666905 -0.34315524 -0.25169277 -0.47351757 -0.28143096 -0.325508 -0.3992706
-0.32812735 -0.5064906 -0.22284403 -0.2450974 -0.267347 -0.46809882 -0.40778744 -0.44195765
-0.4114327 -0.21643917 -0.3710751 -0.21665469 -0.27243605 -0.35059214 -0.30223548 -0.22704135
-0.30775315 -0.30052832 -0.28591192 -0.5522604 -0.39416584 -0.40334144 -0.33460724 -0.2569725
-0.49288988 -0.4161876 -0.40211144 -0.33143824 -0.2640223 -0.64778084 -0.36502326 -0.29784727
-0.36976665 -0.69420135 -0.4492115 -0.50740504 -0.24233577 -0.13980675 -0.3378223 -0.25983348
-0.22147122 -0.4166625 -0.4065985 -0.2405257 -0.31733012 -0.8004945 -0.46956477 -0.32574558
-0.35703984 -0.41804123 -0.28192186 -0.48526582 -0.33529958 -0.3408881 -0.15908547 -0.07042805
-0.49409065 -0.46255443 -0.29803655 -0.39770555 -0.55808824 -0.43154392 -0.46286377 -0.45001408
-0.3390384 -0.20361474 -0.12879388 -0.38862464 -0.28322512 -0.15747932 -0.6723611 -0.23655534
-0.53942853 -0.2175021 -0.50891703 -0.407389 -0.4636497 -0.35359755 -0.47521943 -0.50443184
-0.1529177 -0.24488723 -0.42725277 -0.5415599 -0.45757023 -0.25691095 -0.18373168 -0.18211098
-0.30142453 -0.20364706 -0.5047578 -0.38386124 -0.39027646 -0.27891198 -0.5811142 -0.21302666
-0.40440145 -0.26671335 -0.5698206 -0.30622065 -0.47198743 -0.33581108 -0.38924932 -0.39104354
-0.30026686 -0.5772123 -0.2541952 -0.168496 -0.28275394 -0.22450761 -0.41141695 -0.40390795
-0.3756019 -0.33009556 -0.3484308 -0.2686285 -0.4645174 -0.31483063 -0.5096296 -0.20669764
-0.20638566 -0.2583963 -0.15542535 -0.25620028 -0.17678465 -0.32564023 -0.5279383 -0.33731258
-0.40294835 -0.24556775 -0.42480737 -0.36989212 -0.57596123 -0.31362224 -0.30931485 -0.34058064
-0.19644345 -0.23843917 -0.32498696 -0.39250487 -0.26974633 -0.5469143 -0.3665547 -0.19960453
-0.44905344 -0.19120634 -0.19459958 -0.5348974 -0.26266438 -0.15022285 -0.2892999 -0.333949
-0.33572513 -0.30217496 -0.4125976 -0.61763805 -0.46043396 -0.2965926 -0.22859566 -0.2775213
-0.87695533 -0.40653875 -0.20562612 -0.2378829 -0.1500845 -0.5628516 -0.488587 -0.40628466
-0.09559711 -0.2049678 -0.3615659 -0.21140824 -0.4126754 -0.27322233 -0.16497892 -0.519694
-0.34125966 -0.19495171 -0.27888876 -0.43882456 -0.31298622 -0.3443858 -0.57142067 -0.39240742
-0.20858224 -0.29391307 -0.2441862 -0.3909879 -0.4457119 -0.3645651 -0.3681053 -0.3896654
-0.5122924 -0.601425 -0.23124959 -0.23627602 -0.3885264 -0.35358956 -0.49609914 -0.38949051
-0.5429455 -0.16593501 -0.55032337 -0.51005876 -0.3104502 -0.3051731 -0.37402233 -0.27371958
