canonical_models/6actor.pt (torch, 551461 bytes, 14 tensors)

trunk.network.0.weight f4 [256, 9]
00000000: 0ab5 b1ba a342 6ebe fabf cebc 0797 073f
00000010: 3cf7 bbbe 5e0d 9d3d ad5c 3b3e cc19 f3bd
00000020: 4f7b 35bd cd2d 613c a5ad e93d 8bf6 34bd
00000030: 37f1 0f3f 36fc cdbd 137a 443d b00d 813e
00000040: 7774 803b abd6 a23e 457e de3d 71b4 21bd
00000050: 60f0 c23d 59c2 aa3e 3ce6 e4be 581a 93be
00000060: a1ad 593e 3ff6 3b3e 71b5 a43e 4bbd cdbd
00000070: 730b 9b3d 2783 ce3e b2cb 813e 5c73 bebd
00000080: 0e00 283e dbed ddbe 1a15 04bd abaa 3a3e
00000090: 426a 313e 7dea 0bbe 2488 14be ef24 1ebd
000000a0: 0178 ad3e 2e65 3d3d 2f26 cfbb b061 0f3e
000000b0: b75f 1e3e c721 6ebe 2bcd 32bd a3d0 86bd
000000c0: 60c5 903d 7ea2 ccbd cdeb d8bd 112f ca3d
000000d0: 7ca5 91bc 5115 a33d 4f2d 05be dfe2 893d
000000e0: 9939 57be 7d46 9b3d f3f6 b63d 2586 4d3e
000000f0: 2e0d 9f3d e340 79bc 33c5 a9be 69c1 5c3e
00000100: 8e06 d2be 2e8a a838 2cc2 25be b2e1 b5bd
00000110: ee80 4a3e 8fcf eb3d 96c3 d43d b5e2 af3d
00000120: 17d6 5dbe 6c4f f9bd 1353 f2bc b9da 6bbe
00000130: cc45 91be 018c 183e 17ee 7abd 2230 bb3c
00000140: 7e32 373e 0f8f 80be 3fe9 87bc 0fee 2fbe
00000150: 414a 5e3d 0ce9 5cbe 2f7f 9abe 9ae9 3c3e
00000160: 65a1 803d 7f86 ddbd 7518 ff3b a271 3ebe
00000170: 3382 f83d 3326 823d a8e9 69bd 9e68 0dbd
00000180: 3cf3 883d a46d 0d3e e682 9d3e be83 d7bd
00000190: 7df0 753e 60d4 9b3d 4d5c ac3d db2d 52be
000001a0: 1949 913c 069b 423e 661e c5bd efe8 b8bc
000001b0: b219 1ebe 2f3c 4b3e 464b 17be 27f8 db3c
000001c0: f87c 63bd fffd 7d3d 6933 d73d 066c a3bc
000001d0: c9e5 833e 363b e2bd ce67 82be 0b18 96bd
000001e0: b4c9 8f3e 0cc1 603d 4808 8bbd 3ffe 1b3e
000001f0: 1f62 8bbd 2bc6 51be 59b7 a6bd a6de 143f
00000200: ccac bfbc 6eea 13be fed0 58be f6a3 e93c
00000210: 0c71 20bf 626b d23d f0cd 843e b394 df3d
00000220: 6d63 033e 018b 78bd 015d a53d 7a95 cb3d
00000230: 6787 ac3d da59 ae3e 463c f13d 4724 9cbc
00000240: bed5 22be 6b47 b6bd 5fbd bc3c c338 1e3e
00000250: 5578 923e 9c6a 9fbe 802f c03d cfba 49bb
00000260: 86b1 8bbd 4c7d debd 2511 223e 44e8 d4bd
00000270: d3fe 8c3d 85c3 39be 9acc 33bd cd99 653e
00000280: c202 2f3e 9859 8cbe 8e99 383d e249 dcbe
00000290: 77cc da3b 8798 0e3e 5ea3 ca3d a4eb fd3d
000002a0: aba7 d2bd c948 06bc 8a3c 5b3c 72c7 1cbe
000002b0: 246d 163d fc19 553c d8a7 0bbe cbec 8c3e
000002c0: b3d1 bb3d abe2 4b3e 59ca 39bd 94b3 673e
000002d0: a9da a13d 89f3 c83b 7956 81bd e4b3 873e
000002e0: 7136 56be bd18 253e 3deb c3bd da95 343e
000002f0: b405 36be caa7 50be 806c 3ebd 8088 2dbd
00000300: 892b cb3d 4ca5 b43c e88c 213d 7cef bb3d
00000310: 6459 183e 9213 ad3d 36e6 1cbe 03ce 83bd
00000320: d82e 24bd 53b6 32be ac7a 45bd 347b e53d
00000330: 28d0 2a3e 8665 163e 8a72 b33d 05f3 febd
00000340: 0c45 0abe 32d0 203d 2ff8 683e 6208 60be
00000350: b1e2 b9bd 1921 87be 9547 343e b8a7 193e
00000360: 33e0 633e 8b38 a1bd 54d6 3bbe 457c ea3d
00000370: 0220 85be 139d 813e f5b3 eebd 6403 8f3e
00000380: 24a3 6bbd 8258 0ebd 088a 163e 792b 34be
00000390: cdcc 493d 9f5d e93d 262a 8dbd f9e9 ae3d
000003a0: 9885 6e3e dcdd 90be 4eca 6ebe 55b7 523e
000003b0: 89bd 543d 0b1c 133e db6c 983c 64e9 143d
000003c0: 5753 2a3e dcf0 9fbe cb92 a73d 647d 143e
000003d0: 18af 08bc 7054 c13d aa43 a33d a00b 80bd
000003e0: 559a be3d cda5 f0be e01e 663d aa86 b43d
000003f0: 3459 afbd a928 16be f180 eb3d b6e5 e4bd
-0.0013557982 -0.23267607 -0.025238026 0.52964824 -0.36712062 0.07668565 0.18297072 -0.11870155
-0.04430705 0.01374383 0.11410073 -0.044180434 0.5622744 -0.10057871 0.04796798 0.25205755
0.0039201337 0.31804404 0.10863928 -0.039478723 0.09518504 0.333514 -0.44706905 -0.28731036
0.2125764 0.18355654 0.3216968 -0.100458704 0.07570543 0.40334436 0.2535072 -0.09299347
0.16406271 -0.43345532 -0.032246687 0.18229167 0.1732569 -0.13663669 -0.14505059 -0.03860944
0.33880618 0.04623907 -0.0063216905 0.14002109 0.154662 -0.23255073 -0.043652695 -0.06582763
0.07068896 -0.099919304 -0.105918504 0.098722585 -0.017779104 0.0796305 -0.13005565 0.06732725
-0.21018066 0.07581804 0.089338206 0.20070703 0.07766186 -0.015213224 -0.33158264 0.21558155
-0.41020626 8.036602e-05 -0.16187352 -0.088809386 0.19775745 0.11514198 0.103888676 0.08588163
-0.216637 -0.12173352 -0.029580628 -0.23032655 -0.28373563 0.14897157 -0.061262216 0.0228501
0.17890355 -0.25109145 -0.016590713 -0.17180656 0.054270033 -0.21573275 -0.30175158 0.18448487
0.062807836 -0.10816669 0.007784898 -0.18598035 0.121342085 0.06354942 -0.057107598 -0.0345236
0.06687018 0.13811356 0.3076393 -0.10523175 0.2401752 0.07608867 0.084160425 -0.20525305
0.017735051 0.19004449 -0.09624939 -0.022572009 -0.1543949 0.19847177 -0.14774808 0.026851727
-0.0555391 0.062009808 0.105078526 -0.01994897 0.2576125 -0.1104645 -0.25469822 -0.073288046
0.28083575 0.054871604 -0.06788689 0.15233706 -0.068058245 -0.20485751 -0.081404395 0.58152235
-0.023397826 -0.14444897 -0.21173474 0.028520565 -0.62672496 0.10274388 0.25938368 0.10917034
0.12830897 -0.06067944 0.0807438 0.0994062 0.084242634 0.34052926 0.11779074 -0.019060267
-0.15901849 -0.08900341 0.023039518 0.1545134 0.2860743 -0.31136024 0.0938406 -0.0030781513
-0.06820969 -0.10863742 0.15826853 -0.10395864 0.06884541 -0.18140991 -0.043896295 0.22421952
0.17090896 -0.27412105 0.045068316 -0.43025118 0.006677206 0.13925372 0.09894441 0.123984605
-0.102858864 -0.008196064 0.013381133 -0.15310457 0.03672518 0.013006683 -0.13638246 0.2752441
0.09170856 0.19910686 -0.04535899 0.22627097 0.07903034 0.0061325473 -0.063153215 0.26504433
-0.20919205 0.16122718 -0.095663525 0.17635289 -0.17775613 -0.20376506 -0.046490192 -0.042366505
0.09920413 0.022051476 0.03944102 0.091765374 0.1487785 0.08450998 -0.15322194 -0.06435778
-0.040083736 -0.17452364 -0.048212692 0.1120514 0.16680968 0.14687166 0.08762081 -0.12448696
-0.13502902 0.03926105 0.22750925 -0.21878198 -0.09076441 -0.2639244 0.17605431 0.15005386
0.22253494 -0.07872113 -0.18343478 0.11449484 -0.26000983 0.2531515 -0.11655418 0.27932274
-0.05752863 -0.034752376 0.14701092 -0.17594709 0.04926758 0.1139481 -0.06892805 0.085407205
0.2329315 -0.28294265 -0.2331936 0.20577748 0.051938567 0.14366166 0.018606594 0.03635539
0.16633354 -0.3123845 0.081822954 0.14500958 -0.008342527 0.09439933 0.0797189 -0.06252217
0.0930678 -0.47001496 0.05618179 0.08814748 -0.08561936 -0.14663948 0.11499203 -0.111766264

trunk.network.0.bias f4 [256]
00000000: fdde edbd 01ba edbd 349d 323d b114 3dbe
00000010: f63c 9f3e 7eda 833e 7edd 0dbd 5d14 97bb
00000020: 923d fb3c 6a1f 363e 38a2 92be 187a c03e
00000030: 0802 833e 2291 03be 62f1 a93d 9620 5f3d
00000040: 8da5 e83d 8cb8 353e db77 8c3c 343c 5bbe
00000050: 2560 653e 307b c33d be4a c13d a455 d43d
00000060: 0591 6abe 4a64 8b3e d6ce 9b3d 1bf2 853d
00000070: 3227 cd3e 2a98 26be 152a 5e3e e22c cc3e
00000080: b5db 5c3d 9318 873d 8f85 3f3e 82a5 953e
00000090: afd1 88bd 17bd b63e 5251 55be 412c 893c
000000a0: 06f2 febd 058f 753e d640 0ebc 4a2e 543e
000000b0: d37f 9f3e d504 97bd 0768 25be 0869 933d
000000c0: ea72 f83d 5a25 403d d349 c83d 820e cb3d
000000d0: ce9f 4bbd 7215 afbe 8410 88bd c7f2 733d
000000e0: 48c1 a6be cc44 ce3d bac2 123e dada 3b3d
000000f0: 3963 c53e d016 383e 7526 e1bd a049 bd3d
00000100: 88d8 c23e 7276 9e3e c4dd 0cbe c444 8c3e
00000110: d867 0bbe 8f57 413a 375f 03bd fb8b 763e
00000120: a8bc 67be 18dd c33e 0b26 523e f2f9 9e3e
00000130: f49b 863e 8df9 84be 2cfc abb8 784b 61bd
00000140: 1840 723e a808 07be 43de 7a3e b38e 063e
00000150: 6fee ab3e ce42 15be ff8e 3f3e 9414 a73e
00000160: ef50 8d3e f386 103e fcc0 02be 27aa ae3e
00000170: 1262 dbbb 4b76 843e e8e8 213d a345 92be
00000180: c978 833e a725 563e 7176 623e cbbe b23c
00000190: c271 513e 19ac 923e f6f6 9d3d 58ec 85be
000001a0: e58d ad3e fd57 213d c878 1abd 3ffa a43d
000001b0: 57c2 943e edac 08be 20b7 d73e a8d5 35bd
000001c0: 807f ecbc c399 cfbc f7ee 22bd 06d8 5e3e
000001d0: 46b0 1c3e 68af c03c 7c6c d93e 522c 353e
000001e0: 4a7a e2bd dde7 033d bac3 ecbc 295a 243d
000001f0: 1520 3ebe 98ed 73be 5a86 28bd c8fe acbd
00000200: a8a8 75bd a21c a03e 70ec 84be 1659 99bd
00000210: 4c1f 4bbe 5b04 703e 1ab3 89be 4ddd c3bb
00000220: a6c6 1fbd 12e5 753e 9923 343e 3e92 b43e
00000230: 449c 64bd f7e1 db3d ed7b 9bbe d01a 33be
00000240: c804 25be e286 543e bcd2 0c3e 6e69 57bd
00000250: 5af0 7d3e 734c 243e b355 e9bd 8f12 4c3e
00000260: 6802 84be 7f2f 71be 355d f13d 6f98 4abe
00000270: 1b44 b93e 8e12 963e 62c0 2a3e b4db a2be
00000280: 7be4 a33e 8d31 383d 50d3 01be fc59 463c
00000290: 3d6c 00be ceca 8abe 9c08 6abe b71f 16bd
000002a0: 154f 7cbd e4bd 63be 8f79 6bbe 306b ad3d
000002b0: a8da 573e 92f8 e43c 1000 47bd 1a4c b23e
000002c0: 3817 a73e 53e4 073e 9411 3dbe 5011 a6be
000002d0: a2a4 d1bd bb7a 75be 70c8 d83d 7332 ab3e
000002e0: bdaf bebd 88e6 333e 892f 2f3e e4ec b93e
000002f0: f3f5 423d d9c1 42bd 3ce6 883e d6cb f4bc
00000300: aee1 603e 033c d03a 86bc 01be 3b18 73bd
00000310: d4b5 3dbe 47a9 14be 6a78 d6bd 568b aebd
00000320: 3fac ba3e 3c22 bebe ebdc 703c 0356 473e
00000330: d934 41bd 50d0 853c c659 113e d1f2 593e
00000340: daf8 adbe 7c09 723d ac59 a1be cdcd c2be
00000350: 624d a2be aa2c 773e 3efa d33e 4fab 59bd
00000360: e646 64be 92fa 253e 8074 77be ebd1 15be
00000370: f346 24be 8c2f 483e e120 c43e c528 e73c
00000380: aff5 eabd 1a87 263e 7c93 673d f843 ff3d
00000390: c66e 16be 41be 033e 46d4 27be 302c 843e
000003a0: 8d9c 90bd cd9d c03d dafb d3bd 9849 c9bd
000003b0: d39a 853d 97c9 983e e7d9 90be 34de a63e
000003c0: c8dd 5bbe d05e 323e 4721 ea3d 5af7 67bd
000003d0: a66b 3c3e c8a3 5ebe 3901 993e a26c a83c
000003e0: a081 1a3d de98 833e 830a a33d 8810 55bd
000003f0: 4599 0cbe b45f 0e3d 6b0f 46be 1ea8 a23e
-0.11614797 -0.11607743 0.04360695 -0.18464924 0.31101197 0.25752634 -0.03463506 -0.004610582
0.030669007 0.17785421 -0.28639388 0.3759315 0.25587487 -0.12848333 0.08297993 0.054474436
0.11359701 0.1774618 0.017146995 -0.21409684 0.22399957 0.095449805 0.09438084 0.10367897
-0.22906883 0.27224952 0.0760781 0.065403186 0.40068966 -0.16268983 0.2169574 0.39877993
0.053920466 0.06596484 0.18703292 0.29227835 -0.06680619 0.3569114 -0.20831802 0.016744735
-0.12448506 0.23980339 -0.00868245 0.20720783 0.3115221 -0.073739685 -0.16152965 0.071977675
0.12131293 0.04691062 0.09779706 0.099148765 -0.04971295 -0.3419605 -0.06643775 0.059557702
-0.32569337 0.10071716 0.14332095 0.04586301 0.38552263 0.17977452 -0.10993663 0.092425585
0.38055825 0.30949742 -0.13756472 0.27396214 -0.13613832 0.0007375413 -0.032073226 0.24076836
-0.2263056 0.3825462 0.20522325 0.31050068 0.26290858 -0.25971642 -8.200886e-05 -0.055003613
0.23657262 -0.13186896 0.24498849 0.13140373 0.33580348 -0.14576265 0.18706892 0.32632887
0.2760081 0.14113979 -0.1276893 0.3411419 -0.0066950405 0.258715 0.039528757 -0.28568754
0.2567809 0.209128 0.22115494 0.021819493 0.20453551 0.28646925 0.0771312 -0.26156878
0.3389732 0.039390553 -0.037712842 0.08055543 0.2905452 -0.13347216 0.421319 -0.04439321
-0.02886939 -0.025341874 -0.039778676 0.21762094 0.15301618 0.02352114 0.4246558 0.17692688
-0.11058481 0.032203544 -0.028901923 0.040125046 -0.18566926 -0.23821104 -0.041143753 -0.08447033
-0.059975296 0.31271845 -0.25961637 -0.07487695 -0.19836158 0.23439161 -0.26894456 -0.005977309
-0.039007805 0.24013165 0.17591704 0.35267824 -0.05581309 0.10736459 -0.30367985 -0.17490697
-0.16115105 0.20754579 0.13752264 -0.05259078 0.24798718 0.16044788 -0.11393299 0.19928955
-0.25783086 -0.23553275 0.11785356 -0.19784711 0.36184773 0.2931103 0.1667495 -0.31808245
0.32010254 0.04496913 -0.12678266 0.012106415 -0.1254129 -0.27107853 -0.22854847 -0.03665134
-0.061598856 -0.22240406 -0.2299559 0.0846771 0.21079504 0.027950559 -0.048584044 0.34823686
0.32634902 0.13270693 -0.18463737 -0.32435083 -0.10236479 -0.23972599 0.105851054 0.33436927
-0.09310863 0.1756841 0.17107977 0.36313546 0.047597837 -0.04754815 0.26738155 -0.029882353
0.2196109 0.0015887026 -0.12669572 -0.05934928 -0.18526393 -0.14517699 -0.10472186 -0.0852267
0.36459538 -0.37135494 0.014701108 0.19466405 -0.04716954 0.016334683 0.14194402 0.21284033
-0.3397892 0.059091076 -0.31513727 -0.3804764 -0.31699663 0.24138132 0.41401857 -0.05314189
-0.2229267 0.16208866 -0.24165535 -0.14630859 -0.1604269 0.19549388 0.38306335 0.028217683
-0.11472642 0.16262475 0.056537136 0.12464136 -0.14690694 0.12865545 -0.1638957 0.25814962
-0.0706111 0.09405098 -0.10350771 -0.0982849 0.06523671 0.298413 -0.28291246 0.32591403
-0.21471322 0.1741898 0.114321284 -0.056632377 0.1840044 -0.21742165 0.29883745 0.020559613
0.037721276 0.25702566 0.07960989 -0.05201772 -0.13730343 0.03475924 -0.19341819 0.31768888

trunk.network.1.weight f4 [256]
00000000: c57a 9f3f 000f a33f 7c0e ce3f 7407 bb3f
00000010: 3c13 7b3f ab36 133f 0b58 933f b81a 9e3f
00000020: 3437 1c3f 74ba 963f b87a 763f cb67 8c3f
00000030: c9db 763f 8713 953f 6378 783f f6ec 8a3f
00000040: 82e3 583f 6bfb 443f 0648 6d3f aec9 4c3f
00000050: dfbd 6b3f 83b5 b23e f73e ca3e 2170 663f
00000060: 31be d13f 146d 8b3f 1d03 b53f cfae 9b3f
00000070: c061 5c3f 278b 493f 4f2f 973f 2b10 3e3f
00000080: ff32 9e3f e156 983f ce08 853f 905f 583f
00000090: d548 bd3f a964 4e3f 31a8 113f 521c 5e3f
000000a0: 6ec6 b93f 2010 6d3f ea5e a13f 0c6b 893f
000000b0: cb5d 773f 8225 cb3f dcb1 923f 892c 1e3f
000000c0: 6c51 673f eeda 9c3f 99ff b93f 5e23 083f
000000d0: 715e 4b3f 1155 c53f ff82 c93f 53bf 423f
000000e0: 086a a33f 8003 613f f321 433f 3816 353f
000000f0: 37b3 4b3f 1020 953f 0e4d a13f 092e 6b3f
00000100: 5be6 603f f61f ce3e 0063 8e3f ac0a a13f
00000110: 954c 9f3f 5814 c33f 5416 283f ee9c 863f
00000120: 3425 c33f 21be 923f 9fae a83f 4bfc 9c3f
00000130: 44ff 203f 748c a63f 1abd c93f 3efc 963f
00000140: cecd 8f3f 5892 683f e47d 1f3f 4ecb a03f
00000150: 2ac2 4f3f 2fec ac3f 6618 d33e aac3 2e3f
00000160: 0bfa 363f 7c5d 8f3f ae06 bd3f 1378 583f
00000170: ce36 8b3f 8ef2 ad3f 6204 4d3f 6ebb 573f
00000180: 6b0a 893f 432d 653f 2802 2f3f d2f5 a73f
00000190: 0b18 b13f 7e23 4d3f 9a7a 6b3f 93c0 763f
000001a0: 0842 763f 332b 673f 1ddc 853f 8be6 2a3f
000001b0: 0ca8 0d3f 6d5f 143f b6b0 743f 6ace 913f
000001c0: 675b 6d3f 1abf 263f a9fa 633f aa68 c83f
000001d0: aa89 d43e 57ae 3e3f d588 a63f 5094 5e3f
000001e0: 0f53 833f 39e4 743f 3353 e53f b79a 8d3f
000001f0: 6728 c43f cd01 893f 5ce5 923f 3092 213f
00000200: 3ebb a03f c4a8 173f 8e88 933f deec f33e
00000210: 36ef c93f 94a6 823f 22ff 1e3f 193a 8d3f
00000220: 5b60 3d3f 8dd6 8a3f 7666 f93e 6b45 ad3f
00000230: fc4d 603f 5afb d33f f8e4 8e3f 7408 c43f
00000240: 41c7 7f3f 5145 423f 125f 783f 57b7 a33f
00000250: 0ad8 843f b1f3 2a3f 0252 4d3f a73f 873f
00000260: e67b 943f 7f53 583f 4a47 9b3f ed37 2c3f
00000270: 6ef4 993f f238 0a3f 8498 9c3f 6c5b 303f
00000280: de83 e23f 2299 723f 72e3 fe3e a427 aa3f
00000290: 0b46 b23f 8225 5e3f 513f 8a3f ed1c 7d3f
000002a0: 3827 4e3f 161e ac3f 9060 8f3f f448 8a3f
000002b0: 497e 3d3f f3e5 9b3f 5315 a73f 2894 843f
000002c0: 1aff 273f 457f c03f c8bd 463f f3c7 6e3f
000002d0: ae87 a93f 2701 993f cb51 9b3f bd79 5e3f
000002e0: 29d5 bc3f 1639 813e 661c 8c3f 989a 303f
000002f0: a747 593f 8969 703f 519e 253f fddb c93f
00000300: afe9 b73f 8fd5 803f 0e0b 8b3f 0714 123f
00000310: b307 973f d9f0 863f 95c5 7e3f 43a1 333f
00000320: bee0 903f bfda a43f a1d4 373f 6e4b 453f
00000330: a49c b33f 3d7c 5c3f 7ddb 563f 9acb 903f
00000340: 29fa 873f e5c6 cd3f 5495 af3f bee8 483f
00000350: 119c ab3f c820 7f3f f83e 883f 76aa 923f
00000360: c73b ac3f c780 8a3f 26e4 833f 24d9 cc3f
00000370: 09fe 233f 4b75 f93e f532 063f 0af1 8d3f
00000380: 728f 7e3f 2b73 9a3f e9e3 473f f44b a13f
00000390: 1c04 243f f9ee 2c3f 76d8 5a3f 241b 423f
000003a0: e603 8a3f ea90 6b3f 193b 993f 11be 9f3f
000003b0: b950 4b3f f279 4a3f c4d1 933f 3131 7f3f
000003c0: 9b15 333f 00da ce3f 8d25 c33e 2a06 d83f
000003d0: 1a12 293f 2e29 813f a3df e83e 1e67 7c3f
000003e0: b13e 8f3f 3770 323f 24a0 2f3f 74cd c13f
000003f0: 4378 893f 44f9 843f 3061 2e3f de48 543f
1.2459341 1.2738953 1.609817 1.461165 0.98076224 0.5750529 1.1511244 1.2351904
0.61021733 1.1775651 0.96281004 1.0969175 0.96429116 1.1646584 0.97058696 1.0853565
0.8472215 0.76946133 0.92688024 0.7999524 0.92086595 0.34904107 0.39501163 0.90014845
1.6386167 1.0892663 1.4141575 1.2162722 0.86086655 0.78727955 1.1811312 0.7424342
1.2359313 1.1901513 1.0393312 0.84520817 1.4787852 0.80622345 0.56897265 0.86761963
1.4513681 0.9260273 1.260709 1.0735793 0.9662749 1.5870821 1.1460528 0.61786705
0.90358615 1.2254312 1.4531127 0.53178966 0.7944098 1.5416585 1.5743102 0.7607319
1.2766733 0.87895966 0.7622368 0.7073703 0.79570335 1.165041 1.260164 0.9186712
0.87851495 0.4025876 1.1123962 1.2581382 1.2445246 1.5240583 0.6565907 1.0516641
1.5245728 1.1464273 1.317829 1.2264494 0.62889504 1.3011613 1.5760834 1.1795728
1.1234682 0.908483 0.6230147 1.2562044 0.81155646 1.3509578 0.41229552 0.6826731
0.71475285 1.1200404 1.4767663 0.8455822 1.08761 1.3589647 0.8008481 0.8427037
1.0706304 0.8952219 0.68362665 1.3121893 1.3835462 0.8013228 0.9198395 0.96387595
0.96194506 0.9030029 1.0457798 0.6675803 0.55334544 0.5795811 0.9558214 1.1391118
0.92717594 0.6513535 0.8905435 1.5656941 0.4151128 0.7448477 1.3010508 0.86945057
1.0259722 0.9566074 1.7916015 1.106284 1.532483 1.0703675 1.1476245 0.6311369
1.2557142 0.5924189 1.1526048 0.47641653 1.5776126 1.0207086 0.6210805 1.1033355
0.7397515 1.0846726 0.48710984 1.353681 0.87618995 1.6561081 1.1163626 1.531508
0.9991341 0.7588702 0.97020066 1.2790326 1.037843 0.66778094 0.8020326 1.05663
1.1600311 0.84502405 1.2131131 0.67272836 1.2027719 0.5399314 1.2234044 0.688895
1.7696493 0.9476491 0.49782902 1.3293347 1.3927625 0.8677598 1.0800573 0.9887226
0.80528593 1.3446681 1.1201344 1.0803514 0.7402082 1.217955 1.3053383 1.0357714
0.6562363 1.503884 0.77633333 0.9327385 1.3244531 1.1953477 1.2134336 0.8690451
1.4752551 0.25238866 1.0946167 0.6898589 0.8487496 0.93911034 0.64694697 1.577026
1.436819 1.0065173 1.0862749 0.5706181 1.1799225 1.0542251 0.99520236 0.7016794
1.1318586 1.2879256 0.7180882 0.7706822 1.4032178 0.8612707 0.8392866 1.1312134
1.0623218 1.6076323 1.3717446 0.78480136 1.3407003 0.99659395 1.0644217 1.145827
1.3455743 1.082055 1.0304 1.6003766 0.640595 0.487223 0.52421504 1.1089184
0.9943763 1.2066396 0.7808214 1.2601304 0.6406877 0.67552143 0.85486543 0.75822663
1.078244 0.92017996 1.197116 1.2479879 0.7942005 0.79092324 1.154839 0.99684435
0.6995484 1.6160278 0.38114586 1.6876881 0.66043246 1.0090692 0.4548312 0.98594844
1.1191007 0.69702476 0.6860373 1.5140824 1.0739826 1.038857 0.68117046 0.82923687

trunk.network.1.bias f4 [256]
00000000: 6912 7ebe 40fe 14be d739 87bc 3ac2 1ebe
00000010: 9d94 85be fb8b 07bf 0a25 86be 2692 20be
00000020: d464 dbbe af2a 35be 71ac 54be 2014 4fbe
00000030: dd2c b2be 3d33 77be de0e 89be 657b 22be
00000040: a939 c5be d80a d0be 985b a8be 819f 82be
00000050: b539 8bbe 87f9 2abf a0a4 1ebf b9a6 b3be
00000060: 7db7 8bbd d943 a8be 8f74 a1bd 06c5 45be
00000070: 09c1 95be b30a bcbe a269 50be 634a b9be
00000080: e5b0 b7bd 1e67 5db9 9483 41be 713a 90be
00000090: 4038 93bd 5c22 d7be e511 d0be c4b1 9cbe
000000a0: b74b 3cbd 6208 54be 32e5 32be 1709 4fbe
000000b0: 6f54 43be 372c 23bd 7230 f3bd 3b5e 96be
000000c0: 9f76 afbe bb3f e6bd 3df0 59bd abfa 07bf
000000d0: 84d9 d9be 6d72 02be e1db d1bd 7064 e6be
000000e0: f4e3 69be 56fa a1be 0737 74be bb0a d2be
000000f0: f4c2 95be db25 e2bd 4c7c c0bd c6da b5be
00000100: 8761 cabe 4142 1dbf ce7a 39be c727 a8be
00000110: b39c f4bd 02c1 2b3d 682b ddbe bbdb 7fbe
00000120: 22e8 76bd 0825 2ebe 56fa bfbd 7e00 6dbd
00000130: 7ce6 0bbf 3c48 58bd de78 103d a0ff 32be
00000140: 5f2c fbbd d06d 82be 9ad6 cebe d35b 62bd
00000150: 2aac a3be e4a7 e2bd f35f 0dbf 7bdc d9be
00000160: 9643 c8be d1ad 45be eb38 0bbe 07d5 8fbe
00000170: 88dd 34be 2e6d 05be cb5a a3be 5ef0 6abe
00000180: 96e8 64be d773 72be 5396 f7be e4b2 5dbe
00000190: 6b0c 48be 124f a7be 0717 86be 02e4 92be
000001a0: 75f0 86be 8bb9 91be a4b6 6cbe 60af d8be
000001b0: 0212 ecbe 6749 e1be e52d 43be 01eb 66be
000001c0: 9ecb 31be 49c4 aebe 68e6 8bbe c970 433d
000001d0: d63c 08bf 17e1 8dbe 50fd d0bd ef45 8dbe
000001e0: 5882 42be 2ddf 48be 82a4 263e 50fc 3abe
000001f0: 10f1 b8bd ef54 a4be 62dc 54be cd29 d8be
00000200: 97b0 c6bd 6d57 07bf fbaa 10be 6fdc 05bf
00000210: 2f3f 29bd afc4 c8bd 427e f3be 85e4 07be
00000220: d1a1 b8be 21e7 9bbe 424f 03bf dd19 02bc
00000230: e576 9ebe 3d46 513d f2b4 2abe 23c2 afbd
00000240: ed23 35be 3c41 d3be 151b 83be 56f7 febd
00000250: d39e 78be 581f d4be 02ee b1be 3585 08be
00000260: 8c7a ccbd 785d 6bbe c20c 0ebe ac63 b2be
00000270: 2e8c 0cbe f14e 0bbf b025 773a dbb2 b8be
00000280: af1d 443d ee6e 31be 6982 f3be 6b29 95bd
00000290: 37e3 03be 8c0d 4fbe 22ee 50be 86a9 56be
000002a0: 1ab4 b9be 316e cebd 6a0b c0bd aca2 07be
000002b0: 665c bcbe 4de6 a7bd 7a76 eabc 1df3 83be
000002c0: 3a13 c6be eb3d 9e3d 298d c1be 375a 7cbe
000002d0: b39e 2bbe 5db6 1ebe 188c 3fbe ecff b8be
000002e0: d4c5 64bd 543a 2cbf 0e45 49be 3148 cfbe
000002f0: 5c8d 98be c124 82be ab41 ccbe ed00 f4bc
00000300: df1d bebd 12fb 94be c823 0cbe 8416 d1be
00000310: 5bd9 09be 976e 4cbe 4475 46be d4c4 ccbe
00000320: 68c1 5abe 2f48 26be 0ee6 babe c7d3 adbe
00000330: 92f7 a9bd 1a71 debe b640 c7be 8046 4ebe
00000340: 3fb6 69be a074 b8bd 0308 51be 250a c0be
00000350: b57c ebbd 3596 5dbe 277b c1bd 4cab 05be
00000360: 5681 c3bd 60fc 48be 4bb4 88be dea6 f4bd
00000370: ce56 cfbe ae4f 06bf b681 17bf c05d 32be
00000380: fc0c b7be 90b1 a8be e0d1 a4be eb4a 82be
00000390: 621b e1be 2019 b1be c6aa 56be 9090 cbbe
000003a0: 594b 60be 9a57 84be 7f85 59be 9d63 38be
000003b0: 54e2 cdbe 6573 9cbe c22d b1bd b30c c6be
000003c0: 468f aabe 70fb 7a3d 07b1 18bf 18ef 5d3d
000003d0: 6769 e0be 79ff 63be 3866 03bf bb4f 1cbe
000003e0: d95f d1bd f185 cfbe 0612 ccbe 1871 b7bd
000003f0: a2fe 48be ff2b 73be b297 d6be 199a a3be
-0.2481171 -0.14550114 -0.016507072 -0.15503779 -0.26089945 -0.5294797 -0.26200134 -0.15680751
-0.42850363 -0.17692064 -0.20768906 -0.20222521 -0.34799853 -0.2414064 -0.26769155 -0.15867384
-0.38520554 -0.40633273 -0.3288238 -0.25512317 -0.27192464 -0.66787 -0.6196995 -0.35088137
-0.06822107 -0.32864264 -0.0788356 -0.1931344 -0.29248837 -0.36726913 -0.20352796 -0.36189565
-0.08969287 -0.00021114617 -0.1889785 -0.28169587 -0.07188463 -0.42018402 -0.40638652 -0.30604374
-0.045970645 -0.20706323 -0.17470244 -0.20218311 -0.19075178 -0.03983709 -0.118744746 -0.29368767
-0.34270188 -0.11242624 -0.053207625 -0.53116864 -0.42548764 -0.12738962 -0.10247017 -0.44998503
-0.22840863 -0.31636304 -0.23849116 -0.41023812 -0.292503 -0.110423766 -0.09398708 -0.35518473
-0.39527532 -0.6142922 -0.18113253 -0.32842848 -0.119439505 0.041932113 -0.4319718 -0.24986164
-0.060279973 -0.17006314 -0.0937392 -0.057861798 -0.54648566 -0.052803263 0.035271518 -0.17480326
-0.122643225 -0.25474405 -0.40398103 -0.05526335 -0.31967288 -0.11067179 -0.5522453 -0.42551026
-0.39114064 -0.19304587 -0.13595931 -0.28092214 -0.17662632 -0.1302993 -0.31905207 -0.22943255
-0.2235435 -0.23677002 -0.48356876 -0.21650273 -0.19535987 -0.32677513 -0.26189443 -0.2868958
-0.2635533 -0.2846187 -0.23116547 -0.423213 -0.4610749 -0.44001314 -0.19060476 -0.22550584
-0.1736283 -0.3413413 -0.27324224 0.047714982 -0.5321783 -0.27710792 -0.102045655 -0.27592418
-0.18995035 -0.19616385 0.16273692 -0.18260312 -0.09030354 -0.3209605 -0.20787194 -0.4221939
-0.097016506 -0.52867776 -0.14127724 -0.5228948 -0.041320022 -0.098031394 -0.47557265 -0.13270767
-0.36060956 -0.30449775 -0.5129281 -0.007940737 -0.30950084 0.051092375 -0.16670588 -0.085819505
-0.17689486 -0.41260707 -0.256066 -0.12449519 -0.24279337 -0.41430163 -0.34751898 -0.13332064
-0.099843115 -0.22984874 -0.13872054 -0.3484167 -0.1372535 -0.5441733 0.0009427918 -0.36073956
0.04787987 -0.17327473 -0.47560433 -0.072832905 -0.12879644 -0.20220011 -0.2040334 -0.20963106
-0.3627022 -0.10079611 -0.09377177 -0.13245648 -0.36789244 -0.08198223 -0.028620947 -0.25771418
-0.38686544 0.07726654 -0.3780301 -0.24643789 -0.16759758 -0.15499254 -0.18705785 -0.36132753
-0.055852726 -0.672765 -0.19655249 -0.40484765 -0.2979535 -0.25418666 -0.3989385 -0.029785598
-0.09283041 -0.290978 -0.13685524 -0.4083749 -0.13461821 -0.19964062 -0.19380671 -0.39993918
-0.21362841 -0.16238473 -0.36503643 -0.33950636 -0.082991734 -0.43445665 -0.38916558 -0.20144081
-0.22823428 -0.090066195 -0.20413212 -0.3750774 -0.11498395 -0.2163933 -0.094473176 -0.13053626
-0.09546153 -0.19627523 -0.26700053 -0.1194589 -0.40495914 -0.5246533 -0.591823 -0.17418575
-0.35752094 -0.3294797 -0.32191372 -0.25447783 -0.43966204 -0.3458948 -0.20963582 -0.3975873
-0.21903743 -0.25848085 -0.21242331 -0.1800675 -0.40211737 -0.3055679 -0.08651306 -0.38681564
-0.33312434 0.061274946 -0.5964512 0.054183096 -0.43830416 -0.22265424 -0.5132785 -0.1526479
-0.102233596 -0.40531877 -0.398575 -0.08957118 -0.19628385 -0.23747252 -0.4191261 -0.31953505

trunk.network.3.weight f4 [256, 256]
00000000: f4b2 5e3d 11bf 103e 06c3 0e3e 6024 c1be
00000010: 2f6b ccbe 11b8 fc3d 5eca 8fbd 545c 993e
00000020: d9f9 5c3d e228 f4bd 5afd 42bd 5dea 03bd
00000030: 50bb 41bc 6786 b73d 176a fe3d 0812 57bd
00000040: e61e 063e 7d39 d9bd e423 883e 09c1 4a3e
00000050: 2523 bdbd 31b4 483d 6160 283e 99cf 4bbd
00000060: ad86 35be 59f6 08be 0a21 bebe 4697 373c
00000070: 62a1 c63d 9250 a03d bb13 e83c 795c 323d
00000080: 9481 57bc 6d57 c23d df7a 91bd 0518 3d3d
00000090: 7565 aebe c2be a8be 2006 aa3d d01a 65bd
000000a0: d393 a9be 9ebc 603e ab68 cf3d be40 21bd
000000b0: 527d 8e3e 6396 5fbe b453 82bd 1ff2 c03d
000000c0: d1a4 083d 422d 75be 9d2a f73d b4ec 613e
000000d0: 1334 383e c1c1 503e 6e43 523e fa9b 083e
000000e0: 8f86 d13d 8d53 203e 5602 183e 321d 2bbd
000000f0: 69c2 1c3e 8953 84be fb35 23bd 28c4 4039
00000100: 1027 20be f7c1 c43d 4bea 9ebd f602 813e
00000110: a975 7bbd ba32 c2bd 7d0f f6bc 79ff 3bbd
00000120: f695 1bbe 32db 91bd 29fa 843e 3176 8c3e
00000130: e7b7 753d e234 06be 522e 7f3d 0354 513e
00000140: 9d49 0cbe 17dc 3ebe 7333 e6bc f6cb 6ebd
00000150: 7018 293e 3582 febd f56b 2c3e 05e7 193e
00000160: 0eac 1c3e 32cc 883d fa96 803e 9551 443d
00000170: 2556 833d 7158 013e 9f52 02be 06d5 783e
00000180: 9993 c4bc 02ed 17be 6958 77bc 5a9d 7cbd
00000190: f6cf 88bb 4fe6 ad3d 7550 4dbd ad29 a03a
000001a0: e219 f8bc 3400 443b c627 03bd 4d52 0a3e
000001b0: c854 f53d 8cdf 823e 7c31 f83d de22 3ebe
000001c0: c556 3bbe 6f78 683d a0f9 0ebd ac6f 29be
000001d0: 546f 3d3e 67a8 dbbc bcd4 0a3e 77bb fbbd
000001e0: 5d47 d4bd ae14 c3bd 339c 4abd f4da 33be
000001f0: b575 a9be 1612 c43d fdca 5c3d ba03 023e
00000200: ea7a 42bd 6ee9 95bc 3b3f 143e 86b8 e1bc
00000210: 5630 b73c e9fd a33e f76b 623c 40c4 5abe
00000220: 4cf3 c13d 3864 4fbe d090 eb3d b4f3 0c3c
00000230: b321 7d3d 5972 33be 56a0 22be c13b 883e
00000240: 386c 683e e1d2 173e e7bf 4f3c aff9 363d
00000250: 01f3 18bf 73cc 51bb f8f8 293d 19eb 9fbd
00000260: 095c d2bb 4b2e 373e 8476 463b 0bd6 c53d
00000270: 7aec e6bd c8b7 cebb 17e3 30bb d307 033e
00000280: 0704 343e d916 b93c b078 3b3e 7448 483e
00000290: 6102 1e3e dd62 8abd 9781 793e 415e 863d
000002a0: df11 613b a4ed 17bd 25ab 413e 284d 133d
000002b0: 8e0c 023e 634c 033e fb60 ca3c 5998 0ebf
000002c0: d055 2abd 960a d83d 6923 d83d 4c8d 3f3e
000002d0: 8f60 893e a3bd 0d3e df1c cf3d 165b 8fbe
000002e0: 5c51 3a3e 360a e43d 2b66 87bd 820d d33d
000002f0: 411f 243e b57a ebbc bc5e 0b3e 5c8e 713e
00000300: eebf 16bd 7403 c4bc fcaa ce3e 04bb 0a3d
00000310: dc97 9c3e 18ca d13c c2b8 803e 42e1 473e
00000320: 025e 413e 398f c4bc dbf0 103d 7b5d 473d
00000330: 1244 bbbe 2777 083e c19f 9bbc 0800 b4bd
00000340: dd1f 633e dfbe 58be a0ea aebe 4f20 e83d
00000350: cec2 e03b 41bf d93d 1f60 0f3e 3678 3d3d
00000360: e5a4 4cbe d68e 20bd 9484 513e c04d d53c
00000370: a56e 1d3e 3e53 243d 7258 833d 6d9a 34be
00000380: 905e 143e d65c 30bd 703b b03d 58ac 413e
00000390: 4e1d 653e 7ca8 1d3e 621d d53d 71a6 9dbd
000003a0: c9e1 a5bd 7d47 283e 0ac5 a4ba 07b7 553e
000003b0: 39c2 e4bb 145c 0e3e 0f2c 43bd 8025 c5bd
000003c0: f5c4 153e bd8f 363e e831 f53d 1910 6abe
000003d0: ac7a 3a3d a1cb 18bd 8540 373e 9055 c13d
000003e0: a81c 04be f58f 84bd 8662 66bd 7998 59be
000003f0: 55de 593d 44b1 23be 28af b43d 5ad7 da3d
0.05436988 0.14135386 0.13941583 -0.37723064 -0.39925525 0.123397954 -0.0702102 0.29953253
0.05394921 -0.1192186 -0.047604896 -0.032205928 -0.011824444 0.08961182 0.12422579 -0.05250743
0.13097724 -0.10606668 0.26589882 0.198002 -0.09235219 0.04899997 0.16443016 -0.049758527
-0.17727156 -0.13375224 -0.37134582 0.0112055 0.0969875 0.078278676 0.02832972 0.04354522
-0.013153452 0.094893314 -0.07103514 0.046165485 -0.3406178 -0.32958037 0.083019495 -0.055933774
-0.33120593 0.21946952 0.10127386 -0.039368384 0.27829987 -0.21834712 -0.06363621 0.09421181
0.033360306 -0.23943046 0.12068675 0.22062951 0.17988615 0.20386411 0.20533535 0.1334075
0.10230743 0.15656872 0.14844641 -0.04177589 0.15308537 -0.25844982 -0.0398464 0.00018383621
-0.15639901 0.09607308 -0.077595316 0.25197572 -0.061391506 -0.094823316 -0.030036682 -0.045897935
-0.15193924 -0.07121886 0.25972107 0.27433923 0.059989836 -0.1310611 0.062300034 0.20442204
-0.13699956 -0.18638645 -0.028100705 -0.05829998 0.16513228 -0.12427179 0.16838057 0.15029533
0.15300009 0.06679572 0.25115186 0.047929365 0.06412915 0.12631394 -0.1272683 0.24300012
-0.023996161 -0.14836505 -0.015096762 -0.0616735 -0.0041751815 0.084911935 -0.050125558 0.0012219452
-0.03028578 0.0029907348 -0.032020353 0.13507958 0.11979061 0.25561178 0.121188134 -0.18567988
-0.18294819 0.05675548 -0.03490603 -0.16546506 0.184995 -0.026813699 0.13557714 -0.122916155
-0.10365174 -0.09525429 -0.04946537 -0.17563993 -0.33097616 0.09573762 0.053904522 0.12696734
-0.0474805 -0.018299785 0.14477246 -0.027553808 0.022361916 0.32029656 0.013819686 -0.21363926
0.09470233 -0.20253074 0.1150223 0.008603025 0.061799716 -0.17524089 -0.15881476 0.2660809
0.22697532 0.14826538 0.01268003 0.04467171 -0.59745795 -0.003201273 0.0414972 -0.07808513
-0.006419663 0.17888753 0.0030283043 0.09659966 -0.11275573 -0.0063085295 -0.0026990825 0.12795953
0.17579661 0.022593902 0.18307757 0.19558889 0.15430595 -0.06757138 0.24365841 0.06560946
0.0034342927 -0.037091866 0.18912943 0.035962254 0.12700102 0.12822108 0.024704447 -0.55701214
-0.041585743 0.10548894 0.10553629 0.18706244 0.2683148 0.13841872 0.101129286 -0.2799918
0.18195099 0.1113476 -0.06611284 0.10305311 0.16027547 -0.028745035 0.13610357 0.23589462
-0.036804132 -0.023927428 0.40364826 0.03386976 0.3058461 0.025609061 0.2514096 0.19519523
0.18883517 -0.023994075 0.035385948 0.048673134 -0.3657537 0.13326703 -0.018997075 -0.087890685
0.22180124 -0.21166562 -0.3416338 0.113342874 0.00685916 0.10632182 0.14001511 0.04625722
-0.19984777 -0.03919872 0.20460731 0.02603805 0.15374239 0.04011845 0.06413354 -0.17637034
0.14489198 -0.043057285 0.08605087 0.189134 0.2237446 0.15396303 0.10405995 -0.07697762
-0.08099706 0.1643352 -0.0012570929 0.208706 -0.006981161 0.13902313 -0.04764944 -0.09626293
0.14625914 0.1782827 0.119724095 -0.22857703 0.045527145 -0.03730357 0.17895706 0.09440148
-0.12901556 -0.0647277 -0.056246303 -0.2124957 0.053190548 -0.1598559 0.08822471 0.10685606

trunk.network.3.bias f4 [256]
00000000: 9873 1e3e 4213 df3b 4168 6d3b 2e45 fbbc
00000010: d910 43bb 437b 4abc 17d0 cb3d 4144 43bb
00000020: f3b1 933d ae9a dd3d 7a23 803d fdea 943c
00000030: 78a9 1f3e 58a4 2f3d 089a d8bb 72fc 8a3d
00000040: 7287 7ebc c20b 363b ddfe db3c 19fe a63d
00000050: 8744 4b3d cfba 5cbc 9849 18be 7b93 f53d
00000060: 48af 81bd db9d 57bd 57e3 263d 583e 173e
00000070: 2718 273d 7507 7e3d 5678 193d f41b c23c
00000080: 3b32 dc3c 32a6 ec3c d862 a83d b18d 443d
00000090: 1625 babd 6462 933c b537 5fbd eedd 00bd
000000a0: 5b73 cb3d 216c f2bb 2f9b e03d 3415 943d
000000b0: cfbf dc38 fbeb 25bc 1fc1 0b3e d825 9f3b
000000c0: 97ec 933d 20ea 05bc 22be 5e3d 9771 7ebc
000000d0: 3993 ad3d b80d 5eb7 fa08 293b 64b6 09bd
000000e0: a46b 023e dfa6 10bd bdf2 2e3d 684d 873d
000000f0: 9484 003e d626 8c3d d329 983d 3797 b5bc
00000100: 50a3 203e bb23 7ebd 27eb 193e 3587 013e
00000110: 0d1e cb3d a4f3 813d a8a2 8cbd 7e65 383d
00000120: 00dd a93d cbc5 f53d 5b0e 813e 6ad2 b63d
00000130: 15db 053e 77cb 4e3d 0740 f43d 93ab 503d
00000140: f92a 993d db49 a03d dd3a a93d 02e4 75bd
00000150: dca4 dcbb f093 aabb 791c 813d 4dc2 f23d
00000160: c5e5 123c 037d 3d3d cdc2 933b 8c57 a33d
00000170: 8a3d 9e3d a709 483c bf13 c73d 50ca 4e3c
00000180: db01 773d 4bee 95bc 198d 0b3b ef77 72bd
00000190: e269 5fbc 3958 8abd 2ef5 063e c59d 533d
000001a0: ed87 df3d 9d1d 903d 9594 8b3d 67b0 193d
000001b0: cd26 543d f4f8 e73c b827 453e 7970 d23c
000001c0: 8dd1 61bc faad 20bc 1cb4 a23c 9aab 723d
000001d0: cc2c 9f3d f6ad b03d dff2 823d 410e 883d
000001e0: 1451 eb3d be57 18bd 1454 023e e5de 10bd
000001f0: 7950 babc a1d0 1cbd c70d 40bd 92a3 b53d
00000200: 399c 4a3c c91d bc3b 0f25 223d c12c 023e
00000210: 37aa b03d 915a ddbd 3b3a 783d 6ec8 49bd
00000220: 72fd f23d c674 693a a9ef d03c 374c 023e
00000230: cda0 073e 5a43 db3d a1a6 a93c 622b f8bd
00000240: 1746 153e 88b4 a03d 66a1 143d 0f9c 4c3d
00000250: b094 e73c 0695 353e dcb2 c63d cdb7 bcbc
00000260: c03c 77bd 0360 f63c dae7 e93d 93da af3d
00000270: 99a1 a13c 11ed 693d bd23 103c 3625 0fbd
00000280: 5195 d63c 8522 6b3c d80d 0dbd d4d2 f1bc
00000290: 308f f2bc dda1 e33c a899 c63d 1d79 ad3d
000002a0: e919 313d 5a92 293d 3de3 84bd cc1e 8e3d
000002b0: 6dd6 97bd 4cc3 12bd 53bf ef3d 8000 613d
000002c0: 69ff 153c e4ed c2bb d1da 143d 7c5e ac3d
000002d0: 2f44 57bc c6df 873d 606c bc3c ae8e 09bd
000002e0: 894e 04bd 7dd7 693d d10d 8a3d ec6a 64bd
000002f0: 85d1 e8bd a638 c83d 1ac6 1a3c b4d1 053c
00000300: a07c 373d f1f9 c8bc fdde 88bc da14 5e3d
00000310: 2617 5e3d 5e6a 973d 791a 943c d3e9 013e
00000320: fd64 223e 7109 fd3c b346 73bd 583b d5b9
00000330: 7475 2d3d 8db2 f03c 0e30 9fbd 817e 50bb
00000340: 3fc1 c5bc e8ac 9b3d c913 3a3d 483d 01bc
00000350: d5c6 183c 804d 153e b95f 2abd 5626 ff3d
00000360: bd97 18be bc46 88bc d92c 8b3d 9f6d f73d
00000370: d7c5 5fbc f890 b53d 384c 363e 080a 0abd
00000380: 6e35 843d 122a 773c c808 9c3d a2c6 15bd
00000390: 551e b23d 2402 8f3d a895 ebbc 13e5 de3c
000003a0: 4e32 74bc 7566 093d 986d 3c3c e95d 683d
000003b0: f7e7 253c ab0c 853b c96c afbc 1877 6abd
000003c0: 67a3 8fbd 9f51 f23d f87c ccbb 8793 153e
000003d0: 928e 8cbd f099 143d 95aa e03c 4075 0a3e
000003e0: 657e 3e3d 1de0 0c3d 97ef b73d dd36 fe3d
000003f0: 18a5 133d 6464 0ebe 8e9b b03d fe5f 9d3d
0.15473783 0.0068077156 0.003622547 -0.030672636 -0.002976468 -0.012358489 0.09951799 -0.0029795321
0.072116755 0.108205184 0.062567666 0.018178457 0.15591991 0.04288134 -0.006610159 0.06786431
-0.015535222 0.0027778004 0.026854927 0.08153934 0.0496259 -0.013472273 -0.14871824 0.1199102
-0.0633226 -0.052640777 0.040744152 0.14769876 0.040794518 0.06201883 0.037468277 0.02369497
0.02687942 0.028887842 0.08221978 0.04798669 -0.09089105 0.017991252 -0.054496486 -0.03146165
0.09934112 -0.007398144 0.10967099 0.07230607 0.000105261446 -0.010127063 0.13647889 0.0048568062
0.0722286 -0.0081734955 0.054380544 -0.015530012 0.08475346 -1.3235425e-05 0.0025792704 -0.033621207
0.12736374 -0.03531539 0.042711962 0.06606561 0.12550575 0.06843345 0.07429852 -0.022166831
0.15687299 -0.062045794 0.1503111 0.12649234 0.09917841 0.06345299 -0.06866962 0.045018665
0.082941055 0.12000617 0.25206265 0.08926852 0.13071854 0.050487008 0.11926275 0.050944876
0.074788995 0.07826587 0.082631804 -0.0600319 -0.00673352 -0.005205624 0.06304259 0.11853466
0.008965914 0.0462618 0.004509306 0.079756826 0.077265814 0.012209333 0.09720563 0.012621477
0.060304504 -0.018302104 0.0021293818 -0.05919641 -0.013636084 -0.067551084 0.13179466 0.051664133
0.10914598 0.07036898 0.06815449 0.037521746 0.051794816 0.028316952 0.19253433 0.025688397
-0.013782871 -0.009807104 0.019861273 0.059245683 0.07772216 0.086269304 0.0639398 0.06643344
0.11490074 -0.037193052 0.12727386 -0.03536882 -0.02274345 -0.0382849 -0.04688814 0.08869089
0.012366348 0.0057408554 0.039586123 0.12712385 0.08626216 -0.1080829 0.060602408 -0.04926341
0.11864747 0.0008905645 0.025504904 0.12724386 0.13244934 0.10706206 0.020709338 -0.121176496
0.14577518 0.078469336 0.036286734 0.049953517 0.028269142 0.17732629 0.097020835 -0.023036862
-0.06036067 0.030075079 0.11421175 0.085866116 0.019730376 0.05711085 0.008797583 -0.034947596
0.026194246 0.014351492 -0.03443703 -0.029519476 -0.029609293 0.027787143 0.09697276 0.08470366
0.0432376 0.041399337 -0.06488655 0.06939468 -0.07413945 -0.03583078 0.11706414 0.054932117
0.009155133 -0.005948769 0.036341492 0.08416459 -0.013138815 0.06634478 0.023000896 -0.033583336
-0.03230146 0.05709027 0.067409165 -0.05576603 -0.11368088 0.0977643 0.009446645 0.008167673
0.044796586 -0.024533244 -0.016707892 0.054219104 0.054221295 0.07393335 0.01807903 0.12686853
0.15858836 0.030888291 -0.059393596 -0.0004067074 0.04234834 0.029382015 -0.077728376 -0.0031813683
-0.024139998 0.076013386 0.045429025 -0.007888146 0.009324749 0.14580345 -0.041595194 0.12458484
-0.14901634 -0.016635291 0.067956634 0.120814554 -0.013658009 0.08865541 0.17802513 -0.033700973
0.064555034 0.015085714 0.076188624 -0.036566384 0.086971916 0.0698283 -0.028757885 0.02720884
-0.014904572 0.033544976 0.011500739 0.056730185 0.0101261055 0.004060348 -0.021414177 -0.057242483
-0.070135884 0.11831974 -0.0062404834 0.14607058 -0.06863131 0.03627962 0.02742509 0.1352129
0.046507258 0.03439342 0.08981245 0.12412808 0.036046118 -0.13905483 0.0862342 0.07684325

trunk.network.4.weight f4 [256]
00000000: d509 7f3f 45de 493f a6ef 8f3f fb4e 523f
00000010: 3e1e 893f 6361 a83f 4a11 573f 089f 4b3f
00000020: c488 b63e 754c 783f a285 903f 43a7 783f
00000030: 154d 503f 07ff 443f 0c97 ae3f 386b 453f
00000040: 1f5b a63f 5651 983f e988 883f e971 2c3f
00000050: 91b6 673f 4f78 4a3f 479e a83f f42b 633f
00000060: f1dd 993f 5bec 403f 85c6 8f3f 415c 833f
00000070: 39d0 843f 37bf 853f 14ae 8f3f d18a 783f
00000080: 04fa 973f 0c29 393f b5ef 4b3f d1b0 6e3f
00000090: 23e9 743f 815b 8a3f db29 983f ba50 8a3f
000000a0: c913 dc3e bd79 753f 0f1f 333f 64ee 363f
000000b0: 325d 863f 0ed7 853f cc45 563f 72f6 6a3f
000000c0: 8ec2 603f 8499 853f dd0d 983f 589e 533f
000000d0: b945 643f 1458 9c3f ff07 6f3f be52 6c3f
000000e0: 2193 053f b99b 963f 4560 713f cbd5 7a3f
000000f0: a73b 553f ea72 933f 2432 6a3f 74ae ac3f
00000100: 1093 403f 1607 b43f 9899 1f3f eee4 7f3f
00000110: f030 583f 9f86 653f 54f9 9c3f 0685 463f
00000120: b4e2 7d3f a5ae 293f 9d5d 773e 95be 023f
00000130: 7a07 843f e59e 413f fc53 1d3f fdb2 9b3f
00000140: 093a 303f 69e8 893f d44f 833f ec63 8f3f
00000150: d6ed 963f 4213 963f 0e4c 5c3f a81b a43f
00000160: 1983 6a3f bd09 383f 88cd 983f 502c 883f
00000170: 81d1 5a3f e5c7 503f b2b6 b63e e5dd 813f
00000180: f44e 553f 3b13 3c3f 8baf 4c3f ca52 873f
00000190: 6aec 333f 707e 7c3f 65d5 2f3f e55c 843f
000001a0: 6099 e13e 6fab 373f 4e8f 193f de29 8b3f
000001b0: 76b9 4e3f 4472 9c3f 0c49 ab3e d757 853f
000001c0: 6a49 373f 8935 ae3f 64ba 343f a82f 903f
000001d0: efda 8c3f 325a 4f3f 0910 4b3f 0ddb 023f
000001e0: 4d60 6f3f 5343 9a3f 0a9b 053f 5dc8 ab3f
000001f0: a9b3 a13f 6e84 a33f a09d 8c3f e434 8e3f
00000200: f580 783f ea51 223f de16 453f cb96 643f
00000210: 4d8a 833f 517e bf3f 66a1 4e3f 6773 863f
00000220: 9ab4 0c3f bf60 723f 50a0 603f c128 4f3f
00000230: 8b29 2e3f 8447 5a3f 083e 573f 2989 953f
00000240: f7ef 173f 792a 3b3f 0c04 3d3f 7073 853f
00000250: 73d4 a53f 660a 9e3e e527 163f 2879 4c3f
00000260: 5795 663f a1f6 4d3f 08ad 093f aba6 0b3f
00000270: a844 5c3f fba0 883f 6b37 853f a059 973f
00000280: c0bf 673f c73a 913f bcb9 9b3f f59a 833f
00000290: 9809 803f 9993 873f d4b4 0e3f 857b b63f
000002a0: d680 2c3f 6b40 9d3f 9e2c 833f 18b0 9f3f
000002b0: 469c 973f 0bf9 143f fe62 623f 81fc 673f
000002c0: 679f 9e3f e54b 723f 1d03 513f 40db 443f
000002d0: bf03 803f 4699 673f 4c77 a73f 664e 093f
000002e0: 72d7 983f 6283 893f 0ff1 5e3f 406d 723f
000002f0: 5c26 b53f e94a 2d3f 67fb 7a3f 1fee 883f
00000300: 2fb0 b13f 8496 af3f e726 9d3f c5b7 583f
00000310: aa4d 1d3f bffc 813f 4798 743f b4e7 1d3f
00000320: 134b d43e b595 733f 5c7f 883f 165c 983f
00000330: d946 793f 9ded 5e3f f6f2 853f ceb8 9c3f
00000340: 42a8 683f 8093 8e3f 4be2 793f 9ded 9a3f
00000350: f1d1 883f 98fb 073f 5226 133f 9071 ca3e
00000360: 45c1 b83f bfa4 803f dadf c83f f632 413f
00000370: 6bc6 7b3f 7dbe 953f 1f6b 2a3f 111e b53f
00000380: 9181 4f3f d6fd 9c3f 7128 303f 35af 853f
00000390: 9fcf aa3f 2c98 553f 65fd 2d3f 8dca 9e3f
000003a0: 980b 7c3f 5495 8d3f a4f6 913f 0669 903f
000003b0: 80e9 333f 05a4 963f ff03 863f 5859 653f
000003c0: 23a6 8b3f b88e fb3e f7b8 813f cb6a 013f
000003d0: 65d0 903f 4f52 613f 9231 923f c0ab c03e
000003e0: 52bd 8c3f 8020 9b3f c4f3 7b3f e156 093f
000003f0: fcaf 3e3f 36c6 a63f f23e 403f 42ca 863f
0.9962438 0.7885478 1.124501 0.82151765 1.0712354 1.315472 0.84010756 0.7953954
0.3565122 0.96991664 1.1290781 0.9713022 0.8136762 0.7695164 1.3639846 0.7711673
1.2996558 1.1899822 1.0666782 0.67361313 0.9051295 0.79089826 1.3173302 0.8873894
1.2020856 0.7536065 1.1232458 1.0262529 1.0376045 1.0448979 1.1225 0.9708682
1.1873174 0.7232826 0.7966264 0.9323855 0.9566824 1.0809175 1.1887773 1.0805886
0.42983845 0.9588888 0.69969267 0.71457505 1.0497191 1.0456254 0.8370025 0.91782296
0.87796867 1.0437474 1.1879231 0.8266349 0.8916889 1.2214379 0.93371576 0.92313755
0.52177626 1.1766273 0.9428752 0.9798247 0.8329415 1.1519444 0.9148276 1.3490739
0.752244 1.4064662 0.6234374 0.99958694 0.8444967 0.8965854 1.2263589 0.7754673
0.99174047 0.6628211 0.24156804 0.51072055 1.0314782 0.7563308 0.61456275 1.2163998
0.68838555 1.0774051 1.0258737 1.1202369 1.1791332 1.1724627 0.8605355 1.282094
0.9160629 0.7188986 1.1937723 1.0638523 0.8547593 0.81555015 0.3568626 1.0145842
0.833236 0.73466843 0.7995536 1.057214 0.70282614 0.9863043 0.6868499 1.0340849
0.44062328 0.7174596 0.5998429 1.0872152 0.8075174 1.2222371 0.33454168 1.0417432
0.71596396 1.3610088 0.7059691 1.1264544 1.1004313 0.80997 0.7932134 0.51115495
0.9350632 1.2051796 0.52189696 1.3420521 1.2632953 1.2774789 1.0985603 1.1109891
0.9707177 0.6340624 0.7698802 0.8929259 1.0276581 1.4960424 0.80715024 1.0503968
0.54963076 0.9467887 0.8774462 0.8092156 0.6803214 0.85265374 0.8407903 1.1682483
0.5935053 0.73111683 0.738343 1.0425854 1.2955459 0.30867308 0.58654624 0.7987237
0.90071625 0.8045445 0.5377965 0.5455119 0.8604226 1.0674127 1.0407537 1.1824226
0.9052696 1.1346062 1.2166057 1.0281664 1.0002928 1.0591918 0.5574467 1.4256445
0.6738409 1.2285284 1.0247991 1.2475615 1.1844566 0.5819251 0.884323 0.90619665
1.2392396 0.94647056 0.81645375 0.7689705 1.0001143 0.9046825 1.3083282 0.5363525
1.1940749 1.074322 0.87086576 0.9469795 1.4152331 0.6769243 0.9803986 1.0697669
1.3881892 1.3717809 1.2277497 0.8465541 0.6144663 1.0155257 0.95544857 0.61681676
0.41463527 0.9515031 1.0663867 1.1903102 0.9737373 0.8708132 1.0464771 1.2243898
0.9088174 1.1138763 0.9761092 1.2103764 1.0689069 0.53118277 0.5748035 0.39539766
1.4433981 1.0050277 1.5693314 0.75468385 0.98349637 1.1698757 0.66569704 1.41498
0.8105708 1.2264965 0.6881171 1.0444094 1.3344611 0.8343532 0.67964774 1.2405564
0.9845519 1.1061196 1.1403394 1.1282051 0.7027817 1.1768805 1.046997 0.8958945
1.0910076 0.49132323 1.0134572 0.5055358 1.1313597 0.8801622 1.1421378 0.37631035
1.0995276 1.2119293 0.9841883 0.5364819 0.7448728 1.3029239 0.75096047 1.0530474

trunk.network.4.bias f4 [256]
00000000: de19 b9be 6a94 04bf cfe1 a9be db81 f0be
00000010: 4d4f 84bd be13 2dbe 49de a4be f7a3 f3be
00000020: ee83 1ebf 496f 87be 7d6d 93be c661 d6be
00000030: 80d0 debe 34e1 c9be d266 64be 789e d2be
00000040: dd8c 27be fd34 38be 67f2 97be 598e cebe
00000050: 33fd dfbe 02ff d2be 2312 1dbe af87 c2be
00000060: be34 69be 77f8 1bbf 9187 55be 208c aabe
00000070: 86ee 67be 46fe a7be 3d87 84be 8c85 c5be
00000080: 4f3e 8cbe dc1f 0abf 8c58 e1be b0ba 8ebe
00000090: 9911 d7be 3c39 93be 53be 13be 0ce2 8fbe
000000a0: d573 0ebf b633 d5be edfe e3be 22d6 fabe
000000b0: 0805 43be 32d8 bcbe e335 aabe 373c c1be
000000c0: dd09 d8be 9fe1 47be a12e 1ebe 28d3 0dbf
000000d0: 1b41 e1be eb61 a2be 834e babe 996f fdbe
000000e0: 4f52 01bf 21e2 93be 20cc d7be 9da2 c9be
000000f0: b40b dcbe 02dd a2be 33af b9be cfe3 14be
00000100: 4640 d5be 70c6 c2bd 4626 cbbe 8654 69be
00000110: 7376 cebe 2e0c ccbe a716 9cbe 4466 e6be
00000120: 22bc 9ebe ee1a 9abe 881d 4fbf b3e8 1cbf
00000130: 6652 babe a15e 0abf e2a8 eabe 7965 0cbe
00000140: 40c2 ecbe 13a5 99be ac9e a8be 4bb6 90be
00000150: 46ec 7fbe ae8d bfbe 1dc1 cdbe 7912 31be
00000160: 7b0e f7be 1313 ddbe 0485 8dbe e8ac aebe
00000170: 8b68 fabe 3544 adbe 5d6a 26bf 8cd5 b0be
00000180: c9ca c7be fc4b d7be 660d 17bf a92a dbbe
00000190: d54a ebbe 4b30 afbe 1cff 00bf 867a ccbe
000001a0: efae 47bf 7b16 0fbf 2f19 f8be 607b a2be
000001b0: c54e ebbe 3c07 8fbe 7667 3ebf c2d7 a6be
000001c0: 46ab eabe 9100 81be f2ef dabe b1fd 8fbe
000001d0: 76ab b8be 5e52 aabe 62c0 e4be 12e0 27bf
000001e0: c5ec 99be 21b1 9fbe 2ffd f9be 1f81 6abe
000001f0: b314 39be eb01 9bbe 1adf babe 2182 39be
00000200: f14f 18be 9d73 16bf e0a7 e0be a3fc b6be
00000210: b53c babe c418 83be c9d8 eebe 45c3 96be
00000220: a5ce 07bf dd85 83be 66c3 b4be cb6c 9dbe
00000230: baca b5be 5905 96be e278 03bf 7614 cabe
00000240: c50d e1be ea71 02bf 25ea e7be 4a1e 89be
00000250: 8de8 9ebe d180 5abf c788 febe 26d0 e1be
00000260: bf36 03bf 6a3e d6be 528a 0cbf 59c8 1abf
00000270: 7c7c 09bf 7ca2 b8be 42b2 a6be e59b ccbe
00000280: aaff e6be 6986 89be 5b03 4bbe 17b5 3ebe
00000290: 24f8 c2be a917 5abe e1f5 0abf aa9f 63bd
000002a0: b557 02bf 3538 5abe c411 debe 9f91 56be
000002b0: dcf9 a5be 0550 06bf 4b96 9fbe 646b e9be
000002c0: fbd9 40be bff2 43be 64db cdbe 5fbd 03bf
000002d0: f2b3 a3be 3784 6abe 0129 51be 12d3 22bf
000002e0: a9ab 9dbe be66 a0be ca2d debe 8140 f1be
000002f0: f5e1 95be e484 c9be 2307 81be 9325 a7be
00000300: 9c89 31be 5bf4 8dbe 87a6 95be 25aa c9be
00000310: 04e6 f5be 198d 98be f52a 95be abe6 03bf
00000320: ca08 39bf c06a 0abf 7a84 d5be aaa7 a1be
00000330: 7da7 a2be 29ee fabe b2e5 a4be 8434 82be
00000340: 96b9 dcbe 1811 75be c732 92be 6109 64be
00000350: bbf9 a5be bccd 16bf 4d1b 37bf 570f 26bf
00000360: 6d7c 35be 88a0 68be d08f 42be e1cf 04bf
00000370: 82ce b1be 33fd 70be 2260 f7be 9b96 67be
00000380: 97a2 06bf b9c9 8dbe d2a3 f3be c14f bebe
00000390: 2984 53be 20be b6be dbad 00bf 2d65 94be
000003a0: 46ee a1be ab3b 68be fb7c 7ebe f096 bfbe
000003b0: e0c8 f0be 7e72 b2be da03 d9be 77fd b3be
000003c0: 2b3b 78be af03 15bf f43a 2fbe 747e 08bf
000003d0: 4ace 65be 3dfe 85be 946d b1be 1b49 4bbf
000003e0: a483 5fbe 5deb 87be 0a93 a5be 5d88 11bf
000003f0: b469 f2be 52ed cdbe 447f f2be 1a2b bbbe
-0.36152548 -0.5178896 -0.3318009 -0.46974072 -0.06460438 -0.16902062 -0.3220084 -0.47586033
-0.6192006 -0.2645209 -0.2879447 -0.4187147 -0.43518448 -0.3942963 -0.22304848 -0.41136527
-0.16362329 -0.17988963 -0.29677126 -0.40342978 -0.43747863 -0.4121018 -0.1533895 -0.37994143
-0.22774026 -0.60926 -0.20852496 -0.33310032 -0.22649583 -0.32811183 -0.2588443 -0.3857845
-0.27391288 -0.53954864 -0.44012868 -0.27876806 -0.42005613 -0.28754604 -0.14428072 -0.28102148
-0.55645496 -0.41641015 -0.4453043 -0.48991495 -0.19044888 -0.36883694 -0.33244237 -0.37741253
-0.42195025 -0.19519661 -0.15447475 -0.55400324 -0.43994984 -0.3171533 -0.36388025 -0.49499205
-0.5051622 -0.2888346 -0.42147923 -0.39381877 -0.4297768 -0.3180924 -0.3626648 -0.14540027
-0.416506 -0.09510505 -0.39677638 -0.2278615 -0.40324745 -0.39853042 -0.30486032 -0.44999897
-0.3100291 -0.3009867 -0.80904436 -0.6129257 -0.3639099 -0.5405064 -0.45831972 -0.13710584
-0.4624195 -0.30008754 -0.32933557 -0.28264078 -0.24992475 -0.3741278 -0.40186396 -0.17292203
-0.48253235 -0.43178615 -0.27640545 -0.34116292 -0.48907885 -0.338411 -0.6500605 -0.34537923
-0.390219 -0.4205016 -0.5900482 -0.42805985 -0.4595553 -0.34216532 -0.50389266 -0.39937228
-0.780013 -0.5589368 -0.48456714 -0.31734753 -0.45958534 -0.27935207 -0.7437662 -0.32586485
-0.45833796 -0.25195745 -0.4276119 -0.2812324 -0.36068314 -0.33265966 -0.44678026 -0.6557628
-0.30063453 -0.31189826 -0.48825976 -0.22900818 -0.18074302 -0.302749 -0.36498338 -0.18116046
-0.14874245 -0.5877016 -0.43878078 -0.35739622 -0.3637444 -0.25604832 -0.4664977 -0.29445854
-0.5304969 -0.25688067 -0.35305327 -0.30747065 -0.3550623 -0.29300955 -0.5135633 -0.39468735
-0.43955818 -0.5095507 -0.45295826 -0.2678092 -0.31036797 -0.8535281 -0.49713728 -0.44104117
-0.5125541 -0.41844493 -0.5489856 -0.60461956 -0.53705573 -0.36061466 -0.32557875 -0.39962688
-0.4511693 -0.2686036 -0.19825499 -0.18623768 -0.3807994 -0.21298088 -0.5428143 -0.05557219
-0.5091508 -0.21310504 -0.4337293 -0.20953988 -0.3241719 -0.5246585 -0.31169352 -0.45589745
-0.18833153 -0.19135569 -0.40206444 -0.5146083 -0.31973225 -0.22901998 -0.20425798 -0.6360332
-0.3079503 -0.31328386 -0.4339431 -0.47119525 -0.29273954 -0.393592 -0.25200757 -0.32645854
-0.1733765 -0.2772549 -0.29228613 -0.39387622 -0.4802705 -0.2979515 -0.29134336 -0.51523846
-0.72279036 -0.5406914 -0.41702634 -0.3157323 -0.31768408 -0.49009827 -0.32206494 -0.2543069
-0.4311034 -0.23932302 -0.28554365 -0.22269203 -0.32417092 -0.58907676 -0.7152603 -0.64867157
-0.17723246 -0.22717488 -0.19000173 -0.518797 -0.34727865 -0.23534088 -0.4831553 -0.22616045
-0.5259184 -0.27692965 -0.47585922 -0.37170222 -0.20655884 -0.3569193 -0.5026528 -0.2898344
-0.316271 -0.22679012 -0.24852364 -0.37419844 -0.47028255 -0.34852976 -0.4238575 -0.35154316
-0.24241321 -0.58208746 -0.17112333 -0.5331795 -0.22441974 -0.2617053 -0.34653914 -0.79408425
-0.2182756 -0.26546755 -0.32338744 -0.568487 -0.4734627 -0.40220124 -0.4736272 -0.3655632
