canonical_models/8actor.pt (torch, 551461 bytes, 14 tensors)

trunk.network.0.weight f4 [256, 9]
000000 74 e1 f5 3c f3 38 a2 be a5 24 01 3e ca aa 12 3f
       0.030014731 -0.31684074 0.12611635 0.57291853
000010 84 5b 0a bf d4 88 51 3e 4e 79 6b 3e d1 16 1a 3e
       -0.5404589 0.20462352 0.22995493 0.15047766
000020 ab 9f 02 3e 3a 98 44 ba d9 02 18 bd 51 28 56 be
       0.12756221 -0.000749949 -0.03711209 -0.20913817
000030 e0 f9 89 3f 19 6b fc be be dc b4 3e 31 77 90 3e
       1.0779381 -0.4930046 0.35324663 0.28215936
000040 d3 ca 68 3e 10 a0 b4 3e 65 4f 06 3e 7c 91 b0 bd
       0.22733621 0.35278368 0.13116224 -0.08621499
000050 c5 89 58 be 6c 9e 28 3f bc ba 10 bf ba 85 8f bd
       -0.21146305 0.6586673 -0.56534934 -0.07007928
000060 0b 38 5b 3e 7e f4 9e 3e c7 0f ec 3e f2 ef a6 be
       0.21408097 0.31045908 0.46105787 -0.3260494
000070 16 65 89 be e1 b1 12 3d d5 7d 88 3e b3 62 88 bf
       -0.26834935 0.03581417 0.26658502 -1.0655121
000080 1a 7c a1 3e af 11 a1 3e bf 7f a7 bd 22 ee 1b be
       0.31539994 0.31458804 -0.081786625 -0.15227559
000090 a2 da b2 3e bc 55 62 be d3 dc 4d 3d 4b bb 8a be
       0.3493243 -0.22103018 0.050259423 -0.27096018
0000a0 68 7f c1 3e f3 3f c7 3e 96 19 8e bf 03 5a 20 bd
       0.37792516 0.38915977 -1.1101558 -0.039148342
0000b0 d4 b2 97 3e 9d d6 f7 be b3 60 a1 be f6 b7 b5 be
       0.29628623 -0.48405924 -0.31519088 -0.35491914
0000c0 b5 46 5a 3f 77 81 b6 be 2c d1 be bc 38 66 cc 3d
       0.8526414 -0.3564565 -0.0232931 0.09980434
0000d0 35 94 21 3d 8b 49 6b 3e ef 40 e2 be 08 00 4f be
       0.039447982 0.22977273 -0.44190165 -0.20214856
0000e0 06 7f ea bd 54 fa fc 3e 16 59 e7 3d 95 0c 5d 3e
       -0.11450009 0.49409735 0.11296289 0.21586831
0000f0 8b 68 26 3e 1f 02 8e 3e c5 57 af be b4 99 60 3e
       0.16250817 0.27735993 -0.3424665 0.21933633
000100 3d af d5 be 7a ef 94 bc 65 4b 5a 3e a5 55 58 bd
       -0.4173526 -0.018180598 0.21317823 -0.052816052
000110 a4 ef 38 3e 51 84 95 3e fc 15 81 3e 61 df 5a 3e
       0.18060166 0.29202512 0.25212085 0.21374275
000120 40 0c f8 be e9 a1 38 bd 20 b0 85 be 17 80 0a bf
       -0.48446846 -0.045076285 -0.26110935 -0.541017
000130 13 13 1b bf ec 3b d9 3e 72 63 9c 3d e2 84 ba 3d
       -0.6057598 0.4242853 0.07636155 0.09107377
000140 4c 84 8d 3e 8e 8f 9c be 6c 5f 96 bd e8 51 54 bd
       0.27639997 -0.30578274 -0.07342419 -0.051835924
000150 1e 72 23 bf 7f f0 8d 3e 94 3f 4f bd d7 d4 50 3e
       -0.63846004 0.27722546 -0.050597742 0.20393692
000160 f3 27 8d 3e 02 85 82 3e 4e 5e 20 3e ee 54 95 bd
       0.2756954 0.25492102 0.15660974 -0.0729159
000170 9c a9 f0 3d d2 0e 1b be e1 5a 81 bf a9 f3 b6 3e
       0.117511004 -0.15142372 -1.0105859 0.35732773
000180 bb 42 a1 3e 13 0c 70 3e e7 84 1f 3b cf 31 cc be
       0.31496224 0.23442106 0.002434069 -0.3988175
000190 41 e4 1d 3e f6 41 41 bc b4 59 db 3d b5 3b 35 bf
       0.15419103 -0.0117955115 0.10710469 -0.7079423
0001a0 49 19 57 3e 5c 92 41 3e a5 b1 f9 3d d6 5c 84 3e
       0.2100574 0.18903488 0.12192086 0.25852078
0001b0 62 59 96 be fe e6 90 3d b2 3a 04 be d4 e5 31 3f
       -0.2936507 0.07075308 -0.12913015 0.69491315
0001c0 10 76 93 3d 4d d7 5c be 47 7f 5d 3e 76 7a 40 3d
       0.07200253 -0.21566506 0.21630584 0.046991788
0001d0 d7 44 ba 3e 63 8c c7 be 8a 33 a0 be a6 ed 36 3d
       0.36380646 -0.38974294 -0.3128932 0.044660233
0001e0 ac eb 27 3e 5b d0 40 bf d8 f8 d7 3e f2 b3 78 3d
       0.16398495 -0.75317925 0.4218204 0.060718484
0001f0 18 38 16 3c 81 4b 5c be dd 48 fa be 56 91 67 bd
       0.009168647 -0.21513177 -0.48883715 -0.056535088
000200 d7 62 20 3d 38 78 42 bd e2 28 51 bf 53 22 91 3e
       0.03915676 -0.04747793 -0.8170301 0.283465
000210 e0 e2 a9 be 32 a7 67 3e 59 b9 99 3e 40 7d 44 bc
       -0.33180904 0.22622374 0.30024222 -0.011992753
000220 cc eb 90 3b e7 18 9d be 0f 30 83 3e d7 02 0a 3f
       0.0044226404 -0.3068306 0.25622603 0.53910583
000230 56 e0 ac 3e 51 0a c9 3e 3a e9 ab 3e 9f fe 88 be
       0.33764905 0.39265683 0.33576375 -0.2675676
000240 1e 3d f1 be 15 95 c2 be a4 44 e1 3c 72 71 23 bf
       -0.4711694 -0.38004366 0.02749855 -0.6384498
000250 98 2a b3 3e 03 68 6b be 75 e5 64 3e ef 5d d8 3d
       0.34993434 -0.22988896 0.22353156 0.105647914
000260 b5 d3 d5 bd 53 3c c8 be a9 28 45 38 72 4d 8f 3b
       -0.104407705 -0.39108524 4.7006328e-05 0.004373246
000270 58 47 16 3d f5 03 84 be 48 7d 5c 3e f0 c7 df 3e
       0.036689132 -0.2578427 0.21532166 0.43707228
000280 99 e2 17 3e a5 5b d8 be 50 e1 c6 3c c4 f6 8f be
       0.14832534 -0.4225742 0.02427736 -0.28117955
000290 17 ca 7c be 95 23 b1 3e 88 c3 2b 3f d5 da 01 3f
       -0.24686466 0.3459746 0.6709523 0.50724536
0002a0 be b5 56 3d fb 35 75 3d ff 5d b4 bc e6 b8 65 be
       0.052419417 0.059865933 -0.022017477 -0.22433814
0002b0 f7 18 23 be f4 89 eb bc f0 05 a7 be 19 ef 8e bc
       -0.15927492 -0.028752305 -0.32621717 -0.017447995
0002c0 2f d9 0c 3f 38 d8 80 3e f6 33 7c 3e 92 0e 9d bd
       0.55018896 0.25164962 0.24629197 -0.07668795
0002d0 d0 ef 2e 3f b9 32 0d 3d e2 5b f1 bd a2 fb dc 3e
       0.68334675 0.0344722 -0.117851034 0.4316073
0002e0 2e 9d 15 bf a9 ce a0 3e b8 3d 4f 3e 28 bc 8d 3e
       -0.5844296 0.3140767 0.20238388 0.27682614
0002f0 9d 4a 2c bf 39 ec 30 be 49 11 93 be f6 2e ee be
       -0.6730135 -0.17277612 -0.28724125 -0.46520203
000300 10 c7 f8 3e 21 19 b7 3e be 7a ab 3e a1 45 bb 3e
       0.48589373 0.3576136 0.33492082 0.3657656
000310 29 2a 5c 3e a6 44 1e 3b c6 41 fb be 44 96 24 bd
       0.21500458 0.0024149804 -0.4907362 -0.040182367
000320 c9 39 a7 be 01 28 e5 bd c2 4f d9 bd 5d b5 dd 3e
       -0.32661274 -0.11189271 -0.10610916 0.43302432
000330 a3 4e c3 3e 69 a0 c5 3e 1a 45 da 3d 0f 3f 64 be
       0.38145933 0.38598946 0.10657711 -0.2228968
000340 d7 70 94 be 3f 9b 3c 3e 4e 4e 4a 3e 3e cd d0 be
       -0.2899234 0.18418597 0.19756433 -0.40781587
000350 13 33 8b 3e c4 c5 b0 3e 10 8a 9a 3e 96 25 08 3e
       0.27187404 0.34525883 0.30183458 0.13295588
000360 6d 9e 1c 3e 3b 6f 89 be 12 19 a5 3d 20 15 49 bf
       0.1529481 -0.26842675 0.080614224 -0.7854786
000370 ae f1 3d be 9a c3 8c 3e a8 f3 da bd 32 2b b7 3e
       -0.18549225 0.27492982 -0.10691005 0.35775143
000380 8b 89 90 be 84 f6 8d be 31 96 05 3d 29 f7 68 be
       -0.28229937 -0.2772714 0.032613937 -0.22750534
000390 07 33 21 be 18 a5 52 3f 9a b3 0e bd 7d 83 98 3e
       -0.15742122 0.82283163 -0.03483925 0.29787818
0003a0 fd d9 cf 3e 98 fc c2 bd ee 4c ae be 20 b6 9a 3d
       0.40596 -0.09520835 -0.34043068 0.07554269
0003b0 59 99 91 3e 9e c6 d3 3d 41 32 b9 3d e1 5c 52 3d
       0.28437307 0.103406176 0.09042788 0.051358107
0003c0 2c ce 41 3e 8b b5 9a 3e b0 3d 55 3d 3d 8b 3e 3d
       0.18926305 0.3021663 0.052060783 0.046519507
0003d0 ce 34 9d be 41 87 20 bd 83 82 4c 3e ea 8c fc 3d
       -0.3070435 -0.03919149 0.19971661 0.12331565
0003e0 78 fe 84 3e 99 f8 f8 bd eb 46 30 3e eb 56 f5 be
       0.25975394 -0.12156791 0.17214553 -0.47917876
0003f0 9a 81 32 be 6e 35 bc be 78 75 19 be 3a 82 cd be
       -0.17432252 -0.36759514 -0.14986217 -0.40138417

trunk.network.0.bias f4 [256]
000000 9a b7 be bd f2 55 5f be 99 46 53 3b 6b 1b 44 3d
       -0.09312363 -0.2181013 0.0032238124 0.04787771
000010 e5 62 96 3e 22 10 e3 3e 76 2b 4d 3e e7 5e 7f bd
       0.29372326 0.44348246 0.2003611 -0.062346365
000020 60 bf 1b 3e bd 28 a1 3e 4d 7e cc be 48 d8 44 3f
       0.15209723 0.31476393 -0.3994011 0.7689252
000030 f4 6e fb 3e e6 67 10 be 3f 68 66 3e c6 52 83 3d
       0.49108088 -0.14102134 0.22500704 0.06412272
000040 4b 7c 74 3e 34 79 ee 3e 5f a2 d1 3d b0 56 55 be
       0.23875539 0.46576846 0.10236048 -0.2083385
000050 82 69 79 3e f6 59 98 3e d2 93 bb 3e 1c 8a 79 3e
       0.24356654 0.29756135 0.36636215 0.24369091
000060 cb f5 0a be 0b 74 c5 3e 43 de 12 3d 7c 13 72 bc
       -0.13570325 0.38565096 0.035856497 -0.014775153
000070 7b b9 37 3f 05 fd 85 3c 5b 8b ae 3e ba da 11 3f
       0.71767396 0.016356 0.34090695 0.56974375
000080 10 24 d0 3d 09 4d 18 3e 44 44 89 3e fc 17 d5 3e
       0.101631284 0.14873137 0.26809895 0.4161986
000090 66 c7 ce bc 0a 10 21 3f dc 78 78 be 12 cf 9a bd
       -0.025241565 0.629151 -0.24264854 -0.07559027
0000a0 48 5f 1b be 9c e0 e5 3e dc 67 20 3d ff 0e e8 3e
       -0.15173066 0.44897926 0.039161548 0.4532394
0000b0 c9 2e 26 3f ab 4e c4 bd 22 4d 97 bd ef f8 2a 3e
       0.6491514 -0.09585317 -0.07387759 0.16696523
0000c0 cf bc 3b 3e 80 db 0f 3e 20 e5 61 3e 77 50 3f 3e
       0.18333744 0.14048576 0.2206006 0.18683039
0000d0 f1 29 fe 3c 2c 7f a0 be a4 73 ca 3d c5 a7 a6 3e
       0.031025859 -0.31347024 0.09885338 0.32549873
0000e0 a3 0f 5b be ce 44 84 3e 74 cc a1 3e 46 c8 7c 3e
       -0.21392684 0.25833744 0.31601298 0.24685773
0000f0 fc 32 97 3e 39 25 63 3e b0 9c 6f bd 7f 58 57 3e
       0.29531085 0.22182168 -0.05849904 0.21029852
000100 c4 67 12 3f 75 29 4b 3f 29 49 84 3d 60 68 ca 3e
       0.57189584 0.79360133 0.06459267 0.39532757
000110 9f 23 2f be b2 28 8f bd 22 c3 dd 3d 93 4f a9 3e
       -0.17103432 -0.06990184 0.10828234 0.33068523
000120 b0 c0 4d be 75 e7 be 3e 09 76 f8 3e 0f f5 02 3f
       -0.20093036 0.37285963 0.48527554 0.5115518
000130 97 ed 05 3f 50 af 4b 3b 5f 36 51 bd 1c e3 4d 3c
       0.5231566 0.0031079836 -0.051077243 0.012566354
000140 93 dc eb 3e 86 d8 4c be 18 1f f7 3e fb 55 30 3e
       0.46066722 -0.20004472 0.4826591 0.17220299
000150 aa 51 e0 3e b9 6f e6 bd 96 fe ff 3e 09 5a ce 3e
       0.43812305 -0.11251778 0.4999892 0.40303066
000160 f6 32 0e 3f 26 23 94 3d d9 7e 18 be be 8a 26 3f
       0.5554651 0.072332665 -0.14892139 0.65055454
000170 58 0f 39 3e 9b 72 f6 3e e0 ff 74 3e 0c 06 44 be
       0.1807226 0.48134312 0.23925734 -0.19142932
000180 a5 99 e7 3e 14 00 c3 3e 0a d4 d9 3e 7f 26 2a 3e
       0.4523441 0.38085997 0.42544585 0.16616248
000190 3e 7c 56 3e 7b dd 0a 3f 6c 89 d9 3d 81 cd b3 be
       0.20945832 0.542442 0.10621914 -0.35117725
0001a0 8c 06 10 3f f0 d4 9c 3e 3c ed 58 3e 21 c4 62 3e
       0.5625999 0.30631208 0.21184248 0.2214513
0001b0 1c 32 14 3f c1 36 5c bd 65 00 3e 3f 2c 16 3e be
       0.5788896 -0.053763155 0.7421935 -0.18563145
0001c0 2c 4f bc 3d 45 ae 10 3e 9f 1b 13 3d c1 99 d4 3e
       0.09194788 0.14128979 0.035915013 0.41523555
0001d0 0f 25 97 3e 80 17 1b 3e 30 cf 08 3f 85 d3 ef 3e
       0.2952046 0.15145683 0.53441143 0.46841064
0001e0 72 a1 f4 3d 02 61 b0 3d 43 ad 95 bc 27 12 2e 3e
       0.11944856 0.08612253 -0.018271094 0.16999112
0001f0 ee 34 5f be 0a 73 21 be 8c 94 0b 3e 62 46 fa 3d
       -0.21797535 -0.1576654 0.13630885 0.12220456
000200 a5 d2 e6 3d aa e5 ec 3e 0c 2c af be 44 64 35 be
       0.11270646 0.4626897 -0.34213293 -0.1771403
000210 83 f5 5f be fa 49 01 3f cb 8c 8e be be 8f e2 bd
       -0.21870999 0.50503504 -0.27841792 -0.11062573
000220 27 1c 12 3e 33 4e 02 3f 75 bf 9d 3e d6 ac 16 3f
       0.14268552 0.5090057 0.30810133 0.58857477
000230 69 46 fc 3d 77 83 b0 3c 1e 40 9f be 2a e0 2b be
       0.12318117 0.021547062 -0.31103605 -0.1678473
000240 a7 22 4c be e3 03 8f 3e 66 31 ed 3e 0e ef aa bc
       -0.19935094 0.27932653 0.4632675 -0.020865943
000250 c7 30 e5 3e f1 83 c7 3e f4 28 ad bd a9 ee d6 3e
       0.44763777 0.3896785 -0.08455077 0.41978958
000260 2f b5 3f be d2 f4 94 be eb 6a f8 3e ed 68 9a bd
       -0.1872146 -0.29093033 0.48519072 -0.07539544
000270 f1 e6 ed 3e e0 c2 ea 3e 10 d9 7a 3e b9 4a 85 bd
       0.46465257 0.45851803 0.24496865 -0.06508393
000280 44 a6 80 3e 8e 34 46 3d f1 1d 29 bd 98 33 95 3d
       0.2512685 0.048389964 -0.04128832 0.07285231
000290 0d 75 0a bd 71 d4 90 be e0 79 92 bd d8 22 4e 3d
       -0.033803035 -0.2828708 -0.07152152 0.0503262
0002a0 a9 f2 50 bd e8 09 80 be f2 c5 0b be 56 57 5f bd
       -0.05101267 -0.25007558 -0.13649729 -0.05452665
0002b0 27 56 9b 3e 25 48 57 3d a7 d2 16 be b1 b5 0b 3f
       0.30339167 0.052559037 -0.14728795 0.54574114
0002c0 7c f3 03 3f 8e aa 83 3e 80 27 a8 bd cf 2a 65 be
       0.515434 0.2571606 -0.08210659 -0.22379611
0002d0 ee f6 2e 3e cc cd 89 bd f5 9c 80 3e bd 0b 07 3f
       0.17086384 -0.06728706 0.2511975 0.52752286
0002e0 29 04 68 3d b0 11 a7 3e 41 1d 96 3c 6b 57 24 3f
       0.056644592 0.32630682 0.018324496 0.6419589
0002f0 38 4e 3d 3e db ea a2 3d c9 f1 90 3e 92 dc 8e bb
       0.1848687 0.079549514 0.28309467 -0.00435979
000300 28 53 cd 3e 64 e6 6c 3e 6e 2f 41 bd 9c ea 85 bd
       0.40102506 0.23134762 -0.047164373 -0.06538889
000310 77 07 82 bd 77 d7 70 bd 72 c7 24 bd 53 27 c1 3d
       -0.0634908 -0.058799233 -0.04022927 0.094313286
000320 cb 93 ef 3e c1 37 cf be d7 a1 32 3c 38 d3 ec 3e
       0.46792445 -0.40472224 0.010902843 0.46254897
000330 ec 4a 16 bd 78 61 c5 3d 98 4c 04 3f b1 10 f4 3e
       -0.036692545 0.09637731 0.5167937 0.47668985
000340 f1 94 89 be 76 18 8a 3c a9 f2 68 be 3f 21 66 be
       -0.26871446 0.016857367 -0.22748818 -0.2247362
000350 15 47 03 be ac 18 b4 3e 2e 2f e4 3e 89 f0 b4 3c
       -0.12820084 0.35175073 0.44567245 0.022087352
000360 4c 0d 26 be c8 99 8c 3e 31 da 28 be 9c 6c e4 bc
       -0.1621601 0.27461076 -0.16489483 -0.02788382
000370 70 f5 96 bd c1 c4 4e 3e 40 d5 49 3f 56 25 00 3e
       -0.07371032 0.20192243 0.7884102 0.12514243
000380 17 d6 10 bd f2 21 39 3e 0a 19 53 3e 0f 2f 1d 3e
       -0.035360422 0.18079355 0.2061502 0.15349983
000390 f9 e3 10 be f8 d6 df 3e ff 8b 7a be e6 10 11 3f
       -0.14149465 0.43718696 -0.24467467 0.5666641
0003a0 0f 8a 5b 3c 07 24 81 3e 03 88 13 bd 84 44 fe bd
       0.013399615 0.252228 -0.036018383 -0.12415412
0003b0 ac ea de 3d 73 12 19 3f 51 64 30 bd 6b 4e 07 3f
       0.10884604 0.59793776 -0.04306442 0.5285403
0003c0 b2 7b 4b be 72 83 b0 3e cb 18 80 3e 8d c1 8e bd
       -0.19871405 0.34475285 0.25018916 -0.06970511
0003d0 84 95 a7 3e 0c 08 d6 bd 84 d5 08 3f 14 4d b7 bc
       0.3273126 -0.104507536 0.534508 -0.02237562
0003e0 89 9a 99 bc 6f 26 c2 3e 77 71 50 3d 7e a3 83 3c
       -0.018750446 0.37919948 0.05088946 0.01606917
0003f0 19 fb 82 bd bb 70 0f 3e ce 1c 1f be c1 81 21 3f
       -0.06395549 0.14007847 -0.15538332 0.63088614

trunk.network.1.weight f4 [256]
000000 60 34 56 3f a0 b7 9d 3f de df a9 3f 90 0a cc 3f
       0.8367367 1.2321663 1.3271444 1.5940723
000010 71 d6 de 3f 67 fd 1b 3f 22 95 15 3f 02 99 34 3f
       1.7409192 0.60933536 0.58430684 0.7054597
000020 9e 59 45 3f d2 41 2f 3f 6d a6 a2 3f 92 e1 ab 3f
       0.7708987 0.6845981 1.2707039 1.3428214
000030 d1 be b8 3f 8a da 92 3f 1f 06 4b 3f a1 a2 1e 3f
       1.4433233 1.1472943 0.79306215 0.619669
000040 ff 0b 7d 3f 63 b7 42 3f dc b8 42 3f 40 31 11 3f
       0.9884643 0.76061076 0.76063323 0.56715775
000050 cf 13 a7 3f 61 08 df 3e 59 1b eb 3e 23 9f a9 3e
       1.305292 0.4356108 0.45919302 0.33129224
000060 41 e8 7b 3f be 16 63 3f 8a 3e 79 3f c1 e1 58 3f
       0.98401266 0.88706577 0.9736105 0.84719473
000070 f2 e7 1a 3f ce 8d a8 3f ab d6 7e 3f 5e 40 16 3f
       0.6051017 1.3168275 0.9954631 0.58691967
000080 41 cb 59 3f 8f 9f 9a 3f 5f 76 39 3f f6 fd 9c 3f
       0.85075766 1.2079943 0.72446245 1.2265003
000090 4c 1b 98 3f 59 93 55 3f e4 c3 18 3f 71 93 ca 3f
       1.188333 0.8342796 0.59673905 1.5826246
0000a0 c0 2c 9e 3f 2e c7 92 3f 3f b2 a9 3f bb 1f b2 3f
       1.2357407 1.1467035 1.3257521 1.3915933
0000b0 af 93 09 3f a8 25 a9 3f 77 e6 ca 3f 3e 31 89 3f
       0.5374097 1.3214617 1.5851582 1.0718153
0000c0 4b 57 e9 3f dd 89 18 3f 2a a7 df 3f b7 c8 18 3f
       1.8229765 0.5958536 1.747289 0.59681267
0000d0 ee 26 c3 3f b3 5e 28 3f a2 fb a0 3f b7 e1 c3 3e
       1.5246255 0.657695 1.2576792 0.38258144
0000e0 49 1e fd 3f 8e 07 4f 3f 9b be e4 3f a8 39 c0 3e
       1.9774867 0.808709 1.7870668 0.37543988
0000f0 86 7f 59 3f 01 1f dc 3f 58 08 d5 3f 8e 31 a2 3f
       0.8496021 1.7196962 1.6643171 1.2671373
000100 2d a3 6d 3f da 5d 23 3e 4c 0a b4 3f b5 a1 a4 3f
       0.9282711 0.1595377 1.4065642 1.2861849
000110 75 f9 a1 3f 2e ae b7 3f a0 62 40 3f d9 fb 35 3f
       1.2654253 1.435003 0.7515049 0.71087414
000120 21 95 b6 3f 50 5a 44 3f c9 24 11 40 bd ee c1 3f
       1.426426 0.76700306 2.2678702 1.5150982
000130 9c 32 ac 3e 72 8c af 3f fd 5f bb 3f 85 d6 e1 3f
       0.33632362 1.3714736 1.4638668 1.7643591
000140 63 bd d0 3f bd de b9 3f 45 c7 93 3f 4d d2 0a 40
       1.6307796 1.4521099 1.1545187 2.1690857
000150 83 d2 3b 3f 93 62 b7 3f 69 96 84 3e 21 a9 4f 3f
       0.7336809 1.4326957 0.25896004 0.81117445
000160 97 af c7 3e dc d3 ad 3f c2 4c 9d 3f f2 cc 6f 3f
       0.39001152 1.3580279 1.228905 0.93672097
000170 43 69 89 3f c2 15 86 3f a1 46 a7 3f 5a 87 41 3f
       1.0735248 1.047539 1.3068429 0.75597155
000180 9b 9c 8b 3f d1 49 85 3f f0 26 11 3f e4 b3 6f 3f
       1.0907167 1.0413152 0.5670004 0.93633866
000190 f5 67 de 3f 92 19 94 3f a0 72 db 3f bb c0 ad 3f
       1.7375475 1.1570303 1.7144356 1.3574442
0001a0 52 30 9e 3f 68 c7 59 3f 55 8d 15 40 28 3e 7f 3f
       1.2358496 0.85069895 2.3367512 0.9970422
0001b0 af 8a 6d 3f 87 cf 0f 3f e0 da 75 3f f1 8e a2 3f
       0.9278974 0.56176037 0.960371 1.2699872
0001c0 4b 99 8c 3f a9 88 c6 3f d4 25 14 40 f0 45 1b 40
       1.0984281 1.5510455 2.3148088 2.4261436
0001d0 a4 ac e0 3e a3 b4 81 3f 8e 67 61 3f 90 ac 7b 3f
       0.43881714 1.0133251 0.88048637 0.98310184
0001e0 40 59 98 3f dc 15 6a 3f 18 c1 e9 3f ef 8d a8 3f
       1.1902237 0.91439605 1.8262053 1.3168315
0001f0 fa 22 a4 3f 8a 0b 24 3f 45 03 9f 3f 0d 72 9e 3e
       1.2823174 0.6408011 1.2422873 0.3094639
000200 b7 c6 f6 3f 92 10 26 3f cc 36 7d 3f 2b 68 9b 3f
       1.9279393 0.64869034 0.9891174 1.2141165
000210 d0 1f cf 3f da f6 9c 3f 8b df 0e 3f d0 b5 77 3f
       1.6181583 1.2262833 0.5580985 0.967618
000220 f2 2a e3 3f 6a 09 80 3f 81 15 fe 3e f4 c7 a4 3f
       1.7747481 1.0002873 0.4962578 1.2873521
000230 36 31 8b 3f 81 e8 6f 3f 39 b3 56 3f a2 a1 98 3f
       1.0874393 0.9371415 0.8386722 1.1924326
000240 29 17 99 3f 0d 6b ae 3f 2b 39 82 3f d9 09 cb 3f
       1.1960193 1.3626419 1.0173696 1.586238
000250 a7 5a 90 3e bc d5 bd 3f 1a 7e 0f 3f 48 6b e0 3f
       0.28194162 1.4830852 0.5605179 1.753274
000260 94 db 82 3f a9 c1 f5 3f 1f 40 0f 40 51 e0 66 3f
       1.022326 1.9199725 2.2382886 0.9018603
000270 e7 25 72 3f 20 04 ed 3e a9 ef 98 3f 3e fb b8 3e
       0.94589084 0.4629221 1.1948138 0.36129183
000280 8d c6 1f 40 ce 3f a9 3f fd 21 19 3f ed 14 5b 3f
       2.4964936 1.3222597 0.59817487 0.85578805
000290 86 31 00 40 e8 7d b6 3f 45 e6 77 3f 88 92 9b 3f
       2.0030227 1.4257174 0.9683574 1.2154093
0002a0 a3 2e 90 3f 3d d8 a3 3f 31 28 be 3f 58 01 1b 3f
       1.1264232 1.2800366 1.4856015 0.60548925
0002b0 53 9a 83 3f 64 d9 86 3f 16 4f a1 3f 96 63 27 3f
       1.0281471 1.0535092 1.260226 0.6538633
0002c0 81 c9 19 3f 54 13 e4 3f 56 36 22 3f 4b 14 78 3f
       0.60073096 1.7818398 0.6336416 0.96905965
0002d0 c3 75 6e 3f df e1 90 3f e6 02 c2 3f 52 de f6 3e
       0.9314844 1.131893 1.5157135 0.48216492
0002e0 51 91 83 3f 14 cf cd 3e 2d 2a 66 3f 0d 90 e1 3e
       1.0278722 0.4019705 0.89908105 0.44055215
0002f0 67 8e 87 3f eb 52 e1 3e 14 63 42 3f 94 c7 ca 3f
       1.0590333 0.44008574 0.7593243 1.5842156
000300 65 58 8c 3f d8 df b1 3f 3c a4 40 3f b9 ef 63 3f
       1.0964476 1.3896437 0.752506 0.8903766
000310 f2 76 50 3f 5c 4a ef 3f 9f 5f f7 3f 7e 6c 04 3f
       0.81431496 1.8694568 1.9326056 0.51728046
000320 0a 9e 54 3f 13 aa 9a 3f aa 65 89 3f 3a 10 84 3f
       0.8305365 1.2083153 1.073415 1.0317452
000330 0b da 85 3f 77 79 ff 3f 48 90 88 3e 78 54 ec 3f
       1.0457166 1.9958943 0.26672578 1.8463278
000340 11 03 88 3f 88 11 a2 3f 28 ea 89 3f 99 a1 bb 3f
       1.0625936 1.26616 1.0774584 1.4658691
000350 fb 21 47 40 87 7f 51 3f e3 12 f1 3f a3 b0 e7 3f
       3.111449 0.81835216 1.8833889 1.810078
000360 f0 c2 96 3f f1 13 d0 3f 78 49 83 3f 50 17 99 3f
       1.177824 1.6256086 1.0256796 1.196024
000370 c0 8e 3a 3f d8 88 21 3f a6 45 ce 3e 0c ea b5 3f
       0.7287407 0.6309943 0.40287513 1.421205
000380 17 d3 1e 3f 22 0d ab 3f a2 e3 95 3f e1 30 8a 3f
       0.6204085 1.3363383 1.1710093 1.0796167
000390 62 f0 49 3f 7c 0b 1d 3f 5b 03 04 3f 6a 7e 32 3f
       0.7888242 0.6134565 0.5156762 0.6972414
0003a0 8a 32 ac 3f e0 10 ff 3e 9b 24 a0 3f 73 87 c2 3f
       1.3452923 0.49817562 1.2511171 1.5197586
0003b0 8d b8 9b 3f da cf 07 3f 70 d9 ee 3f 3b 45 7c 3f
       1.2165695 0.5305153 1.8660107 0.9854314
0003c0 96 da 3a 3f 7b d3 43 3f 79 b9 f4 3e f9 c2 ba 3f
       0.72989786 0.7649457 0.47797754 1.4590751
0003d0 25 9a c3 3e d0 23 ef 3f d2 17 f5 3e a9 8c f2 3e
       0.3820354 1.8682804 0.47869736 0.4737294
0003e0 1c 25 a0 3f 74 8d 66 3f f1 59 2e 3f 10 c3 95 3f
       1.2511325 0.9005959 0.6810599 1.1700153
0003f0 c9 81 e9 3f 19 4f 4d 3f 08 6f 8c 3f 51 07 67 3f
       1.8242732 0.8019882 1.0971384 0.9024554

trunk.network.1.bias f4 [256]
000000 78 80 92 be 3f 0b 6c bd ba 48 c0 bd 0b 71 a4 bd
       -0.2861364 -0.057627913 -0.093888715 -0.08029374
000010 e5 f4 83 be 4e 8e 1e bf 3a 46 fa be 06 63 dd be
       -0.25772777 -0.6193589 -0.48881704 -0.4323961
000020 0a e9 e8 be c1 68 09 bf 7e 07 65 be c7 0d 90 be
       -0.45490295 -0.53675467 -0.2236614 -0.2813551
000030 ca ed 34 be c9 93 52 be fe 24 d1 be b9 6c fe be
       -0.17668834 -0.20564188 -0.40848535 -0.49692324
000040 31 46 f3 be 2b cb c6 be 12 1d d4 be 11 16 e8 be
       -0.4751449 -0.3882688 -0.4142843 -0.45329335
000050 7a 49 26 be fc cf 31 bf 82 3b 1e bf 3b 05 3c bf
       -0.16238967 -0.69457984 -0.6180955 -0.7344548
000060 65 b1 70 be a3 e7 bd be 03 cc 8d be 1d ea 7a be
       -0.2350517 -0.37090787 -0.2769471 -0.2450337
000070 c8 12 16 bf 5e a7 17 be ea 6d 90 be b6 88 1c bf
       -0.5862241 -0.1480994 -0.28208858 -0.61146104
000080 49 46 cb be 41 b2 85 be e6 24 00 bf 92 77 7a be
       -0.3970206 -0.2611256 -0.500563 -0.24459675
000090 6e 32 3a be 3b 4b 97 be af ee f6 be 60 ed b5 bd
       -0.181833 -0.29549584 -0.48228976 -0.08883166
0000a0 2f 51 9b be 76 16 db be 39 ad 4b be db a4 99 bd
       -0.30335376 -0.42790574 -0.19890298 -0.07502147
0000b0 1b f3 1e bf fa 15 75 be ab 78 b9 bd be cd 98 be
       -0.620897 -0.23934165 -0.09056219 -0.2984447
0000c0 30 9d 73 3a c9 15 9d be df d8 66 bd 00 be 02 bf
       0.0009293137 -0.30680683 -0.05635917 -0.51071167
0000d0 47 d4 71 be 74 e2 da be 05 c3 08 be 5b e9 22 bf
       -0.23616134 -0.42750895 -0.13355644 -0.6363732
0000e0 1d 5d 0d bd ea 11 af be 17 d5 d8 bd 1b 20 29 bf
       -0.034512628 -0.34193355 -0.10587519 -0.66064614
0000f0 90 b8 ca be 1c c0 17 3d a7 8a eb bd 05 70 32 be
       -0.39593935 0.037048444 -0.11501055 -0.17425545
000100 15 06 7c be 7d de 57 bf aa d5 69 be 0d be 85 be
       -0.24611695 -0.84323865 -0.22835413 -0.2612156
000110 e3 c8 99 be 15 72 59 be bb b7 e4 be 59 77 1f bf
       -0.30036077 -0.21234925 -0.44671425 -0.62291485
000120 e9 9a 9a bd 09 c2 bf be 7d 97 f3 3d 25 c0 32 be
       -0.07549078 -0.37452725 0.118941285 -0.1745611
000130 9b fa 38 bf 42 43 76 bb 13 ee 5d bc 01 8f 0a bd
       -0.72257394 -0.003757671 -0.013545531 -0.033827785
000140 43 d2 03 be 3f ad 0b be e6 d2 fc bd 82 53 38 3e
       -0.12873177 -0.13640307 -0.12344913 0.18000606
000150 e4 46 e8 be d3 b8 22 be cc 97 3d bf 39 53 e3 be
       -0.45366585 -0.15890817 -0.7405975 -0.4439943
000160 73 9a 24 bf 36 f5 38 be f3 f1 fa bd c5 bd 55 be
       -0.6429817 -0.1806229 -0.122531794 -0.20873173
000170 98 a1 a4 be b8 45 b1 be 1b 5f ec bd 91 5c c6 be
       -0.32154536 -0.34623504 -0.115415774 -0.38742498
000180 1d d3 35 be f7 d3 cd be e8 bd 02 bf 48 43 83 be
       -0.17756315 -0.4020078 -0.51071024 -0.2563727
000190 04 4e d9 bd 08 4b 16 be 8f 0f bc bd 53 07 9b be
       -0.106105834 -0.1467706 -0.09182655 -0.30279025
0001a0 f1 55 5d be cc 92 bd be e1 86 f2 3c 70 a2 aa be
       -0.21614815 -0.3702606 0.02960533 -0.33327055
0001b0 15 67 d7 be 39 10 1b bf fd 8b 54 be 19 51 22 be
       -0.42070833 -0.6057163 -0.20756526 -0.15851249
0001c0 97 58 97 be cb ed 52 be fb 25 aa bd 2c 59 2e 3e
       -0.29559776 -0.20598523 -0.083080254 0.17026204
0001d0 9d 99 21 bf 97 77 a6 be 78 87 95 be 7d 7f 89 be
       -0.6312502 -0.32513115 -0.29204917 -0.26855078
0001e0 fa f8 12 be 18 bc c6 be 57 a7 91 3c 0f 5e 2b be
       -0.1435279 -0.3881538 0.01777999 -0.167351
0001f0 78 bd 66 bd 10 72 d7 be 45 3f 25 be 8d 4b 43 bf
       -0.056333035 -0.4207921 -0.16137417 -0.76287156
000200 57 7a 90 3e 42 d1 fb be 39 23 cd be 80 da 9e be
       0.28218338 -0.4918309 -0.40065935 -0.31026077
000210 db 6e 19 be 93 c2 43 be 31 ff 0f bf 76 3a a4 be
       -0.14983694 -0.19117193 -0.56248766 -0.32075852
000220 c2 91 94 3d 8d ce c3 be 15 42 09 bf b9 83 04 be
       0.072543636 -0.38243523 -0.5361646 -0.12940873
000230 3c b2 aa be 51 9e 92 be cd 7b b9 be d2 bb 2c be
       -0.33339107 -0.2863641 -0.36227265 -0.16868523
000240 69 4c 34 be e3 8d 01 be 65 02 89 be c5 2c ff bd
       -0.17607273 -0.12651782 -0.2675964 -0.12459711
000250 cc 01 46 bf 29 86 cd be 9b 24 0d bf 6f 91 d8 bd
       -0.7734649 -0.4014142 -0.5513398 -0.10574614
000260 17 17 46 be cd e5 91 bd a7 14 bf 3d 1c 66 8b be
       -0.19344746 -0.07123909 0.09330111 -0.2722634
000270 2d ad 96 be ee 33 2f bf 9f 30 13 be 4b 8c 39 bf
       -0.29428998 -0.68438613 -0.14374016 -0.72479695
000280 6b 0e 2d 3d ca 1f 1c be 1e 05 12 bf a2 bd 73 be
       0.04225008 -0.15246502 -0.5703906 -0.23802808
000290 3f b2 07 be 9a 2c d9 bd 5f 3e 86 be 09 83 8b bd
       -0.13251589 -0.1060421 -0.2621946 -0.06812102
0002a0 09 2b c7 be 55 d8 3f be 63 57 46 be 06 65 c0 be
       -0.3890002 -0.18734868 -0.19369273 -0.37577075
0002b0 dc 5b 2f be 70 51 a9 be 37 18 77 be f7 bd bb be
       -0.17124885 -0.33069944 -0.24130331 -0.3666837
0002c0 25 e9 07 bf 00 90 3d 3b 84 1f 01 bf 61 fe a0 be
       -0.53090125 0.0028924942 -0.50438714 -0.31444076
0002d0 eb fc f0 be 83 0b 76 be 2b 79 09 be da 4c 25 bf
       -0.4706796 -0.24027829 -0.13425128 -0.6457039
0002e0 61 58 80 be 38 5d 1f bf 19 f6 b6 be 54 f3 24 bf
       -0.25067428 -0.62251616 -0.35734633 -0.6443379
0002f0 3c 3e 8b be 45 29 26 bf 7a 64 e7 be 2f 65 e3 3d
       -0.2719592 -0.6490672 -0.45193845 0.111032836
000300 33 97 c2 be 38 83 cd be be 22 c7 be d6 36 fc be
       -0.3800598 -0.40139174 -0.38893694 -0.49260587
000310 17 07 da be 59 68 b0 bc 1d f4 e7 bd c9 40 f1 be
       -0.42583534 -0.021534132 -0.11325858 -0.4711974
000320 b2 03 c6 be f6 5c 14 be 7b ac 6d be 74 43 88 be
       -0.38674694 -0.14488587 -0.23210327 -0.26613963
000330 7f 2b 73 be 45 83 b4 bd dc 05 4c bf 0b b0 3b 3d
       -0.23747061 -0.088141 -0.7969644 0.045822185
000340 9a dd 65 be 8d 72 29 be b8 51 55 be 4e 74 22 be
       -0.22447816 -0.16547604 -0.20831954 -0.15864679
000350 4e cf af 3d 02 91 e1 be f6 2f 87 bd 27 1b dd bd
       0.08584462 -0.44055945 -0.06600945 -0.107961945
000360 b1 c0 88 bd a8 8a 14 be 71 27 aa be 93 0e 4b be
       -0.06677378 -0.14506018 -0.33233216 -0.19829778
000370 3a 11 d1 be c9 78 00 bf dc af 1d bf d3 67 6b be
       -0.40833455 -0.50184304 -0.61596465 -0.22988825
000380 f7 a7 0e bf a0 86 59 be ca 8b 8e be a6 8e 82 be
       -0.55725044 -0.21242762 -0.27841026 -0.25499457
000390 7e d7 0e bf b6 90 f2 be 90 68 00 bf 3b b8 c5 be
       -0.55797565 -0.4737603 -0.5015955 -0.3861712
0003a0 58 7c 96 be bb 57 1e bf fb 66 54 be bb 7b 3f be
       -0.29391742 -0.61852616 -0.20742409 -0.18699543
0003b0 be 9d fd bd 14 fb f7 be 50 1b 0b 3d 01 a7 c0 be
       -0.123836026 -0.48433745 0.033961594 -0.37627414
0003c0 07 a8 a4 be d6 ac d6 be 3d 05 28 bf 19 62 61 be
       -0.32159445 -0.41928738 -0.65632993 -0.22010078
0003d0 2a ed 30 bf c2 43 db bd 28 b1 21 bf fa ec 05 bf
       -0.69111884 -0.10706283 -0.63160944 -0.5231472
0003e0 5b 1a 53 be 98 9a d3 be 82 dd 01 bf 6e a4 1d bc
       -0.20615523 -0.41328883 -0.5072862 -0.009621723
0003f0 ae 11 06 3e 63 21 e2 be 78 6f 97 be af 99 dc be
       0.13092682 -0.44166097 -0.2957723 -0.43086

trunk.network.3.weight f4 [256, 256]
000000 11 79 05 bd 72 b9 36 3d 0c 7a b1 be 1f 36 f1 3e
       -0.03258616 0.04461045 -0.34663427 0.47111604
000010 7b 4c 8a be df 17 8a 3e b9 bd 08 3e 61 e5 73 3e
       -0.27011475 0.26971337 0.13353623 0.2381797
000020 7f b4 54 3e c0 ec 07 3e 35 25 ab be b4 30 22 be
       0.20771979 0.13273907 -0.33426824 -0.15838891
000030 36 dc 6c be d7 9f 26 3e 57 71 f7 bc 47 a6 b6 3e
       -0.23130879 0.16271912 -0.030205412 0.35673735
000040 a1 be 05 3e 2a a1 16 3d 70 bd 4c 3e 2d 9c 9f 3e
       0.13061 0.03677479 0.1999414 0.3117384
000050 56 31 ca bc ad 69 4e 3e 31 5f a4 3e 99 19 d2 3e
       -0.024681728 0.201575 0.32103875 0.41035154
000060 7b 5e 13 3e 81 2d 0f 3e a7 32 5d 3e 5a aa 0f 3e
       0.1439151 0.13982202 0.21601354 0.14029828
000070 24 71 b6 3e 20 33 46 bf 91 9d 75 be 0e 67 cd 3c
       0.35633194 -0.7742176 -0.23985888 0.025073554
000080 e3 82 03 3e bc 1c 1f be 62 51 9b 3e 16 cd 74 3d
       0.12842898 -0.15538305 0.30335528 0.059765898
000090 2f 1f c6 3e 5a 44 05 be 34 fc 2e be 63 a3 29 3b
       0.38695666 -0.13014355 -0.17088395 0.002588474
0000a0 ad 2e f6 bc 74 d5 4c bd d4 e0 52 be 49 b7 9c 3e
       -0.030051554 -0.050008252 -0.20593578 0.30608585
0000b0 32 56 5e 3e 88 e1 b5 3e 3d ba d9 bd bd 6c 3e 3d
       0.21712568 0.3552363 -0.10631225 0.04649042
0000c0 a2 27 50 be 25 b4 21 3e 93 7b 81 3c 22 0d 80 3e
       -0.20327619 0.15791376 0.015805995 0.2501002
0000d0 0d 2b e3 bd e1 14 f7 3e 5f 27 cb bd 05 35 92 3e
       -0.11092196 0.48258117 -0.09919619 0.28556076
0000e0 77 3b b5 bd 21 7c a5 3e 7f 37 38 3e 0c 2a d7 3e
       -0.08849233 0.32321265 0.1798992 0.42024267
0000f0 f3 73 3c 3e a6 e2 93 3e 78 2c 51 3e d9 2a 30 bc
       0.18403606 0.28883857 0.2042712 -0.010752403
000100 f0 47 b5 3e 94 86 86 3d 6d 4a 63 be d1 5e d1 3b
       0.35406446 0.065686375 -0.2219636 0.006389477
000110 0f 0f a1 bd 0a d4 68 be a7 6b ee bd 42 97 85 3e
       -0.078642 -0.22737136 -0.11641627 0.26091963
000120 5e e3 a8 3e df cc b7 bd 57 45 03 3e 04 0c b6 3d
       0.32985967 -0.08974623 0.1281942 0.088890105
000130 d6 c4 e1 3e 15 9b e3 3c 5c 7a 31 3e 15 3b 4d 3e
       0.44095486 0.02778391 0.17331833 0.2004207
000140 7a aa ae be e7 da d2 3e 3b 28 cc 3e 43 e5 b4 3e
       -0.34114438 0.41182634 0.39874443 0.35331163
000150 08 7d 37 bd 52 b3 0d 3e eb 9b 5d 3e 5a de 03 3e
       -0.044796973 0.13837937 0.21641509 0.12877789
000160 ee 4e 82 3e 0a a7 9f 3e ff ca e7 bd cf aa 2a 3e
       0.25450844 0.31182128 -0.11318015 0.16666721
000170 95 b7 81 3e 7e 1f 96 3e 7a e1 67 bd 87 19 91 3e
       0.25335374 0.29320902 -0.056611516 0.28339788
000180 fb 2f 65 3a b0 63 fc bc 2b 7e c3 3e af b7 0a bc
       0.00087428064 -0.030809253 0.38182196 -0.008466645
000190 ca ea 62 be dd e8 07 3f 25 14 fe 3e a1 0c bc 3d
       -0.22159877 0.53089696 0.49624744 0.09182096
0001a0 ec 05 30 3e 98 c0 0c be be 58 16 bd 9e dd df 3e
       0.17189759 -0.13745344 -0.036705725 0.43723768
0001b0 fc 56 4b 3e f0 c1 97 3e 2e 60 f4 bd a0 a9 a0 3e
       0.198574 0.2964015 -0.11932407 0.31379414
0001c0 74 b5 85 3e c0 af 5c 3e c6 60 16 ba e0 7c 9c 3e
       0.26115 0.21551418 -0.0005736466 0.30564022
0001d0 e1 af ce 3e c6 db 5e bd e6 51 ec 3e b7 44 33 3e
       0.4036856 -0.05440881 0.46156234 0.17506681
0001e0 cc 19 3c bd 5f 44 53 3e 49 27 78 3e a7 bb b4 3c
       -0.04592304 0.2063155 0.24233736 0.022062136
0001f0 5b 1e 36 be 89 2b 0a 3e 38 45 b7 3e f5 6a b0 3e
       -0.17785017 0.1349317 0.35794997 0.34456602
000200 36 17 17 3f d2 dd 7d 3e b5 22 b6 3d 87 61 cf 3d
       0.5901979 0.24791649 0.088933386 0.10126024
000210 a0 ef 42 3e 97 d4 28 3e 31 d0 03 3e 3a 3e af bd
       0.19036722 0.16487347 0.12872387 -0.08556791
000220 76 ea 0b 3f f7 2d b1 3c 38 10 b0 3e 91 f7 82 3e
       0.54654634 0.021628363 0.34387374 0.25579503
000230 5a 5d c0 be 09 f2 05 3e 8d ab 92 3e e7 eb 07 3f
       -0.37571222 0.1308061 0.28646508 0.53094333
000240 c4 46 65 3e 86 9c 81 3e 6f fa 22 3e b8 30 e1 be
       0.22390276 0.2531473 0.15915845 -0.43982482
000250 15 8c ac 3e 87 02 b9 3e 94 15 dc 3d ec 31 e3 3e
       0.33700624 0.3613474 0.10746303 0.44374025
000260 52 12 d3 3d 33 6e 39 be d3 22 36 be f6 17 a6 3d
       0.10306229 -0.18108444 -0.17786722 0.08110039
000270 a4 3c 29 3f 4a 2c a7 bd 1a 22 cb bc 98 4a f3 3e
       0.66108155 -0.08162744 -0.024796534 0.47517848
000280 c1 c7 c8 3e 49 e2 09 3f 9f 54 06 be e9 48 89 3e
       0.392149 0.5386091 -0.13118218 0.2681344
000290 24 a3 37 bc af 47 16 be 1a 58 ba 3e 1b 9e b4 3e
       -0.011208329 -0.14675783 0.3639534 0.35276875
0002a0 b3 38 05 3e 64 52 9f 3d b1 f1 93 3c b2 df b9 3e
       0.1300991 0.07779387 0.018059583 0.36303478
0002b0 14 61 03 3f 78 a9 dc bb 09 c1 af bd ff 2d cb 3e
       0.51320004 -0.0067340694 -0.085817404 0.3968353
0002c0 b2 18 5c 3e 6e 33 00 3f 71 42 bc 3e fc c6 ac 3d
       0.21493796 0.50078475 0.3676944 0.08436391
0002d0 3c 4e 03 3e 82 7c f6 bd 08 ab c2 be d1 51 d7 3d
       0.12822813 -0.12035467 -0.3802111 0.10513652
0002e0 5b 46 7a 3e e1 38 8a 3e eb 82 ad 3e f8 ab 1a 3f
       0.24440901 0.2699652 0.33888945 0.60418653
0002f0 06 ac 98 3e a8 ca 32 bd eb bd ad 3d 92 44 c9 be
       0.29818743 -0.0436503 0.084834896 -0.39310127
000300 b9 78 eb 3e c8 15 e1 3e db 4f c6 3e 00 ac ea 3d
       0.45990542 0.4396193 0.387328 0.11458588
000310 b6 9f 93 3e 27 0e ec be 5b 5d 74 3e 9d 98 ca 3e
       0.28832787 -0.46104547 0.23863737 0.3956956
000320 ee 59 cb 3e 06 83 34 bd 18 0a 8d 3e 09 8b c9 3e
       0.39717048 -0.044070266 0.27546763 0.39363888
000330 44 ed 18 3e fb 3c 1c 3e 48 87 13 3f e2 78 aa 3d
       0.1493426 0.15257637 0.576283 0.08323838
000340 bb 71 9a 3e 1d 6a fd bd b1 ad e4 3c 84 3f 7e 3d
       0.30164894 -0.12373755 0.027914854 0.062072292
000350 57 42 4a be ce 8e 66 3e 94 80 99 be a4 e3 21 bc
       -0.19751869 0.22515413 -0.2998091 -0.009880934
000360 bd bf 6a 3e b8 56 d5 be 34 49 a3 3e e2 e7 8b be
       0.22924705 -0.41667724 0.31891787 -0.2732535
000370 38 92 7f bd 4c a1 29 3e 42 18 60 3e 79 59 4f bf
       -0.062395304 0.16565436 0.21884254 -0.809959
000380 cd 33 5c 3e dc 15 d2 3d ce 72 ae bd 69 9b 99 be
       0.21504135 0.102580756 -0.08517991 -0.3000138
000390 e7 d7 e8 bd 84 d4 88 3e 0d 2c d8 3d ab 38 df 3d
       -0.11369305 0.26724637 0.10555277 0.108994804
0003a0 d3 b5 83 bd 3f 29 35 3e 46 ab 37 be 96 88 b3 3e
       -0.064311646 0.17691515 -0.1793643 0.35065144
0003b0 c9 7e 91 be 6c 45 aa 3e 88 6b e1 3d 93 6c 9a bd
       -0.28417042 0.3325609 0.11006838 -0.0754024
0003c0 fa 38 b1 3e bf a0 27 3e 41 4c c5 3e b1 1f dd be
       0.34613782 0.16369914 0.3853474 -0.4318824
0003d0 73 35 9f 3e 39 50 c9 3e f2 17 a3 3e 2e 64 67 3e
       0.31095466 0.39319018 0.31854206 0.2259681
0003e0 98 cf a6 bd a8 be 07 3e 86 e6 63 3d d5 a3 96 be
       -0.08145064 0.13256323 0.055639766 -0.2942187
0003f0 05 6c c9 3c fb 35 a0 3e 09 7c b4 3e b4 14 51 bd
       0.02458764 0.31291184 0.3525088 -0.051045135

trunk.network.3.bias f4 [256]
000000 65 71 95 3e 69 2a 96 3c f5 01 e7 3d cd 21 12 3e
       0.29188076 0.01833077 0.1127967 0.14270706
000010 7a 76 00 3d 68 39 62 3d 58 ff e0 3d 7e 6e 90 3c
       0.031362988 0.055230528 0.10986203 0.017630812
000020 40 ab 0a 3e 99 0e 53 3e 3a 1e b3 3f 96 9b ae 3d
       0.13541889 0.20611037 1.39936 0.085257694
000030 42 4a ad 3e 0a f5 92 3e 74 da 2f 3e d1 e7 32 3e
       0.33845717 0.28702575 0.17173177 0.17471243
000040 fd ba 07 3e 55 42 3b 3e 15 3e 29 3d de fd 47 3e
       0.13254924 0.18287022 0.04131897 0.19530436
000050 bf d5 34 3e 1c 56 d8 3d 52 17 a1 bd 2d ab 13 3e
       0.17659663 0.10563299 -0.07865776 0.14420767
000060 0c 39 49 3d 58 11 14 3e 13 28 4f 3f 9a fd 29 3e
       0.04912667 0.14459741 0.80920523 0.16600648
000070 25 3c 32 bc 44 4a 34 3e 0f 0e a0 bd 82 7f e9 bd
       -0.010878597 0.17606455 -0.078151815 -0.11401273
000080 a4 e0 8b 3e 9c 25 ca 3d 44 be 94 3d 43 02 1d 3e
       0.27319825 0.09870455 0.07262853 0.15332894
000090 3c fd 3e 3d b9 27 69 3d c2 44 8e 3e e0 85 f0 3d
       0.046628222 0.056922648 0.27786833 0.11744285
0000a0 91 84 86 3d b7 1a 89 bc 40 41 ee 3e 8b d5 5c 3d
       0.06568254 -0.016736371 0.46534157 0.053914588
0000b0 95 19 84 3e b1 f7 1e 3e ff 29 78 3e b8 ae cc 3d
       0.25800768 0.15524174 0.2423477 0.099942625
0000c0 93 59 b0 3e eb 68 86 3d de ab 65 3e f9 46 07 3d
       0.3444334 0.0656298 0.22428843 0.03302667
0000d0 29 9e f4 3d fc 0e 61 3d 98 9c 10 3d 98 4c 23 3d
       0.11944229 0.05494593 0.03530559 0.039867967
0000e0 26 33 0f 3e a1 64 c5 3d 30 33 4f 3e 98 c2 84 3d
       0.13984355 0.09638334 0.2023437 0.06482428
0000f0 4f 14 87 3e 28 9f 89 3e 7f 7f a0 3e bd 6a f6 bd
       0.26382682 0.2687924 0.31347272 -0.120320775
000100 b4 e8 76 3e 64 40 25 3e b6 a6 3d 3e ba 0d b4 3d
       0.24112207 0.16137844 0.18520626 0.08791681
000110 14 53 b6 3e ed 6d 20 3e 53 ec 6a 3d 9d ee 59 bd
       0.3561026 0.15666933 0.057354283 -0.053206075
000120 46 a6 de 3d bd 39 d3 3d 25 29 6a 3e 1e 9a 63 3e
       0.10871558 0.10313747 0.22867258 0.2222676
000130 88 ee dc 3d d9 80 48 3d df cc 19 3e c5 c8 ac bd
       0.10787684 0.048951004 0.15019558 -0.08436731
000140 dd bc 84 ba 52 92 3b 3e f1 0d 5d 3e a0 a2 c3 bd
       -0.0010127086 0.18317536 0.2158735 -0.09552503
000150 4d 87 27 3e 26 71 ec 3d 18 29 6c 3e 2e 41 79 3e
       0.16360207 0.11545019 0.23062551 0.2434127
000160 8a 2b f1 3d 65 d4 8a 3e ab 79 74 3c 1a 94 08 3e
       0.117758825 0.2711517 0.014921586 0.13337746
000170 bf b2 60 3e fc 7e 1b 3e dc 0c 54 3e 96 91 2a 3e
       0.21943186 0.1518516 0.2070803 0.16657099
000180 1e c4 9e 3e 7f 70 89 bc b7 81 f1 bd ae 6d c1 3e
       0.31009 -0.016777275 -0.11792319 0.3777899
000190 e0 3a d9 3e a0 2d 71 3d 43 31 42 3d 03 2c c3 bc
       0.4242773 0.058881402 0.04741026 -0.023824697
0001a0 58 40 8a 3e 06 98 a0 3e 1d 82 a4 3e f6 7b 5f bc
       0.27002215 0.31365985 0.3213052 -0.013640394
0001b0 86 cb cf 3d 75 62 8b 3e 64 7f 2a 3e 4f 6f bc bd
       0.10146241 0.27223554 0.16650158 -0.09200918
0001c0 65 cf db 3d 6c 09 5f 3e 8b 88 2b 3e a6 cc 15 3e
       0.10732917 0.21780938 0.16751306 0.14628848
0001d0 5a 16 8d 3e e7 c6 9d 3e bf e4 99 bc c1 1a 1a bd
       0.27556115 0.30815813 -0.018785832 -0.03762317
0001e0 85 3c d5 3a 55 dc 1f 3d e2 39 00 3f a1 64 ff 3d
       0.0016268647 0.039028484 0.5008832 0.12470365
0001f0 07 a2 1e 3c cc 0d 63 bc 18 f6 00 be 8a ed 8c 3e
       0.009682185 -0.01385827 -0.12593877 0.27524978
000200 b8 bd c6 bb 2a a4 a6 3f be 62 1c 3e 23 da 0f 3e
       -0.0060650967 1.3018849 0.15272042 0.14048056
000210 c1 70 a1 3d 26 fa 1b 3e 04 0c c2 3e 4b 18 0c 3e
       0.07882834 0.15232143 0.37899792 0.13681142
000220 b1 09 61 3e ab 4d bd bd e8 3c 2d 3e 12 62 09 3e
       0.21976353 -0.092433296 0.16917765 0.13416317
000230 7b 1d af 3e 91 51 9d 3e 28 ff 98 3e 9d 7b 49 3d
       0.3420218 0.30726293 0.2988217 0.049190152
000240 3c 92 3e 3e 92 0e 1c 3e e1 16 dc 3d 68 6d fa 3c
       0.18610471 0.15239933 0.10746551 0.030569747
000250 8a 87 62 3c 2e b6 e5 3c 86 57 61 3e e5 23 cd 3d
       0.01382626 0.028040972 0.22006044 0.10016612
000260 d3 1e cc 3d a6 c8 d6 3d e7 42 ed 3d b5 d3 78 3d
       0.09966817 0.104874894 0.11585026 0.060748775
000270 6e 8d 57 3e c7 52 44 3e d4 79 de 3e 5b 2b 50 bd
       0.21050045 0.19172202 0.43452322 -0.050822597
000280 bb 8a b8 3c f8 ef aa 3d 0e 36 ba 3d d8 90 4c 3e
       0.02252709 0.08346552 0.09092341 0.19977129
000290 ba 03 88 bc e7 a4 b2 3a d8 71 8a 3e ad 0e 83 3e
       -0.01660334 0.0013629467 0.2703998 0.25597134
0002a0 64 5f 43 be e8 d7 4b bd 30 39 35 3e 70 91 73 3d
       -0.19079357 -0.04976645 0.17697597 0.059464872
0002b0 a5 7a 88 3d 8e 94 0a 3e 14 6c ad 3e dc 39 22 3e
       0.066640176 0.13533232 0.3387152 0.15842384
0002c0 61 fa 11 3e 73 f8 9a 3d b9 f7 74 3e 94 5e 90 3d
       0.14255668 0.07566919 0.23922624 0.07049289
0002d0 93 ce 18 3d 4a 52 6d 3e fc ea 65 3e 6d 8b e3 3d
       0.03730638 0.23175922 0.2245292 0.11110578
0002e0 e0 d3 92 bd 22 b1 88 3e e0 f7 22 3e 84 86 1e 3e
       -0.07169318 0.26697642 0.1591487 0.15481001
0002f0 04 52 0d 3c d3 74 ce 3e 1b 71 b8 3b 20 b0 99 bd
       0.008625511 0.40323505 0.0056287176 -0.07504296
000300 69 cb c2 3a 5c d3 77 3e 8e 90 70 3e 6b 56 84 3e
       0.0014861646 0.24201721 0.23492643 0.25847182
000310 36 72 15 3e 92 2e 1e be d0 da 0e 3e 23 89 02 3e
       0.1459435 -0.15447453 0.13950658 0.12747626
000320 3c 17 2c ba 47 9d 26 3e 91 07 ba bd 61 40 0b 3e
       -0.00065647415 0.16270934 -0.090834744 0.13598777
000330 9c 5f 1e 3d 80 ff 96 3e 82 22 1d 3e e2 20 b5 3d
       0.0386654 0.29491806 0.15345195 0.088441625
000340 c6 f6 ad 3d c9 f4 19 3e 3b 78 38 bd 10 21 1f 3e
       0.08494334 0.15034784 -0.045036536 0.15539956
000350 ce 72 57 bd 2f df bb 3d 59 15 e7 3d 22 73 51 3e
       -0.05259972 0.09173428 0.112833686 0.20454076
000360 6d 1c f1 3d 52 02 ca bd cd aa 06 3d 30 27 ea 3e
       0.11773 -0.09863724 0.032877732 0.45733023
000370 bf 77 95 3e 6f 9f 48 3e 89 d2 fa 3d e3 4a 09 3e
       0.29192922 0.19592069 0.12247188 0.13407473
000380 12 b9 92 3e 19 36 3e 3e 26 c4 2f 3e 09 40 4d 3e
       0.28656822 0.18575324 0.17164668 0.20043959
000390 fe cc 0f 3d b7 27 88 3d f1 36 f9 3e 41 bc 1f bc
       0.035107605 0.066482 0.4867473 -0.009749473
0003a0 62 16 38 bd d0 3f ef 3d d1 82 e6 3d cf 90 64 3d
       -0.04494322 0.11682093 0.1125542 0.055802163
0003b0 4c 08 79 3e be 12 04 3e f0 e9 90 3e cd 40 aa 3d
       0.24319571 0.12897775 0.2830348 0.08313141
0003c0 a0 9b cf 3d 9b c1 d8 3e b8 23 41 3e 6c 71 98 3d
       0.10137105 0.4233521 0.18861282 0.074435085
0003d0 bd 08 22 bd 21 2c 25 3e 97 43 b7 3e df 68 c6 3b
       -0.039559115 0.16130115 0.35793754 0.006054982
0003e0 b3 6f 50 3d b3 22 be 3e 2f ca 0a 3e 8e 2b 89 bd
       0.050887775 0.37135848 0.1355369 -0.066977605
0003f0 0e af 40 3e fd 80 d9 3d 0a b0 88 3e 5e 9b 90 3e
       0.18816778 0.10620306 0.26696807 0.28243536

trunk.network.4.weight f4 [256]
000000 d1 18 35 3f ba 41 2b 3f db fd 46 3f d5 2e b3 3f
       0.7074099 0.66897166 0.777311 1.3998667
000010 a2 17 94 3f bd 32 9c 3f 5c 75 b7 3f f4 87 70 3f
       1.1569712 1.2202984 1.433269 0.9395745
000020 7e 53 58 3f d7 e7 90 3f 2d d8 be 3d e3 3b 8c 3f
       0.845024 1.1320752 0.09318576 1.0955776
000030 1e 60 50 3f e6 34 38 3f c1 65 94 3f ce ec 97 3f
       0.81396663 0.71955717 1.1593553 1.1869142
000040 3b e4 a6 3f 91 53 3a 3f 46 19 aa 3f 24 7b 5b 3f
       1.30384 0.7278376 1.3288963 0.8573477
000050 7b 81 5c 3f 8f 7d 89 3f cc e2 7c 3f d9 e7 8b 3f
       0.8613507 1.0741442 0.98783565 1.0930129
000060 11 e4 a6 3f dc b4 42 3f 03 22 25 3e 54 e3 88 3f
       1.303835 0.7605722 0.16126256 1.0694375
000070 73 00 a6 3f 85 0c 5b 3f 8f 77 bf 3f 0c 41 99 3f
       1.2968887 0.8556598 1.4958361 1.1972976
000080 f0 ec 6d 3f 5a 41 95 3f ee 3a 66 3f 62 36 97 3f
       0.9293966 1.1660569 0.8993367 1.1813471
000090 af bf 48 3f c7 f0 58 3f a0 4b 75 3f 08 54 6b 3f
       0.78417486 0.847424 0.9581852 0.91925097
0000a0 b1 35 83 3f 82 6e b5 3f cd cc f9 3e ea 43 99 3f
       1.025076 1.4174349 0.48789063 1.1973851
0000b0 06 e1 4f 3f 99 d3 2e 3f 4b 4b 84 3f 08 29 74 3f
       0.81202734 0.6829162 1.0335478 0.9537511
0000c0 55 dd 7b 3f 08 84 98 3f a2 0b 74 3f 97 80 80 3f
       0.983846 1.1915293 0.9533025 1.0039243
0000d0 6d 82 8f 3f 43 54 9f 3f a7 71 61 3f 81 90 a3 3f
       1.1211678 1.244759 0.88064045 1.2778474
0000e0 3f 5f 83 3f 42 eb 98 3f 99 e0 6d 3f de ba 9a 3f
       1.0263442 1.1946795 0.92920834 1.2088277
0000f0 a7 59 5e 3f 2f 72 7f 3f b0 85 86 3f d2 1b c6 3f
       0.8685555 0.99783605 1.0509548 1.547724
000100 2a 05 75 3f f9 c4 c7 3f 0d a0 6e 3f 8d 28 9b 3f
       0.95711005 1.5606986 0.9321297 1.212175
000110 59 21 80 3f b2 03 a1 3f 9e 80 92 3f 89 50 af 3f
       1.0010177 1.2579253 1.1445501 1.3696452
000120 b2 e4 b3 3f 27 39 a0 3f 1d 7e 6b 3f 31 92 5f 3f
       1.4054167 1.2517442 0.9198931 0.87332445
000130 f5 56 5f 3f e4 c0 8b 3f 46 e5 7a 3f 10 fd 9c 3f
       0.8724206 1.091824 0.98006094 1.2264729
000140 ea fe 77 3f 52 2a 84 3f 59 d9 74 3f c4 5a 84 3f
       0.96873343 1.0325415 0.95644146 1.03402
000150 65 a2 83 3f d5 65 ab 3f 2d c1 73 3f 5c ac 89 3f
       1.0283934 1.3390452 0.9521664 1.0755725
000160 cb 56 73 3f f9 7d 49 3f ba 76 a6 3f 4f 4c b2 3f
       0.9505431 0.78707844 1.3004982 1.3929538
000170 bb 2e 63 3f 17 46 7f 3f 62 68 42 3f 98 2e 98 3f
       0.8874318 0.99716324 0.75940526 1.1889219
000180 13 4e 45 3f ff 70 93 3f 51 7c c8 3f 54 8b 21 3f
       0.77072257 1.1518859 1.5662938 0.6310322
000190 02 6c 38 3f aa 64 90 3f 73 48 9a 3f ec 0d 9a 3f
       0.72039807 1.128072 1.205336 1.2035499
0001a0 59 39 51 3f 02 3d 27 3f a0 93 05 3f a1 47 91 3f
       0.8172813 0.65327466 0.5217838 1.1349984
0001b0 17 a6 84 3f 34 fd 51 3f 36 ab 3a 3f 2f 8f 9f 3f
       1.0363187 0.8202698 0.729175 1.2465571
0001c0 7c 1c c9 3f e6 84 9c 3f 42 0b 92 3f cd e4 9f 3f
       1.5711818 1.2228057 1.1409686 1.24917
0001d0 8c 6b 7b 3f 46 8d 75 3f 51 c0 ab 3f f8 13 bb 3f
       0.9821098 0.9591869 1.3418065 1.4615469
0001e0 5d 0d b8 3f 33 58 89 3f dd 16 1c 3f 86 ca 7c 3f
       1.4379078 1.0730041 0.60972387 0.98746526
0001f0 5b c5 75 3f a6 d4 90 3f 42 40 77 3f 67 17 17 3f
       0.96004266 1.1314895 0.96582425 0.59020084
000200 7e 43 4e 3f 43 80 c3 3d 14 cb 83 3f 18 ea 82 3f
       0.80571735 0.09545948 1.029635 1.022769
000210 ee 3c b7 3f 6e 2b 9e 3f e2 9e 40 3f b6 b1 7c 3f
       1.4315469 1.2357004 0.75242436 0.98708665
000220 6d c3 ae 3f 7d 39 c7 3f 29 23 81 3f a1 14 45 3f
       1.3653389 1.5564419 1.0088855 0.769846
000230 3e 60 69 3f 35 05 a8 3f 4e 01 c9 3e 33 07 ba 3f
       0.9116248 1.3126589 0.39258808 1.4533447
000240 f1 6d 95 3f c4 9e 4d 3f 6e d5 a2 3f e2 2b aa 3f
       1.1674176 0.8032038 1.2721384 1.3294642
000250 b8 cc a1 3f bb 61 a4 3f 93 72 34 3f e1 f0 2a 3f
       1.26406 1.2842325 0.70487326 0.667738
000260 3b 71 59 3f 1a 09 4c 3f ef a9 6f 3f 91 eb b6 3f
       0.849384 0.7970139 0.93618673 1.4290639
000270 cd f7 16 3f 3e f5 76 3f e3 61 3a 3f 31 87 9b 3f
       0.58971864 0.9646796 0.72805613 1.2150632
000280 1b e6 47 3f cc 3f 69 3f c2 4c ba 3f 5e 11 ae 3f
       0.7808549 0.9111297 1.4554675 1.359905
000290 29 08 59 3f 04 a4 4b 3f 19 6d 6b 3f 08 7b 83 3f
       0.84778076 0.79547143 0.91963345 1.0271921
0002a0 89 e4 9c 3f da f0 25 3f 61 9c 88 3f e1 bd 77 3f
       1.2257243 0.64820635 1.0672723 0.9677411
0002b0 7f 67 53 3f c9 3e 9b 3f 4b 6d 29 3f f0 2f 82 3f
       0.825798 1.2128536 0.6618239 1.0170879
0002c0 08 11 89 3f 86 f3 94 3f 46 e8 5c 3f 8b bd 34 3f
       1.0708323 1.1636817 0.8629192 0.7060172
0002d0 e0 86 a0 3f a0 01 86 3f 65 89 a6 3f 85 da 8c 3f
       1.254116 1.0469246 1.301068 1.1004187
0002e0 55 bc b5 3f b4 5a 6a 3f e5 19 68 3f 02 83 9f 3f
       1.4198099 0.9154465 0.9066451 1.2461855
0002f0 5c 5d ab 3f 01 3f 2c 3f 95 56 b0 3f b2 95 db 3f
       1.3387866 0.67283636 1.3776423 1.7155058
000300 4c b8 9c 3f 8f 13 89 3f d7 4c 90 3f 84 ee 47 3f
       1.2243743 1.0709094 1.127345 0.7809832
000310 05 84 2c 3f b4 fd a9 3f c6 91 67 3f f6 8a 83 3f
       0.67388946 1.3280549 0.9045681 1.0276783
000320 76 09 ae 3f 58 5c 85 3f c5 6f 96 3f 6a 86 a2 3f
       1.3596637 1.0418806 1.1752859 1.269727
000330 cf a0 84 3f 98 29 3c 3f 9b a6 77 3f e0 e9 6d 3f
       1.0361575 0.7350097 0.96738595 0.9293499
000340 37 4a 58 3f fb d8 8f 3f 22 96 b6 3f ba 85 9e 3f
       0.8448824 1.1238092 1.4264567 1.238456
000350 a8 2d 96 3f e3 bf 5b 3f a0 b3 ad 3f 02 2d 4b 3f
       1.1732683 0.8583967 1.3570442 0.7936555
000360 48 13 97 3f 1a aa a3 3f 66 2e a4 3f 15 59 14 3f
       1.1802759 1.2786286 1.282666 0.5794843
000370 cf 65 3a 3f 19 78 9e 3f 7f 00 8c 3f 9e 0d 9a 3f
       0.728116 1.2380401 1.0937651 1.2035406
000380 6a 73 15 3f 06 7c 86 3f 09 e9 3d 3f 51 d7 9e 3f
       0.5837923 1.0506599 0.7418371 1.2409459
000390 12 06 9c 3f 04 1c b7 3f 68 ca 85 3e c8 3a 9b 3f
       1.2189353 1.4305425 0.26130986 1.2127314
0003a0 1a 5c 9b 3f e7 27 a9 3f 20 7a d1 3f 8e 35 9a 3f
       1.2137482 1.3215302 1.6365395 1.2047594
0003b0 0f b3 86 3f 03 fc ae 3f fc 6b 8d 3f 62 04 75 3f
       1.0523394 1.3670658 1.1048579 0.9570981
0003c0 59 fc 92 3f 2b d6 38 3f 14 88 82 3f 68 85 89 3f
       1.148326 0.72201794 1.0197778 1.0743837
0003d0 12 4a 83 3f 40 fb 58 3f d8 6a 2e 3f 84 55 7e 3f
       1.025698 0.8475838 0.6813178 0.99349236
0003e0 94 67 8a 3f ab ec 6e 3f 5e aa 70 3f 17 a7 90 3f
       1.081286 0.93329877 0.9400996 1.1300992
0003f0 16 d8 91 3f 5d ff 85 3f 24 7f 8d 3f 63 1e 79 3f
       1.1394069 1.0468556 1.1054425 0.9731199
