canonical_models/8to16actor.pt (torch, 552373 bytes, 14 tensors)

trunk.network.0.weight f4 [256, 9]
0.045927107 -0.40933406 0.013178971 1.1552095 -1.1332206 0.15914074 0.56401324 0.29025522
0.08124177 -0.05407071 -0.09690248 -0.24579449 1.4524564 -0.8977717 0.6356034 0.547807
0.32604668 0.45687836 0.03223453 -0.18155241 -0.3785275 0.95634353 -0.6914789 0.17230806
0.20688157 0.6851778 0.59655863 -0.43233585 -0.30882806 0.0972732 0.44485122 -1.6380926
0.41220662 0.5423951 -0.042349216 -0.11512018 0.27085415 -0.42361292 0.29801962 -0.89456564
0.8517216 0.48323524 -0.784917 -0.1496225 0.49773335 -0.47592136 -0.35598332 -0.5424952
1.9860544 -0.4254546 -0.1316398 0.6733142 0.20264138 0.07510545 -0.5657122 -0.27023166
-0.1869375 0.62817526 0.43849573 0.3225268 -0.069933884 0.5154864 -0.44182026 0.30720538
-0.5082124 -0.14281268 0.08362356 -0.15613002 0.3047998 0.055115502 0.35953584 0.4811133
-0.5345618 -0.09930801 -0.5117063 -1.1067758 -1.0294623 0.5034765 0.55096626 0.12219923
0.4481822 -0.3968591 -0.17148857 0.018588778 -1.2996448 0.57010007 -0.28564277 0.57002074
0.63492036 0.45491892 0.028734943 -0.17460503 0.39421105 -0.09535219 -1.1339161 0.7462036
0.46944943 0.23040052 0.36961535 -0.47770137 0.13453263 -0.068451025 0.6314182 -1.5163324
0.15963347 0.47571558 0.118311845 0.31357172 -0.4655382 -0.034789264 -0.36296195 1.1537933
-0.389318 -0.44307086 0.32824266 0.07170504 0.66411906 -0.4679972 -0.29650742 0.07280876
0.28817138 -1.186969 0.42155793 0.2035039 0.06881038 -0.27976677 -0.66152054 -0.12711084
0.16940707 -0.046564125 -1.1511924 0.049535282 -0.63947195 0.29482344 0.3842396 -0.11419901
-0.18180908 -0.44623348 0.3061697 0.49646395 0.6228024 0.48649013 0.66427594 -0.15124995
-0.5481773 -0.37596017 0.072687425 -1.2051097 -0.13429737 -0.42843467 0.1484485 0.25955355
-0.23699842 -0.5459318 -0.09919362 0.40939748 -0.06705527 -0.11700516 0.34637454 0.48665163
0.39531818 -0.51561487 0.08233269 -0.33838627 -0.34004512 0.56732327 1.1069208 0.64443284
0.4567474 0.25834057 0.14374922 -0.26259696 -0.23282844 0.22405481 -0.68233204 0.049201123
0.87344146 0.43748277 0.3047572 -0.104458794 0.49287358 -0.17735533 -0.23352544 0.81966823
-0.19101636 0.5095881 0.72468466 0.7298593 -0.7772313 -0.30660883 -0.4191198 -0.37088948
0.7572491 0.9451336 0.29620165 1.0404899 0.1641619 0.15095834 -0.5162301 -0.07874215
-0.182792 -0.31025192 0.22318162 0.6241628 1.0400641 0.47735587 0.056190703 -0.41609645
-0.55118686 0.101625994 -0.14608327 -1.0434994 0.57820725 0.66219896 0.5150844 0.63438463
0.025997907 -0.33451247 0.16768645 -1.3564732 -0.12141471 0.51268715 -0.09086206 0.63220704
-0.67365634 -0.3211545 -0.05061698 -0.3527156 0.25196394 1.5676736 0.120045856 0.3848289
0.62092286 -0.13873757 -0.36869764 -0.015367177 0.26143065 -0.20935917 0.46629563 0.20555142
0.59211934 0.6310362 0.29285577 0.045121197 -0.4419026 0.056552544 0.47208014 0.44034776
0.5044808 -0.1741576 0.4074178 -0.57730466 -0.21615121 -0.5165123 -0.25826293 -0.22953762
00000000: 101e 3c3d 3c94 d1be 9cec 573c e8dd 933f
00000010: 5f0d 91bf caf5 223e 2c63 103f 559c 943e
00000020: 1662 a63d 4079 5dbd cf74 c6bd 8db1 7bbe
00000030: 17ea b93f 5ed4 65bf e8b6 223f 143d 0c3f
00000040: 97ef a63e f6eb e93e 5b08 043d e0e8 39be
00000050: 5bce c1be eed2 743f c304 31bf 8671 303e
00000060: c3d8 533e d067 2f3f 11b8 183f 205b ddbe
00000070: b61e 9ebe 2c37 c73d 8ac3 e33e 05ad d1bf
00000080: bf0c d33e 68da 0a3f 5f76 2dbd 21c4 ebbd
00000090: 65ad 8a3e cbe3 d8be 0796 983e 4102 65bf
000000a0: 6d0a 5a3f 9c6a f73e 52f0 48bf a436 19be
000000b0: e8d6 fe3e f7ab f3be 7243 b6be f7e0 0abf
000000c0: 0837 fe3f 2fd5 d9be 95cc 06be 525e 2c3f
000000d0: 3981 4f3e e3d0 993d 84d2 10bf ce5b 8abe
000000e0: 8b6c 3fbe 18d0 203f 8382 e03e 3c22 a53e
000000f0: 7f39 8fbd ebf6 033f 4436 e2be 064a 9d3e
00000100: 351a 02bf 7d3d 12be d442 ab3d 8ce0 1fbe
00000110: b80e 9c3e cbc0 613d 1515 b83e 7c54 f63e
00000120: 0bd9 08bf ff61 cbbd 2fff 02bf d4aa 8dbf
00000130: 6cc5 83bf d6e3 003f 200c 0d3f 9743 fa3d
00000140: 2378 e53e 1e31 cbbe b39a 2fbe 7e47 983c
00000150: c35a a6bf 14f2 113f c53f 92be e1ec 113f
00000160: 248a 223f 22eb e83e 8b65 eb3c a9cb 32be
00000170: 08d6 c93e 0248 c3bd 2a24 91bf 3307 3f3f
00000180: ad5b f03e 1dee 6b3e 393e bd3e 4695 f4be
00000190: ecc2 093e 0d30 8cbd a0a4 213f 2e17 c2bf
000001a0: f576 233e fe90 f33e 7b4d f23d 798c a03e
000001b0: 065b eebe 307f 0ebd 26d6 b9be 80af 933f
000001c0: b054 c7be 2fda e2be 6c0f a83e 18da 923d
000001d0: b503 2a3f 549d efbe d2cf 97be c21c 953d
000001e0: 338b 933e 9aee 97bf 71d6 d73e 5463 503e
000001f0: 75ec 8c3d 973d 8fbe 6959 29bf 5829 02be
00000200: 0c79 2d3e 06ba 3ebd 465a 93bf 82e5 4a3d
00000210: 6fb4 23bf 19f3 963e 0ebb c43e 2ce1 e9bd
00000220: 292c 3abe b778 e4be 46c2 9c3e 8630 fe3e
00000230: fa6f 1f3f 3c15 f93e fd0d 2a3f 44e1 1abe
00000240: 5955 0cbf da7d c0be 25dd 943d 0941 9abf
00000250: 4085 09be ca5b dbbe e202 183e 34e4 843e
00000260: b7af 72be 30c2 0bbf 0626 cbbd 8c9c d13e
00000270: 4654 89bd 67a0 efbd 0158 b13e 672a f93e
00000280: 2567 ca3e 56ff 03bf 0b9e a83d f740 adbe
00000290: 651a aebe 193c 113f 95af 8d3f 8df9 243f
000002a0: ccda e93e 3745 843e ff32 133e 1c73 86be
000002b0: 946a 6ebe a06e 653e 50ad 2ebf 1e87 493d
000002c0: dc99 5f3f befd df3e 2309 9c3e 7eee d5bd
000002d0: ed59 fc3e a39c 35be 4b21 6fbe c7d5 513f
000002e0: cb99 43be 5e74 023f ef84 393f 0fd8 3a3f
000002f0: a1f8 46bf d5fb 9cbe df96 d6be 3ae5 bdbe
00000300: 14db 413f 47f4 713f bea7 973e c62e 853f
00000310: 0f1a 283e d394 1a3e a827 04bf 9043 a1bd
00000320: d32d 3bbe 57d9 9ebe b989 643e 22c9 1f3f
00000330: d220 853f fd67 f43e 3928 663d 980a d5be
00000340: 951a 0dbf 4a21 d03d da96 15be 6391 85bf
00000350: 6405 143f df85 293f 92dc 033f 0867 223f
00000360: 90f9 d43c 3845 abbe ffb5 2b3e eaa0 adbf
00000370: 47a8 f8bd 773f 033f e315 babd 52d8 213f
00000380: be74 2cbf 5d6e a4be c053 4fbd 2497 b4be
00000390: 6b01 813e 87a9 c83f 9ada f53d 4b08 c53e
000003a0: cdf4 1e3f 3911 0ebe f0c5 bcbe 9dc6 7bbc
000003b0: 3dda 853e 4062 56be 4dbe ee3e 127c 523e
000003c0: 2295 173f 978b 213f 31f1 953e 01d1 383d
000003d0: 0f41 e2be a4a3 673d 7db4 f13e 4375 e13e
000003e0: a725 013f 5f56 32be 1199 d03e 3dca 13bf
000003f0: be56 5dbe 263a 04bf 0a3b 84be e90b 6bbe

trunk.network.0.bias f4 [256]
-0.007942179 -0.14733939 0.10465895 0.0990079 0.49503815 0.5080494 0.25679845 -0.008644923
0.22209892 0.42870668 -0.26415464 0.7792427 0.5662317 -0.15274192 0.30507714 0.24589577
0.23294225 0.5742965 0.12742363 -0.1326507 0.48736674 0.41990778 0.4208664 0.48680678
-0.05432464 0.47344226 0.10795348 0.06471551 0.87233514 0.059092987 0.4218399 0.68651354
0.22183378 0.16488373 0.40568677 0.5102869 -0.027749687 0.84919965 -0.24196951 0.13464981
-0.09500287 0.436874 0.10649334 0.6674637 0.8202146 -0.01677696 0.055503055 0.22081378
0.3543499 0.26643938 0.4148768 0.38315177 0.076752104 -0.08027042 0.13780539 0.4934973
-0.16996369 0.33490086 0.43574595 0.51264673 0.59992045 0.49022025 0.04957369 0.24292278
0.72086227 0.97102207 0.12692566 0.45644262 -0.030480053 0.038968954 0.17049828 0.45466778
-0.13642767 0.5822489 0.6916173 0.6130212 0.7797243 0.04576452 0.0035603668 0.21570474
0.67717093 -0.07809039 0.5532664 0.31176648 0.60668534 -0.11021964 0.74379486 0.39806515
0.727727 0.15090364 -0.081572115 0.80389917 0.2190761 0.59841794 0.31152958 -0.12260332
0.5847528 0.47271425 0.46044382 0.23856132 0.32253 0.5121241 0.23322016 -0.24569224
0.79913354 0.36338842 0.19103977 0.3930065 0.7319421 0.056008365 0.73033357 0.019333169
0.032742754 0.2796491 0.11760155 0.41548535 0.43316838 0.31782794 0.8258139 0.48783702
0.17712049 0.040926162 0.028278764 0.28500304 -0.120260045 -0.11455574 0.21908924 0.34034494
0.17264858 0.60808825 -0.2815987 -0.2464908 -0.14885288 0.5332889 -0.16037525 -0.09608276
0.23414938 0.6885857 0.45305428 0.7476937 0.21621504 0.17538495 -0.28068057 -0.05744505
-0.049257644 0.299642 0.6560481 0.11897687 0.67848504 0.5541289 -0.02491228 0.54764676
-0.0049659545 -0.21339117 0.65639865 -0.015076824 0.6297848 0.6072304 0.37476262 0.0860704
0.41345888 0.043531105 0.054530546 0.15148462 0.023262288 -0.19171049 -0.04744967 0.14333788
0.14035869 -0.18620461 -0.13711403 0.11694906 0.3641382 0.14422691 -0.08006747 0.68810093
0.79717 0.35085768 -0.020483468 -0.12780495 0.24869849 0.017825708 0.3410401 0.60324234
0.18623021 0.4944537 0.16675971 0.81476176 0.33910367 0.19708407 0.4096723 0.09240136
0.43342498 0.33091152 -0.024582272 0.10570826 0.02155131 0.030647343 0.093259916 0.21338086
0.66942483 -0.37362385 0.15278421 0.5390894 0.047864974 0.25389156 0.6896091 0.6196027
-0.31875455 0.21147199 -0.2195127 -0.09535472 -0.09794703 0.47467873 0.60983026 0.16878164
-0.09072269 0.36672327 -0.119322054 0.070346184 -0.018929074 0.28820968 0.94104487 0.2614034
0.055687163 0.26868314 0.22509627 0.2088878 0.022988169 0.49190226 -0.1165654 0.7239354
0.13342506 0.3718471 0.06765777 0.04296643 0.24600607 0.7926211 -0.04790673 0.60552835
-0.13697915 0.39273506 0.34963113 -0.13068023 0.40598595 -0.155137 0.7462716 0.12423834
0.035365388 0.4653943 0.17062923 0.03738485 0.03273829 0.21331358 -0.0052845874 0.61865056
00000000: ea1f 02bc 23e0 16be 6e57 d63d a7c4 ca3d
00000010: a475 fd3e 870f 023f 167b 833e 6fa3 0dbc
00000020: e66d 633e 717f db3e 473f 87be 737c 473f
00000030: 90f4 103f 6168 1cbe 1233 9c3e 1acc 7b3e
00000040: 6a88 6e3e 1805 133f 577b 023e 96d5 07be
00000050: 2288 f93e 27fe d63e cd7b d73e bd3e f93e
00000060: 8483 5ebd 0667 f23e b716 dd3d 9189 843d
00000070: 5b51 5f3f 7d0b 723d 66fb d73e 5abf 2f3f
00000080: 6528 633e 48d7 283e 2db6 cf3e 2aa2 023f
00000090: 5053 e3bc 2665 593f dbc6 77be a4e1 093e
000000a0: dd90 c2bd f3ad df3e 2e19 da3d e7de 2a3f
000000b0: 96f9 513f d66f 89bc 2c57 633d 021d 623e
000000c0: 5a6d b53e be6a 883e bb6a d43e 782c c43e
000000d0: 3530 9d3d d164 a4bd db1c 0d3e aeab fc3e
000000e0: f60a 2ebe 2078 ab3e 181a df3e d13c 033f
000000f0: 6394 193f 26fe fa3e c80d 4b3d c0c0 783e
00000100: 6e8a 383f e794 783f cdf8 013e d9b2 e93e
00000110: 4eb1 f9bc e99d 1f3d 1a97 2e3e 37ca e83e
00000120: b2b3 0bbe 440e 153f d50d 313f f5ee 1c3f
00000130: 039c 473f 9473 3b3d 0b55 693b b4e1 5c3e
00000140: 135b 2d3f dbed 9fbd dea2 0d3f db9f 9f3e
00000150: bb4f 1b3f d6ba e1bd 5769 3e3f 32cf cb3e
00000160: 514c 3a3f 7c86 1a3e 480f a7bd 56cc 4d3f
00000170: 7c55 603e eb31 193f ce80 9f3e 7317 fbbd
00000180: 5cb2 153f 9a07 f23e 4bbf eb3e 6b49 743e
00000190: a722 a53e 911a 033f 44d1 6e3e bf96 7bbe
000001a0: 0494 4c3f 0c0e ba3e ee9f 433e 2638 c93e
000001b0: 8f60 3b3f 0769 653d 24f7 3a3f 9860 9e3c
000001c0: 441d 063d 2b2e 8f3e 15d9 f03d 7fba d43e
000001d0: 3fc8 dd3e 58ba a23e 8a68 533f c6c5 f93e
000001e0: 135f 353e 31a2 273d dea8 e73c ebeb 913e
000001f0: e64a f6bd 339c eabd ee58 603e b141 ae3e
00000200: caca 303e acab 1b3f b42d 90be 1668 7cbe
00000210: e46c 18be 9f85 083f 6939 24be 0ac7 c4bd
00000220: dbc4 6f3e 2747 303f bbf6 e73e db68 3f3f
00000230: 7a67 5d3e 1d98 333e 5db5 8fbe 804b 6bbd
00000240: 62c2 49bd ad6a 993e c5f2 273f 25aa f33d
00000250: 32b1 2d3f 64db 0d3f d614 ccbc 9432 0c3f
00000260: 72b9 a2bb 3783 5abe be09 283f c904 77bc
00000270: 9439 213f 7473 1b3f e3e0 bf3e ae45 b03d
00000280: e2b0 d33e ac4d 323d 6c5b 5f3d c91e 1b3e
00000290: 8e90 be3c c14f 44be 965a 42bd 2ac7 123e
000002a0: 30ba 0f3e 6cac 3ebe 9f67 0cbe fd82 ef3d
000002b0: 5270 ba3e 38b0 133e 6afa a3bd 6227 303f
000002c0: 5513 4c3f 9ea3 b33e f2cc a7bc 4ddf 02be
000002d0: d1aa 7e3e 3807 923c cf9c ae3e 176e 1a3f
000002e0: 22b3 3e3e 0929 fd3e 0fc3 2a3e 3a94 503f
000002f0: ff9e ad3e 68d0 493e 91c0 d13e ed3c bd3d
00000300: e1e9 dd3e 3c6d a93e c360 c9bc 927d d83d
00000310: 5f8c b03c 2310 fb3c 0eff be3d 8380 5a3e
00000320: 6d5f 2b3f a04b bfbe 7773 1c3e c301 0a3f
00000330: 100e 443d 13fe 813e 398a 303f 489e 1e3f
00000340: cc33 a3be 1d8c 583e f0c7 60be 5649 c3bd
00000350: 7498 c8bd 1709 f33e d61d 1c3f 18d5 2c3e
00000360: d1cc b9bd 27c3 bb3e 1f5f f4bd a911 903d
00000370: 2511 9bbc 3890 933e 51e8 703f abd6 853e
00000380: 3918 643d d690 893e a37f 663e afe6 553e
00000390: af51 bc3c 9dda fb3e d7b9 eebd d553 393f
000003a0: 94a0 083e be62 be3e 2890 8a3d 91fd 2f3d
000003b0: 04e9 7b3e 37e9 4a3f d939 44bd e803 1b3f
000003c0: 4344 0cbe 9214 c93e da02 b33e 0ad1 05be
000003d0: 64dd cf3e 3cdc 1ebe a80b 3f3f ac70 fe3d
000003e0: 4cdb 103d 2948 ee3e 6eb9 2e3e db20 193d
000003f0: 9618 063d e06e 5a3e 552a adbb e25f 1e3f

trunk.network.1.weight f4 [256]
0.9419732 1.7555814 1.4148903 1.4442407 2.1192377 0.66843885 0.6502704 0.6235676
0.83863556 0.8655949 1.6569527 1.5807425 2.0254605 0.9600346 0.94396186 0.6495461
1.0761782 0.7790617 0.83291316 0.67667574 1.754896 0.515866 0.47969538 0.25257757
1.5592934 0.9293479 0.9417473 1.1041852 0.61040443 1.5971819 1.2822316 0.5941972
0.94307745 1.4794452 0.95168 1.6079832 1.1846839 1.1434467 0.57547206 2.1171343
1.2861145 1.3746182 1.1273688 1.5893226 0.53504807 1.3445925 2.0710742 1.4920408
2.3437524 0.9791885 2.1125302 0.663747 1.7513624 0.31814513 1.5296181 0.41446593
2.1697178 0.9556081 1.797165 0.21499088 1.0151087 1.8250954 1.899159 1.3153844
1.0959924 0.1595377 1.2466394 1.5253571 1.311585 1.3828484 0.88583934 0.9112084
1.999223 1.0665808 2.7336636 2.1702983 0.32252726 1.8607293 1.6012088 2.2322376
1.8030367 2.0510137 1.2734315 3.1744678 0.95967156 1.9156836 0.2041628 0.76317585
0.43460488 1.6407568 1.2662139 0.8966792 1.2669386 1.2060498 1.9739614 0.7893385
1.4722826 1.1486969 0.5444965 1.064048 2.0349617 1.2197647 1.9992543 1.4728026
1.226981 0.9376024 2.3048952 1.4676161 1.1226046 0.61457556 1.1480132 1.6548834
1.194367 2.1969578 2.4872377 2.900145 0.42781717 1.2128575 0.93306077 1.1738113
1.5302637 0.8187415 1.4829491 1.4534498 2.2964501 0.63978124 1.3821832 0.22175358
2.2693484 0.8070574 1.0422055 1.555716 2.1444325 1.5717745 0.54524565 1.2591779
2.9926612 1.0180764 0.66462094 1.2995166 1.1560726 1.0550345 0.8126402 1.2894723
1.676076 1.8028766 1.4704716 1.7462964 0.29831365 1.4394183 0.582497 2.2156565
0.92258424 2.1311572 2.3164911 1.1913742 1.406908 0.55370414 2.1301339 0.30846074
3.471335 1.5605124 0.60545206 1.07494 2.0358784 1.3113902 0.9414656 1.4837931
0.98152363 1.3245709 1.6124719 0.57004464 0.9751597 0.97421885 1.0864723 0.78010035
0.6710625 2.5832677 0.5542596 0.7763108 0.9898133 1.3415347 1.4437338 0.50900674
1.1949157 0.45350993 1.00418 0.35879263 1.358905 0.46347442 0.8254305 1.6568091
1.0357054 1.5825968 0.7488184 0.8471122 0.9588368 2.188489 2.5733511 0.52054846
0.9147333 1.160234 1.2515596 1.3548127 1.4016386 3.2912648 0.19424328 2.0370493
1.1199259 1.3269254 1.1352557 2.2313612 3.311893 1.062713 1.9754885 2.1852756
1.2213275 1.9042606 0.9208121 1.2828504 0.7296741 0.6252554 0.49293044 1.4578898
0.59050566 1.2737793 1.387074 1.1868795 0.92583084 0.6357092 0.5388886 0.86790806
1.3785486 0.5397154 1.4779104 1.8210427 1.852686 0.58931607 1.7505647 1.173624
0.7366001 0.73349583 0.4303089 1.2762132 0.33450603 1.8747958 0.6211842 0.4352333
1.1628875 0.7991289 0.7788875 2.0481887 2.9249787 1.0160729 1.5366757 0.990164
00000000: 2825 713f e4b6 e03f 201b b53f e1dc b83f
00000010: 97a1 0740 cf1e 2b3f 1f78 263f 20a2 1f3f
00000020: d2b0 563f a197 5d3f 0717 d43f c555 ca3f
00000030: 25a1 0140 d4c4 753f 7ca7 713f a748 263f
00000040: 35c0 893f 9670 473f cc39 553f 9f3a 2d3f
00000050: 6fa0 e03f cb0f 043f a29a f53e d951 813e
00000060: ed96 c73f bee9 6d3f 5a16 713f f155 8d3f
00000070: 7743 1c3f 7570 cc3f 2a20 a43f 4f1d 183f
00000080: 866d 713f 765e bd3f 4da1 733f 65d2 cd3f
00000090: b9a3 973f 765c 923f 2352 133f 217f 0740
000000a0: 669f a43f 7df3 af3f 9f4d 903f ec6e cb3f
000000b0: e9f8 083f 9b1b ac3f 7b8c 0440 31fb be3f
000000c0: 0a00 1640 19ac 7a3f b233 0740 53eb 293f
000000d0: a52c e03f ebe3 a23e 87ca c33f e134 d43e
000000e0: a8dc 0a40 bca2 743f 8109 e63f 9226 5c3e
000000f0: 15ef 813f ba9c e93f a417 f33f 845e a83f
00000100: 7b49 8c3f da5d 233e e191 9f3f e73e c33f
00000110: 04e2 a73f 2d01 b13f 5ec6 623f f444 693f
00000120: 8ae6 ff3f b885 883f 58f4 2e40 2be6 0a40
00000130: 4b22 a53e 612c ee3f 69f4 cc3f fbdc 0e40
00000140: e8c9 e63f cf43 0340 ceff a23f 7b2a 4b40
00000150: 09ad 753f 1f35 f53f 0e10 513e 7e5f 433f
00000160: 8884 de3e 5204 d23f 4c13 a23f c58c 653f
00000170: 0b2b a23f d75f 9a3f c4aa fc3f 1712 4a3f
00000180: c273 bc3f 8008 933f 1f64 0b3f ba32 883f
00000190: d03c 0240 4021 9c3f 91e7 ff3f cc84 bc3f
000001a0: b70d 9d3f b606 703f 6783 1340 d8da bb3f
000001b0: 82b1 8f3f d354 1d3f 19f2 923f 38d3 d33f
000001c0: 05e1 983f f59a 0c40 e72e 1f40 fa9b 3940
000001d0: da0a db3e ea3e 9b3f 12dd 6e3f 733f 963f
000001e0: aedf c33f 0b99 513f 47d1 bd3f a50a ba3f
000001f0: 0af9 1240 b4c8 233f 61eb b03f 5f13 633e
00000200: 013d 1140 509b 4e3f fd66 853f b421 c73f
00000210: 623e 0940 e82f c93f 3895 0b3f be2c a13f
00000220: c387 3f40 5450 823f 9924 2a3f 8f56 a63f
00000230: 30fa 933f 5f0b 873f 3009 503f 6e0d a53f
00000240: a989 d63f a9c4 e63f 6a38 bc3f a486 df3f
00000250: 91bc 983e dc3e b83f 861e 153f 51cd 0d40
00000260: 7b2e 6c3f e164 0840 6441 1440 f37e 983f
00000270: 9015 b43f 8ebf 0d3f 1d54 0840 91ee 9d3e
00000280: 5a2a 5e40 dfbe c73f e8fe 1a3f a297 893f
00000290: d54b 0240 a2db a73f e403 713f efec bd3f
000002a0: 2245 7b3f 8a8b a93f 7b65 ce3f 72ee 113f
000002b0: 11a4 793f 6866 793f 8611 8b3f a8b4 473f
000002c0: c1ca 2b3f 4254 2540 f5e3 0d3f 4ebc 463f
000002d0: 6864 7d3f 69b7 ab3f 45cc b83f 444e 023f
000002e0: fff2 983f 7432 e83e f888 803f abb3 b73e
000002f0: 99f0 ad3f 854c ed3e 6a4f 533f 5212 d43f
00000300: ff91 843f 8892 ca3f 90b2 3f3f 58dc 583f
00000310: 5476 753f 3410 0c40 c9b1 2440 aa42 053f
00000320: f62b 6a3f 8c82 943f 1b33 a03f 816a ad3f
00000330: e568 b33f 15a4 5240 b6e7 463e 045f 0240
00000340: bb59 8f3f b1d8 a93f 0f50 913f 9fce 0e40
00000350: 0ef6 5340 fb06 883f cfdc fc3f 8edb 0b40
00000360: 7654 9c3f d0be f33f 57ba 6b3f 7134 a43f
00000370: eccb 3a3f bd10 203f 6161 fc3e 229c ba3f
00000380: 612b 173f 330b a33f a48b b13f abeb 973f
00000390: 4003 6d3f d7bd 223f 9af4 093f 392f 5e3f
000003a0: 4874 b03f ca2a 0a3f 2b2c bd3f ed17 e93f
000003b0: d124 ed3f 6bdd 163f 8112 e03f 5039 963f
000003c0: d391 3c3f 62c6 3b3f 7351 dc3e f45a a33f
000003d0: 6044 ab3e 4ff9 ef3f ed05 1f3f e6d6 de3e
000003e0: 7fd9 943f b693 4c3f 2c65 473f 8615 0340
000003f0: da32 3b40 ad0e 823f cab1 c43f 637b 7d3f

trunk.network.1.bias f4 [256]
-0.28464687 0.05833983 -0.06734626 -0.053492937 -0.22793996 -0.69646806 -0.47800362 -0.6056159
-0.49991885 -0.47484714 -0.028042508 -0.29100195 -0.043389305 -0.2646245 -0.36501622 -0.40988886
-0.532772 -0.3499467 -0.44946232 -0.42698678 -0.11796551 -0.6976116 -0.6396012 -0.83017474
-0.14202128 -0.35094622 -0.3038559 -0.20807841 -0.5775915 -0.119451426 -0.2422097 -0.70400774
-0.40545887 -0.15087084 -0.5382178 -0.1252376 -0.2416655 -0.22489858 -0.5633333 0.028237721
-0.25503522 -0.39123705 -0.16785273 -0.157176 -0.6501228 -0.21699466 -0.021164889 -0.26488855
0.027460057 -0.32748497 0.026357101 -0.60248744 -0.16325544 -0.7918696 -0.15610418 -0.6511527
-0.020369273 -0.26986757 -0.060798172 -0.8211547 -0.4080324 -0.04073829 -0.17432858 -0.21659596
-0.283588 -0.84323865 -0.21178699 -0.21916482 -0.3086145 -0.16580088 -0.44595125 -0.60764635
-0.07801878 -0.276488 0.28358772 -0.04946731 -0.77035075 -0.0070408313 -0.04615903 -0.15222858
-0.0508848 -0.03277002 -0.13384758 0.35126725 -0.38523757 -0.15535259 -0.795934 -0.52461
-0.6646508 -0.11836096 -0.26862434 -0.29055396 -0.2725218 -0.3995072 -0.041943874 -0.3850057
-0.047871757 -0.419838 -0.6115843 -0.30625612 -0.017728424 -0.19470666 -0.09736659 -0.27541327
-0.12836468 -0.36540732 -0.0036727681 -0.30425784 -0.3093789 -0.5910059 -0.2635723 -0.050833292
-0.38731855 -0.1278706 -0.025909752 0.19598722 -0.69355196 -0.19155459 -0.22569467 -0.26052183
-0.14757167 -0.43787938 0.06496494 -0.040659986 0.0029005522 -0.41941714 -0.18939774 -0.8592592
0.24860823 -0.53716844 -0.3749687 -0.31104136 -0.09003905 -0.26121473 -0.6485513 -0.24736911
0.1426949 -0.33969018 -0.4649005 -0.14118826 -0.37253663 -0.42310712 -0.4826532 -0.10296615
-0.026306843 -0.14489688 -0.19539712 -0.10341677 -0.7913118 -0.49724045 -0.59267974 0.01982694
-0.25515878 0.040705778 0.17282209 -0.2671249 -0.18557133 -0.6609943 0.09191191 -0.81806326
0.2882504 -0.1542959 -0.61639893 -0.30025578 -0.0059316573 -0.097265124 -0.33169362 -0.020197298
-0.5772304 -0.1331317 -0.2578146 -0.3741715 -0.18617254 -0.503594 -0.21127383 -0.3475324
-0.56759274 0.10529647 -0.6203089 -0.53062755 -0.49187496 -0.24180172 -0.124750346 -0.7017463
-0.24373813 -0.5730368 -0.47046524 -0.7789042 -0.12008137 -0.65756744 -0.44536528 0.16704105
-0.38267908 -0.37325644 -0.47502124 -0.50476223 -0.39509842 0.097265474 0.074418135 -0.50930655
-0.33999318 -0.15091488 -0.20806363 -0.27224204 -0.19519967 -0.00453908 -0.8687316 0.16719258
-0.2939624 0.028282551 -0.24905403 -0.0375529 0.14512776 -0.39176556 -0.0033356827 -0.04275179
0.014387451 -0.09931361 -0.3818488 -0.11351124 -0.44662306 -0.6000079 -0.61651623 -0.3663066
-0.60311866 -0.1840395 -0.2343293 -0.30702305 -0.57118917 -0.5553119 -0.50002474 -0.39843938
-0.25309366 -0.65096647 -0.43382782 -0.16377331 -0.036237504 -0.5988973 0.023062369 -0.30340704
-0.3662085 -0.50931835 -0.7047307 -0.29080686 -0.787611 -0.08953267 -0.6393497 -0.5238641
-0.28792796 -0.5698309 -0.47397873 -0.0034877998 0.2600028 -0.3723714 -0.18420042 -0.48680794
00000000: 3cbd 91be bff5 6e3d d6ec 89bd 691b 5bbd
00000010: 1869 69be bb4b 32bf e4bc f4be a509 1bbf
00000020: 5df5 ffbe 2a1f f3be 67b9 e5bc 35fe 94be
00000030: fcb8 31bd dd7c 87be 68e3 babe f4dc d1be
00000040: bf63 08bf 372c b3be ed1f e6be 039e dabe
00000050: e797 f1bd ac96 32bf e7bc 23bf 5586 54bf
00000060: 076e 11be 39af b3be 0093 9bbe 8212 55be
00000070: 09dd 13bf f3a2 f4bd d205 78be da39 34bf
00000080: 4e98 cfbe e37d 1abe a4c8 09bf 493e 00be
00000090: 2977 77be d04b 66be 9c36 10bf cb52 e73c
000000a0: fa93 82be 3950 c8be 96e1 2bbe bff2 20be
000000b0: 736e 26bf d933 5ebe fd61 adbc 799f 87be
000000c0: eaf3 e03c 1cac a7be d9ea d73c 9e3c 1abf
000000d0: 6f2c 27be f7b7 4abf c6d9 1fbe f1b1 26bf
000000e0: 76dd a6bc 152c 8abe 8107 79bd 3237 52bf
000000f0: 9fe9 d0be 31dd 26bd 3183 32be 55cb 5dbe
00000100: 7232 91be 7dde 57bf b0de 58be be6c 60be
00000110: b802 9ebe b5c7 29be b953 e4be b68e 1bbf
00000120: 4fc8 9fbd d68f 8dbe 6932 913e 3c9e 4abd
00000130: b535 45bf c6b6 e6bb 4011 3dbd cfe1 1bbe
00000140: 946c 50bd db39 06bd 570f 09be 4dd9 b33e
00000150: dc3d c5be c014 1fbe 55c2 4bbf d74c 06bf
00000160: 8e26 2abf 3b67 f2bd 2189 89be 7dc3 94be
00000170: fa87 8bbe 358c ccbe 57cd 2bbd 781f c5be
00000180: 2d15 44bd 02f5 d6be ca90 1cbf 9acd 9cbe
00000190: 333b 91bc 2f61 47be 2268 c7bd f802 8dbe
000001a0: 0872 03be ab16 bbbe d3b2 70bb afc7 9bbe
000001b0: e966 9ebe 2a4c 17bf f3f2 86be 9236 50bd
000001c0: 9e4e c6be 83f0 02be b040 d4bc e0b0 483e
000001d0: 9f8c 31bf e326 44be 811c 67be 1e63 85be
000001e0: 071d 17be ba31 e0be 570c 853d 168b 26bd
000001f0: 3117 3e3b d8bd d6be 7bf1 41be 69f8 5bbf
00000200: 2893 7e3e df83 09bf e6fb bfbe d040 9fbe
00000210: 6566 b8bd f0bd 85be 7507 26bf 544e 7dbe
00000220: 9d1e 123e dfeb adbe 7007 eebe a893 10be
00000230: 1fbd bebe 7fa1 d8be 521e f7be ebdf d2bd
00000240: 7381 d7bc d95f 14be 2f16 48be 2ccc d3bd
00000250: 6993 4abf 4d96 febe dcb9 17bf 1b6c a23c
00000260: 2ca4 82be 1abb 263d 46f8 303e 98c4 88be
00000270: 6906 3ebe ec36 29bf 503c bc3d 986c 51bf
00000280: 8e95 933e bfff 1dbe 52cc 1dbf 20bb 99be
00000290: 595e c2bb f032 c7bd bfd3 a9be ce74 a5bc
000002a0: 5fc5 13bf ad53 08be 4600 84be 6893 bfbe
000002b0: 04a4 3ebe 89eb 00bf 2b58 58be c4ef b1be
000002c0: c24d 11bf ada5 d73d 90cc 1ebf 35d7 07bf
000002d0: 09d7 fbbe df9a 77be 1c7d ffbd a5a5 33bf
000002e0: 7d96 79be 8ab2 12bf d2e0 f0be 4466 47bf
000002f0: 39ed f5bd 5756 28bf eb06 e4be cf0c 2b3e
00000300: 83ee c3be 781b bfbe fc35 f3be 1938 01bf
00000310: 574a cabe 1f33 c73d 8968 983d ea61 02bf
00000320: 9613 aebe 6e89 1abe a20e 55be 4f63 8bbe
00000330: 6ce2 47be 90bc 94bb 3265 5ebf 8834 2b3e
00000340: 3d82 96be cfb0 e73c 0508 7fbe 12d1 19bd
00000350: 5f9c 143e 7f95 c8be 789b 5abb 801c 2fbd
00000360: 58b9 6b3c ef64 cbbd b081 c3be 9578 e8bd
00000370: c7ab e4be 1e9a 19bf 02d4 1dbf 8a8c bbbe
00000380: fc65 1abf da74 3cbe 05f4 6fbe 2032 9dbe
00000390: 7439 12bf ec28 0ebf 9f01 00bf 3f00 ccbe
000003a0: 7e95 81be bda5 26bf ae1e debe 31b4 27be
000003b0: c76d 14bd 5551 19bf 4bed bc3c 2b58 9bbe
000003c0: ae7f bbbe b062 02bf 3b69 34bf a3e4 94be
000003d0: e0a0 49bf e85c b7bd 6cac 23bf f51b 06bf
000003e0: 4b6b 93be 70e0 11bf 57ad f2be 9293 64bb
000003f0: 161f 853e 77a7 bebe 099f 3cbe e43e f9be

trunk.network.3.weight f4 [256, 256]
-0.7545521 -0.48567954 -0.34198585 0.5048219 -0.53376645 0.8864672 0.2648459 0.111782156
0.41407833 0.28647363 0.02098553 0.3316228 -0.43875024 0.15102944 0.054762684 0.14359814
0.4482764 0.08251026 0.27453294 0.34352365 0.2222588 0.20263748 0.3892526 0.47435424
-0.20257515 0.43207774 0.064073406 -0.30838528 0.55069894 -0.95299083 -0.34766823 -0.12098764
0.2935435 0.451173 -0.029561259 0.101406515 0.92170686 -0.24459544 0.06398973 -0.7617741
0.25363255 -0.1121503 -0.00024960452 0.008178676 0.7005437 0.47611913 -0.25318143 -0.21771765
0.59443945 -0.31570095 0.15467036 -0.3758297 -0.4410034 0.42862773 0.029593024 0.38116455
0.0579703 0.57307047 0.08020542 0.3227385 0.1419275 0.12442367 0.15086913 -0.13302845
0.25403413 0.065686375 -0.27261376 0.4079153 0.2508796 0.16920175 0.47640827 0.58595854
0.52122337 0.32558987 0.47222245 0.13641962 0.59459096 -0.015298154 0.38241568 -0.09870177
0.0592394 0.23807444 0.47251022 0.15838423 0.050263215 0.28998846 0.2327953 0.25497347
-0.17252085 0.31010905 0.121589206 0.09687985 0.33646068 0.4719576 0.41315508 0.77320564
-0.08817389 -0.4375136 0.6641496 0.36617005 0.21328038 0.7780895 0.70767814 -0.21633539
0.45475385 0.36158416 0.18106999 0.5434356 -0.06642624 0.055884622 -0.17649311 0.31875068
0.2525425 -0.26342228 0.14608547 0.48276934 0.52287006 -0.27317965 0.8100685 -0.17589104
-0.27809775 0.4120876 0.4413425 0.100276865 -0.10531838 0.06762131 0.39980462 0.48137417
0.55139816 0.42057335 0.24721728 0.10593093 -0.11759827 -0.14008619 0.31285492 -0.5400022
0.5732846 0.31285238 0.48457292 0.30377448 -0.38249403 -0.13086222 0.43526864 0.4080931
0.9972913 0.76979 0.07150194 0.0052909977 0.4450235 0.50789243 0.6722486 0.9105895
-0.19545141 -0.55050635 -0.8512263 -0.033413596 0.602627 0.0055284663 -0.34580576 0.52855986
0.4317609 0.62827355 -0.22023918 0.10555494 -0.3249859 -0.22396386 0.07973581 0.08880147
0.5171957 0.56031877 0.15970697 0.041011177 0.59472066 -0.27439892 0.19116077 0.9042197
0.12382424 0.8061974 0.3188727 -0.16549736 -0.506628 -0.23754902 -0.6017055 0.20736206
0.44903794 0.18307331 0.49645787 0.81254053 0.28545347 -0.25319532 0.18343727 -0.18390061
0.22321787 0.5205788 0.5285159 0.15923072 0.30581504 -0.5102333 0.2030793 -0.029674893
0.10754417 -0.07465136 -0.08945133 0.25175977 0.06360666 0.59665185 0.600833 -0.23046345
0.273362 -0.9748728 0.20115504 0.02564762 -0.45716405 0.118820384 -0.034835342 0.39710012
0.023292901 -0.22696611 0.3963883 0.24549527 -0.055115595 0.11279398 0.40852055 -0.3994913
0.5057605 0.14765309 0.054611698 -0.042875044 0.12329438 -0.19982278 0.23132245 -0.2571632
-0.010852843 -0.16694571 -0.34719 0.8588566 -1.03161 0.02324127 0.45541152 -0.102358826
0.28156847 0.38257897 0.71981746 -0.09963325 0.44364178 0.6608968 0.17573667 0.04653862
-0.23981658 0.40306982 -0.13616374 -0.5094334 -0.00072680303 0.15566833 0.3186558 -0.5567227
00000000: 542a 41bf fdaa f8be c518 afbe 023c 013f
00000010: eba4 08bf 84ef 623f e299 873e 0bee e43d
00000020: 1302 d43e acac 923e d9e9 ab3c 77ca a93e
00000030: dfa3 e0be 76a7 1a3e d64e 603d 640b 133e
00000040: 7c84 e53e 24fb a83d 958f 8c3e 55e2 af3e
00000050: d097 633e 3380 4f3e 1e4c c73e 8fde f23e
00000060: dc6f 4fbe 4b39 dd3e eb38 833d ade4 9dbe
00000070: 9bfa 0c3f 35f7 73bf 9201 b2be 5ec8 f7bd
00000080: 554b 963e 2600 e73e 742a f2bc 38ae cf3d
00000090: fbf4 6b3f 3a77 7abe 0c0d 833d a103 43bf
000000a0: 20dc 813e 0eaf e5bd 5add 82b9 daff 053c
000000b0: d556 333f e3c5 f33e ffa0 81be 60f1 5ebe
000000c0: 2f2d 183f 8ea3 a1be e861 1e3e c06c c0be
000000d0: 33cb e1be 1875 db3e 126d f23c 0028 c33e
000000e0: 4472 6d3d bfb4 123f bd42 a43d fb3d a53e
000000f0: 7155 113e d6d1 fe3d 707d 1a3e 9c38 08be
00000100: c310 823e 9486 863d 0894 8bbe 46da d03e
00000110: 4a73 803e 3943 2d3e c9eb f33e 6101 163f
00000120: e56e 053f b7b3 a63e 24c7 f13e 96b1 0b3e
00000130: 1d37 183f 1ca5 7abc fdcb c33e 2724 cabd
00000140: 03a5 723d c9c9 733e dcec f13e 7a2f 223e
00000150: cde0 4d3d 5e79 943e e461 6e3e e28b 823e
00000160: 4ea9 30be 9dc6 9e3e c303 f93d f168 c63d
00000170: 9344 ac3e 6da4 f13e 1089 d33e cef0 453f
00000180: 8394 b4bd c801 e0be b505 2a3f a47a bb3e
00000190: 2c66 5a3e e030 473f 652a 353f 0687 5dbe
000001a0: 7fd5 e83e 8f21 b93e 696a 393e 981e 0b3f
000001b0: 7b0a 88bd 46e7 643d 9cba 34be 4a33 a33e
000001c0: 404d 813e 49df 86be 6e97 153e 8b2d f73e
000001d0: d0da 053f 34de 8bbe a660 4f3f c81c 34be
000001e0: d462 8ebe 25fd d23e a5f7 e13e f55d cd3d
000001f0: 2ab1 d7bd 0b7d 8a3d 31b3 cc3e ad76 f63e
00000200: 6e28 0d3f 6455 d73e 8726 7d3e 51f2 d83d
00000210: 5dd7 f0bd c172 0fbe 852e a03e 963d 0abf
00000220: c8c2 123f 302e a03e f119 f83e 5488 9b3e
00000230: 42d6 c3be bf00 06be 88db de3e 94f1 d03e
00000240: 7c4e 7f3f f510 453f 9c6f 923d 1b60 ad3b
00000250: 1fda e33e 3d05 023f 7c18 2c3f 651c 693f
00000260: 6a24 48be fced 0cbf f7e9 59bf b2dc 08bd
00000270: c345 1a3f 2328 b53b 740d b1be b34f 073f
00000280: c40f dd3e 89d6 203f 6186 61be 302d d83d
00000290: 8d64 a6be c856 65be 874c a33d 8cdd b53d
000002a0: f066 043f 0d71 0f3f 398a 233e 56fb 273d
000002b0: 9d3f 183f 047e 8cbe a6bf 433e f17a 673f
000002c0: 9097 fd3d f462 4e3f 4843 a33e 2478 29be
000002d0: 5fb2 01bf 0d40 73be 5f09 1abf b856 543e
000002e0: 4de8 e53e 9277 3b3e ba2f fe3e a802 503f
000002f0: f526 923e d1a2 81be fbd6 3b3e 7150 3cbe
00000300: 3a93 643e a744 053f d14c 073f 610d 233e
00000310: ca93 9c3e a69e 02bf 05f4 4f3e c318 f3bc
00000320: 1e40 dc3d d0e2 98bd 4232 b7bd a8e6 803e
00000330: 3544 823d 2dbe 183f 31d0 193f 9cfe 6bbe
00000340: 1bf6 8b3e 4491 79bf 96fb 4d3e f51a d23c
00000350: 6811 eabe 1a58 f33d 81af 0ebd b550 cb3e
00000360: c1d0 be3c ce69 68be 68f3 ca3e 1d63 7b3e
00000370: e4c0 61bd 8800 e73d 9b29 d13e 208a ccbe
00000380: 8579 013f 5f32 173e 84b0 5f3d be9d 2fbd
00000390: c481 fc3d 589e 4cbe cbdf 6c3e e5aa 83be
000003a0: 1fd0 31bc d1f3 2abe e3c2 b1be 07de 5b3f
000003b0: cc0b 84bf 7a64 be3c b32b e93e 81a1 d1bd
000003c0: be29 903e 64e1 c33e f545 383f 840c ccbd
000003d0: 0425 e33e 8830 293f 50f4 333e 489f 3e3d
000003e0: 7a92 75be 2b5f ce3e 826e 0bbe 3a6a 02bf
000003f0: ed86 3eba 8567 1f3e da26 a33e 6185 0ebf

trunk.network.3.bias f4 [256]
0.4876189 0.12450541 0.27127802 0.15703234 0.29768428 -0.13422632 0.30470058 0.22711983
0.2486567 0.17235494 1.8841283 0.24471188 0.5251123 0.37583244 0.16651015 0.15093435
0.2922672 0.1757852 0.15627414 0.1329174 0.2091942 -0.04537758 0.010386565 0.0030758095
0.13850246 0.20007569 1.4127588 0.23622747 0.22713113 0.21887866 -0.13297983 -0.028490204
0.2932125 0.2009639 0.12908082 0.13007736 0.14917126 0.14529985 0.31901336 0.28189057
0.23671195 -0.021930074 0.57728654 0.17720674 0.41459677 0.42168903 0.263589 0.16298485
0.039673768 -0.013617824 0.28506425 0.09529464 0.0316975 0.08321608 -0.011290059 -0.014846023
0.062412504 0.21638364 0.21558975 0.11462511 0.17072366 0.3036904 0.25339267 0.005314182
0.49201035 0.228744 0.31807452 0.1736481 0.35747704 0.28924164 0.07674797 -0.19386995
0.22318244 0.13100086 0.30906317 0.37057167 0.23340067 0.07768349 0.21720344 0.08657114
-0.22074892 0.255854 0.059671514 -0.039656073 0.18912435 0.14908434 0.40749472 0.40907452
0.0766665 0.35537478 0.179987 0.15566435 0.41280285 0.23195845 0.17437649 0.38230053
0.46774668 0.21101287 0.0041257064 0.5558172 0.4945801 -0.003075978 0.36272028 0.103364795
0.37124145 0.35867143 0.41721267 0.14337033 0.12302783 0.16292335 0.21367238 -0.03226662
0.20466748 0.26856992 0.24410369 0.110304624 0.4740263 0.47790578 -0.09431205 0.14310713
-0.058046583 0.11558686 0.5332296 0.37703177 0.08999471 -0.0053023836 -0.1061763 0.3792155
-0.024389613 1.7911497 0.22134773 0.28455654 0.15793455 0.24808346 0.6287522 0.061991572
0.3062118 0.066513516 0.28799707 0.44126433 0.3822911 0.25953108 0.5450369 0.014757918
0.18011864 0.3664325 0.3047415 -0.01694887 0.28663996 0.22842729 0.2768618 0.06448464
0.1336173 0.2502578 0.29537547 0.052015055 0.24604015 0.28482682 0.62056035 0.0032117248
0.40537167 0.18816558 0.15566021 0.20975032 0.036256276 0.22797553 0.45054194 0.4087559
0.052205563 -0.016142067 0.3631652 0.14488119 0.10454428 0.25652224 0.6263679 0.09565201
0.07082392 -0.040815227 0.22335257 0.3247164 0.05946301 0.37407565 0.27671438 0.23275262
0.07215049 0.4335774 0.2565527 0.34077135 0.058020603 0.46159476 -0.14600432 -0.12206587
0.12360738 0.19454935 0.50251293 0.4356999 0.22543482 -0.091306694 0.111079015 0.23415388
-0.12916064 0.22282743 -0.02318139 0.052631937 0.1675997 0.5612627 0.28033713 0.19186454
0.07712288 0.13784635 -0.10792364 0.062277485 -0.041976895 0.25842655 0.09882341 0.06874341
0.15400788 -0.08043875 0.14112481 0.66438174 0.38975757 0.18544862 0.22674343 0.046010602
0.40951765 0.31851178 0.29485446 0.15538241 0.08125937 0.1090946 1.1468766 -0.012624166
0.25958216 0.012970895 0.17879201 0.022924265 0.08462377 0.1901235 0.31778717 0.122499995
0.25193673 0.5050766 0.2490415 0.20760292 0.11650852 0.26333332 0.5022203 0.14481226
0.16147998 0.54545677 0.01725072 0.074660644 0.13247542 0.21342571 0.2534059 0.27070183
00000000: 2fa9 f93e b1fc fe3d f4e4 8a3e 16cd 203e
00000010: 136a 983e a072 09be b701 9c3e 1a92 683e
00000020: dd9f 7e3e d07d 303e 1e2b f13f c095 7a3e
00000030: c26d 063f 1c6d c03e a381 2a3e 898e 1a3e
00000040: 0ca4 953e 0901 343e 5406 203e 801b 083e
00000050: 0137 563e d7dd 39bd 692c 2a3c 8593 493b
00000060: 97d3 0d3e a4e0 4c3e 48d5 b43f 9de5 713e
00000070: 1095 683e ba21 603e dd2b 08be 4a64 e9bc
00000080: f31f 963e 7bc9 4d3e c32d 043e 0033 053e
00000090: 5ac0 183e 7cc9 143e b855 a33e f653 903e
000000a0: 9e64 723e b3a6 b3bc 0dc9 133f af75 353e
000000b0: 0746 d43e a0e7 d73e 23f5 863e 80e5 263e
000000c0: f680 223d 4b1d 5fbc f1f3 913e d629 c33d
000000d0: 3dd5 013d 316d aa3d f1f9 38bc bc3c 73bc
000000e0: 41a4 7f3d ac93 5d3e 8fc3 5c3e 92c0 ea3d
000000f0: 2fd2 2e3e 4f7d 9b3e afbc 813e 9722 ae3b
00000100: c8e8 fb3e de3b 6a3e aada a23e cfd0 313e
00000110: 3b07 b73e 7b17 943e 0a2e 9d3d d885 46be
00000120: f089 643e 1725 063e 873d 9e3e 92bb bd3e
00000130: 9600 6f3e 8618 9f3d 946a 5e3e 364c b13d
00000140: 010c 62be 4cff 823e 1e6a 743d 686e 22bd
00000150: d0a9 413e 91a9 183e 26a3 d03e 3772 d13e
00000160: 5303 9d3d aff3 b53e 834e 383e 7a66 1f3e
00000170: e55a d33e 8486 6d3e c08f 323e e5bc c33e
00000180: 7e7c ef3e c213 583e ef30 873b 094a 0e3f
00000190: 9a39 fd3e 5996 49bb 79b6 b93e ecb0 d33d
000001a0: 5c13 be3e c8a3 b73e e69c d53e accf 123e
000001b0: 04f6 fb3d 61d5 263e efcc 5a3e 012a 04bd
000001c0: 5a94 513e ff81 893e 51f6 793e 64e7 e13d
000001d0: 93b3 f23e 11b0 f43e ad26 c1bd ad8a 123e
000001e0: 41c2 6dbd ceb8 ec3d bc81 083f 4f0a c13e
000001f0: 264f b83d 9ebf adbb f672 d9bd 8928 c23e
00000200: bacc c7bc 6544 e53f fba8 623e 65b1 913e
00000210: 98b9 213e 9709 7e3e e7f5 203f e0ea 7d3d
00000220: cbc7 9c3e 3d38 883d 5a74 933e 66ed e13e
00000230: a9bb c33e 42e1 843e 8a87 0b3f 32cb 713c
00000240: 0571 383e 0a9d bb3e 1407 9c3e 5bd8 8abc
00000250: 79c2 923e d8e8 693e d4c0 8d3e 8610 843d
00000260: f9d2 083e ca21 803e 743b 973e bd0d 553d
00000270: f3f1 7b3e d2d4 913e 0bdd 1e3f cd7b 523b
00000280: e08c cf3e 7aae 403e 6465 1f3e cac8 563e
00000290: 7681 143d 6b72 693e 6fad e63e 7448 d13e
000002a0: 80d5 553d 5e3c 84bc caf0 b93e bc5b 143e
000002b0: 501b d63d e256 833e a659 203f 33e5 c33d
000002c0: 220c 913d de2d 27bd 89b6 643e 3a41 a63e
000002d0: 7c8f 733d d886 bf3e 82ad 8d3e b456 6e3e
000002e0: a3c3 933d dbfd dd3e e05a 833e 9579 ae3e
000002f0: 03a7 6d3d 2656 ec3e 2882 15be acfd f9bd
00000300: de25 fd3d f237 473e b0a4 003f 0f14 df3e
00000310: 63d8 663e 01ff babd 657d e33d 09c6 6f3e
00000320: b042 04be e02c 643e e6e6 bdbc 9694 573d
00000330: 419f 2b3e eaae 0f3f 5988 8f3e 2378 443e
00000340: 9af2 9d3d 9827 0d3e 1207 ddbd ad16 7f3d
00000350: f7ef 2bbd 7c50 843e ee63 ca3d 58c9 8c3d
00000360: 3eb4 1d3e 12bd a4bd 0683 103e ec14 2a3f
00000370: 4e8e c73e 3ee6 3d3e 6e2f 683e 9d75 3c3d
00000380: 4cac d13e fa13 a33e 2af7 963e 911c 1f3e
00000390: 506b a63d fd6c df3d dacc 923f 97d5 4ebc
000003a0: f4e7 843e e083 543c 4115 373e abcb bb3c
000003b0: 3a4f ad3d bcaf 423e 00b5 a23e 47e1 fa3d
000003c0: dafd 803e b34c 013f bc04 7f3e dc95 543e
000003d0: 059c ee3d a0d3 863e 8291 003f aa49 143e
000003e0: 025b 253e 0ea3 0b3f 6251 8d3c aee7 983d
000003f0: a3a7 073e 458c 5a3e 6bbe 813e 6e99 8a3e

trunk.network.4.weight f4 [256]
0.91931236 0.83318466 0.8522072 1.5257262 1.1594584 1.3054907 1.648752 1.0348544
0.8324374 1.1433005 0.09318576 1.3031139 0.7638926 0.8030301 1.2735486 1.3245806
1.241272 0.8712857 1.4144971 1.1162224 0.89983976 1.2181286 1.0977727 1.1564853
1.4907806 0.77389735 0.14559934 1.2016102 1.7106587 1.1383975 1.4143057 1.4902751
1.2167137 1.2768167 1.2362893 1.3028356 1.0538701 0.9057874 1.1327187 1.0723779
1.3382884 1.5619017 0.7103491 1.1949011 0.90693384 0.85641503 1.0664378 1.4107103
1.1590323 1.2702374 0.99224377 1.1567463 1.1371361 1.2336751 1.0168532 1.4976091
1.4147141 1.1318696 1.3881632 1.4258226 1.1779013 1.3313285 1.1711991 1.6685251
1.1370348 1.4031327 1.0025051 1.4072506 1.2679223 1.3269626 1.2807907 1.4841874
1.2544714 1.505999 1.1784928 1.110936 0.82544225 1.2372916 1.0332899 1.369034
1.3193226 1.1526531 1.1986399 1.1883525 1.4603801 1.2744355 1.1943932 1.278136
1.0495481 0.84715754 1.5009389 1.5146912 1.0130484 1.0593834 0.86075026 1.2974881
0.97322327 1.2376275 1.5076127 0.8026013 0.9240828 1.2435211 1.3391483 1.3766174
1.0477304 0.72045034 0.6090172 1.1910726 1.4086272 0.95524687 1.0958221 1.5063447
1.5444974 1.5867316 1.3754231 1.2412331 1.2152231 0.8484988 1.4271802 1.4310447
1.5911602 1.3579403 0.81783456 0.94562835 0.8637801 1.2679712 1.2202448 0.6174334
0.9724113 0.09545948 1.214634 1.292926 1.3274558 1.398735 0.8882288 1.2809124
1.5519296 1.5906367 1.4436507 0.95547473 1.0182304 1.423439 0.5173458 1.7365177
1.3716072 0.89048207 1.3519701 1.3092543 1.4604038 1.3655456 1.0057613 0.8553928
0.98407376 0.9561063 1.0369462 1.2818578 0.6880977 0.94527674 0.779653 1.3239688
0.5646961 0.94636625 1.7440313 1.888808 0.91293585 0.9823118 1.0603796 1.1599424
1.5541887 0.83680356 1.1730849 1.2095873 1.0586568 1.2870791 0.7368543 1.1918219
1.5985065 1.3663703 1.1171429 0.82841676 1.3403417 1.1287606 1.2590957 1.4146116
1.4368672 0.98839575 1.0877134 1.681845 1.5214746 0.6904168 1.6976182 1.7821732
1.3345032 1.1193743 1.4167337 0.9994657 0.7846904 1.2447841 1.062397 1.1995994
1.4019653 1.025922 1.3802884 1.3849496 1.0097822 0.77982086 1.1338573 1.0462021
0.78795254 1.325283 1.5856981 2.1091464 1.4372349 0.99377453 1.8502629 0.95533365
1.4945363 1.0507498 1.4648634 0.5709708 0.85556793 1.2319205 1.5100057 1.4036968
0.55818343 1.3337772 0.8754002 1.316616 1.4496862 1.1765196 0.18350288 1.3225821
1.2756714 1.5280468 1.5886698 1.198402 1.3148811 1.455578 1.302577 1.2094271
1.3571069 0.80461675 1.1443596 1.1828843 1.1770657 0.8955778 0.8079453 1.0910306
1.2990694 1.2307546 1.0352578 1.3281181 1.4131817 1.2785981 1.0960485 1.1280167
00000000: 0e58 6b3f 974b 553f 402a 5a3f ff4a c33f
00000010: 2269 943f 521a a73f 4e0a d33f 1c76 843f
00000020: 9e1a 553f ac57 923f 2dd8 be3d 70cc a63f
00000030: 778e 433f 6193 4d3f a403 a33f db8b a93f
00000040: 00e2 9e3f 940c 5f3f 3e0e b53f 60e0 8e3f
00000050: e65b 663f a3eb 9b3f d183 8c3f b607 943f
00000060: e6d1 be3f 231e 463f fe17 153e 5dce 993f
00000070: ddf6 da3f 02b7 913f f807 b53f 56c1 be3f
00000080: 46bd 9b3f bb6e a33f ba3e 9e3f 51c3 a63f
00000090: 37e5 863f afe1 673f edfc 903f ae43 893f
000000a0: 094d ab3f 65ec c73f 70d9 353f 85f2 983f
000000b0: d12c 683f 043e 5b3f 0981 883f 2892 b43f
000000c0: 2c5b 943f 2497 a23f b003 7e3f 4310 943f
000000d0: ad8d 913f 11e9 9d3f 3f28 823f a8b1 bf3f
000000e0: 5a15 b53f 1ae1 903f 55af b13f 5b81 b63f
000000f0: 78c5 963f f968 aa3f dae9 953f 3b92 d53f
00000100: 5b8a 913f da99 b33f 1652 803f ca20 b43f
00000110: 474b a23f e9d9 a93f f3f0 a33f daf9 bd3f
00000120: 8592 a03f 93c4 c03f dad8 963f 2733 8e3f
00000130: 2f50 533f 925f 9e3f d842 843f 823c af3f
00000140: 90df a83f 238a 933f 086d 993f ef1b 983f
00000150: bced ba3f b420 a33f e0e1 983f f699 a33f
00000160: 9857 863f 51df 583f c41e c03f 67e1 c13f
00000170: 92ab 813f e099 873f 215a 5c3f 1714 a63f
00000180: 2925 793f 946a 9e3f 74f9 c03f 4777 4d3f
00000190: b190 6c3f b32b 9f3f 3669 ab3f 0035 b03f
000001a0: 081c 863f 6f6f 383f 8de8 1b3f 1175 983f
000001b0: e54d b43f 0f8b 743f e643 8c3f e7cf c03f
000001c0: 17b2 c53f 051a cb3f dd0d b03f bae0 9e3f
000001d0: 6e8c 9b3f 3837 593f d7ad b63f 792c b73f
000001e0: 23ab cb3f fdd0 ad3f 9b5d 513f b314 723f
000001f0: b120 5d3f e14c a23f fb30 9c3f 1e10 1e3f
00000200: f2ef 783f 4380 c33d 2079 9b3f 997e a53f
00000210: 12ea a93f c009 b33f f662 633f f0f4 a33f
00000220: a1a5 c63f fc99 cb3f 8cc9 b83f fe99 743f
00000230: 6055 823f 4033 b63f c670 043f 3646 de3f
00000240: d390 af3f a2f6 633f 5b0d ad3f a595 a73f
00000250: 83ee ba3f 33ca ae3f c9bc 803f 06fb 5a3f
00000260: 42ec 7b3f 62c3 743f a7ba 843f eb13 a43f
00000270: 2c27 303f a8fd 713f 5797 473f cf77 a93f
00000280: ec8f 103f 0f45 723f 6b3c df3f 76c4 f13f
00000290: 2ab6 693f c978 7b3f 85ba 873f fe78 943f
000002a0: a8ef c63f c238 563f a527 963f c2d3 9a3f
000002b0: 1182 873f 02bf a43f 7ca2 3c3f 9f8d 983f
000002c0: dc9b cc3f 39e5 ae3f 8afe 8e3f 1f13 543f
000002d0: 5190 ab3f 3a7b 903f 0c2a a13f fe11 b53f
000002e0: 44eb b73f 8107 7d3f 313a 8b3f b246 d73f
000002f0: aebf c23f 28bf 303f 8e4b d93f 401e e43f
00000300: 00d1 aa3f a847 8f3f 8857 b53f fcdc 7f3f
00000310: 78e1 483f 1655 9f3f a0fc 873f 798c 993f
00000320: 9973 b33f 6951 833f 4aad b03f 0746 b13f
00000330: 8b40 813f 57a2 473f 3c22 913f f3e9 853f
00000340: 42b7 493f e0a2 a93f 28f8 ca3f 41fc 0640
00000350: 50f7 b73f 0268 7e3f 6ad5 ec3f bf90 743f
00000360: f74c bf3f f87e 863f a580 bb3f 242b 123f
00000370: 8006 5b3f 92af 9d3f de47 c13f 56ac b33f
00000380: 1ce5 0e3f 36b9 aa3f 3a1a 603f e086 a83f
00000390: 518f b93f 3298 963f 2ee8 3b3e 5f4a a93f
000003a0: 3349 a33f 0a97 c33f 8859 cb3f 3d65 993f
000003b0: 064e a83f 6150 ba3f d8ba a63f 82ce 9a3f
000003c0: aeb5 ad3f 5dfb 4d3f 607a 923f c168 973f
000003d0: 17aa 963f 9644 653f 81d5 4e3f e4a6 8b3f
000003e0: e847 a63f 5e89 9d3f 5483 843f c6ff a93f
000003f0: 23e3 b43f 1aa9 a33f 514b 8c3f da62 903f

trunk.network.4.bias f4 [256]
-0.57206327 -0.62801373 -0.46914107 -0.41390544 -0.32217532 -0.6136266 -0.11457235 -0.42354035
-0.5664059 -0.4254046 -0.9271527 -0.40340486 -0.58769935 -0.5358556 -0.29520217 -0.3290985
-0.2850404 -0.5546441 -0.16051124 -0.32964125 -0.74851 -0.50181055 -0.44279712 -0.5458399
-0.37160388 -0.62170553 -0.93566257 -0.29548877 -0.28178084 -0.33549166 -0.38713697 -0.47046438
-0.489555 -0.28797594 -0.25964805 -0.43698677 -0.6213321 -0.48493046 -0.20866045 -0.5284039
-0.2923501 -0.2999876 -0.43337092 -0.42502314 -0.48435786 -0.41328755 -0.45078507 -0.2786264
-0.42930558 -0.277054 -0.41811138 -0.3386844 -0.50416046 -0.3800849 -0.5418145 -0.389554
-0.36027765 -0.19924831 -0.36945203 -0.22225489 -0.45683393 -0.24232925 -0.46861026 -0.30115047
-0.27287817 -0.13257873 -0.5421852 -0.52221185 -0.30816814 -0.46326917 -0.3914821 -0.5309031
-0.08810331 -0.4114884 -0.33933842 -0.23391052 -0.5795083 -0.4075824 -0.51584417 -0.2925661
-0.45483205 -0.39485964 -0.47134587 -0.5232397 -0.41887772 -0.34839663 -0.5087327 -0.3748376
-0.47094357 -0.44931147 -0.25621048 -0.26419207 -0.33027652 -0.33680597 -0.541871 -0.26793268
-0.4322436 -0.25626555 -0.4296953 -0.5289159 -0.5563198 -0.30329302 -0.25485852 -0.49144012
-0.47307977 -0.6826733 -0.6608038 -0.29008746 -0.26464552 -0.56325334 -0.61629933 -0.40662393
-0.26248616 -0.17931725 -0.43855795 -0.6795072 -0.19777209 -0.2777708 -0.39460656 -0.11524664
-0.2541355 -0.55680996 -0.6465437 -0.4933418 -0.40797344 -0.49038467 -0.52443886 -0.6229224
-0.554134 -0.9288254 -0.41640386 -0.4783379 -0.30048737 -0.26957965 -0.49395266 -0.074781485
-0.158853 -0.4073404 -0.30991215 -0.5376059 -0.22884367 -0.27218568 -0.73513645 -0.2954703
-0.33052012 -0.487815 -0.2569052 -0.48823112 -0.313907 -0.28856874 -0.4051162 -0.68439335
-0.64273864 -0.43500826 -0.3010383 -0.320957 -0.8477473 -0.26472285 -0.4180514 -0.47166023
-0.84997964 -0.4848156 -0.2890935 -0.17649332 -0.5989653 -0.47194538 -0.32943487 -0.09370333
-0.25654802 -0.60234046 -0.32162488 -0.57117164 -0.43022153 -0.17779069 -0.55276835 -0.48339966
-0.26395372 -0.49808624 -0.43799224 -0.68564266 -0.46568543 -0.25254363 -0.2153961 -0.2178889
-0.30799872 -0.34598917 -0.541884 -0.18344262 -0.35080144 -0.5580173 -0.31589222 -0.5134233
-0.15593179 -0.41265175 -0.13540469 -0.4995893 -0.5250806 -0.3570815 -0.39637923 -0.46309936
-0.46088296 -0.3637693 -0.47818285 -0.3728366 -0.42450088 -0.61444277 -0.3367034 -0.3405611
-0.5025306 -0.4102034 -0.38237238 -0.070341736 -0.3866586 -0.41612765 -0.3563914 -0.46423924
-0.15978931 -0.506819 -0.3996634 -0.640433 -0.551016 -0.33701366 -0.53608793 -0.47125167
-0.87954724 -0.4009459 -0.5588315 -0.36550933 -0.3997942 -0.36183596 -0.91060466 -0.30516756
-0.4716474 -0.4944177 -0.16861074 -0.45106846 -0.4089909 -0.2988662 -0.29991785 -0.54155815
-0.25315636 -0.5831779 -0.2870904 -0.2181439 -0.5107539 -0.57129526 -0.59621805 -0.47710225
-0.45888183 -0.25569612 -0.5899801 -0.3361387 -0.25361693 -0.47861052 -0.47397676 -0.50735605
00000000: bd72 12bf 82c5 20bf 4233 f0be 6aeb d3be
00000010: 2af4 a4be a216 1dbf e9a4 eabd 48da d8be
00000020: faff 10bf a2ce d9be e159 6dbf 158b cebe
00000030: 7773 16bf d52d 09bf bd24 97be 997f a8be
00000040: d1f0 91be 28fd 0dbf 0f5d 24be bdc6 a8be
00000050: 5a9e 3fbf a876 00bf 4eb6 e2be 2abc 0bbf
00000060: dd42 bebe 1828 1fbf 9587 6fbf 4e4a 97be
00000070: 9445 90be 90c5 abbe d136 c6be b5e0 f0be
00000080: f4a6 fabe 9571 93be 97f0 84be bbbc dfbe
00000090: 9f0f 1fbf ce48 f8be 16ab 55be 7a45 07bf
000000a0: eaae 95be fa97 99be cbe2 ddbe a29c d9be
000000b0: c1fd f7be 6d9a d3be 4dcd e6be 1fa8 8ebe
000000c0: f1cd dbbe 06da 8dbe b212 d6be 0b68 adbe
000000d0: a910 01bf 7d9a c2be 5bb4 0abf 9f73 c7be
000000e0: 5076 b8be c007 4cbe d128 bdbe c996 63be
000000f0: 23e6 e9be 2925 78be afed efbe 6530 9abe
00000100: b0b6 8bbe b8c2 07be a6cc 0abf adaf 05bf
00000110: 37c8 9dbe 9e31 edbe 5870 c8be 44e9 07bf
00000120: 826f b4bd 9cae d2be c4bd adbe 3d86 6fbe
00000130: a85a 14bf a4ae d0be 5d0e 04bf 39cb 95be
00000140: bfdf e8be 0b2b cabe 3f54 f1be 09f3 05bf
00000150: 2477 d6be 0b61 b2be 4e3c 02bf b7ea bfbe
00000160: 841f f1be 270c e6be 052e 83be 2f44 87be
00000170: 011a a9be d571 acbe 0fb8 0abf 792e 89be
00000180: 084f ddbe 3d35 83be 0601 dcbe 0867 07bf
00000190: f96a 0ebf 3949 9bbe d17c 82be 0a9e fbbe
000001a0: 8337 f2be adc3 2ebf 702a 29bf 5886 94be
000001b0: 9e7f 87be 5f31 10bf cbc5 1dbf 0331 d0be
000001c0: 9664 86be f19e 37be ab8a e0be 2ff4 2dbf
000001d0: c484 4abe f937 8ebe df09 cabe 6e06 ecbd
000001e0: 0c1e 82be 198b 0ebf e383 25bf 4c97 fcbe
000001f0: e5e1 d0be b313 fbbe a041 06bf d877 1fbf
00000200: badb 0dbf 80c7 6dbf e332 d5be b5e8 f4be
00000210: 7bd9 99be 5806 8abe 5de7 fcbe 0927 99bd
00000220: 5caa 22be ec8e d0be ceac 9ebe 8aa0 09bf
00000230: ff55 6abe ec5b 8bbe e731 3cbf e247 97be
00000240: ef39 a9be e3c2 f9be 1489 83be 6ef9 f9be
00000250: 6bb8 a0be 48bf 93be 646b cfbe 6734 2fbf
00000260: 858a 24bf 67b9 debe b121 9abe 7a54 a4be
00000270: f805 59bf c189 87be d50a d6be 737d f1be
00000280: 4498 59bf c039 f8be 1004 94be aaba 34be
00000290: ca55 19bf d3a2 f1be b0ab a8be 88e7 bfbd
000002a0: 435a 83be fc32 1abf 04ac a4be 4e38 12bf
000002b0: ff45 dcbe c30e 36be 3a82 0dbf 2980 f7be
000002c0: f124 87be 2905 ffbe 8540 e0be 4786 2fbf
000002d0: 526e eebe 664d 81be cc90 5cbe 451e 5fbe
000002e0: 02b2 9dbe 7e25 b1be e9b8 0abf 62d8 3bbe
000002f0: 3f9c b3be 39da 0ebf a0bc a1be b66f 03bf
00000300: 95ac 1fbe 1747 d3be 87a7 0abe 2bca ffbe
00000310: af6b 06bf 63d3 b6be 38f2 cabe 5c1b edbe
00000320: daf8 ebbe f83f babe 62d4 f4be 70e4 bebe
00000330: 2e58 d9be 1f4c 1dbf 6364 acbe 065e aebe
00000340: d8a5 00bf 2e06 d2be 50c6 c3be 540f 90bd
00000350: 1ef8 c5be af0e d5be ef78 b6be c4b0 edbe
00000360: cf9f 23be e4be 01bf aea0 ccbe 6bf3 23bf
00000370: 620f 0dbf 0e8d acbe 0f3d 09bf e647 f1be
00000380: 022a 61bf c848 cdbe 950f 0fbf 0a24 bbbe
00000390: d3b1 ccbe 9042 b9be 631d 69bf ec3e 9cbe
000003a0: c57b f1be 5124 fdbe 4ba8 2cbe 72f2 e6be
000003b0: 4167 d1be fe04 99be d58e 99be 8ea3 0abf
000003c0: b69d 81be 264b 15bf 83fd 92be 1d61 5fbe
000003d0: c5c0 02bf 6840 12bf bfa1 18bf bf46 f4be
000003e0: 8ff2 eabe 9aea 82be f008 17bf 5f1a acbe
000003f0: 14da 81be 700c f5be 15ad f2be 16e2 01bf
